checkpoint.pt (torch, 745671 bytes, 9 tensors)

encoder.fc.weight f4 [400, 1]
00000000: 9c21 e13e 13c0 103f 2cac be3e 301f f2bd
00000010: 3f18 6b3f add2 c03e f417 babe eae0 5b3f
00000020: a2ff 2cbf 28be 6a3e d4d9 013f 982b 2dbf
00000030: b67f 173f 1855 7c3f edb3 5a3f 831a c0be
00000040: c2d6 7a3f a092 a6be f806 3bbe 1474 993e
00000050: 1ace 633f 6b6e 1e3f 1639 0e3f ab96 923e
00000060: 6c38 283f d7e1 01bf 4e80 533f 7a5d 043f
00000070: 374d 1b3f 627c 12bf 2833 a4be 6808 6dbf
00000080: 82c0 55bf 626d adbe 30f7 123e dbb6 19be
00000090: 4837 c4be 72c5 36bf 4e08 433f 03b5 763e
000000a0: 7a08 54be b748 6fbe 784f c4be b6bd 6a3f
000000b0: aaec 27bf a889 023f 66e6 edbe 6c0c 0dbf
000000c0: 80ab 74bf 94e4 433f 5346 2cbe fc0e f2be
000000d0: f88d 473d 3633 79bf c037 693f 1836 ed3e
000000e0: 5478 c3be f0fa df3e e278 4abf f08d 9b3d
000000f0: 2767 df3e 723e a93e 0039 223f 4c71 1bbf
00000100: 087b 77bf 9d29 163f eadc 0cbf d6d1 6bbf
00000110: 9e33 2ebf 83f7 5dbf 547b 2c3f 69c4 2d3f
00000120: 2de5 1dbf 76ab 3b3f 6913 753f 7ae5 c03e
00000130: b0e3 233e ce25 56bf 4e9a 3fbf 3f0e 013f
00000140: b0f7 34be be33 44bf 08d3 33bf 15e7 30bf
00000150: 9dd3 26be 0fc2 0dbf f039 313f e811 58bf
00000160: 0b6a ce3e 2000 603f 5435 1d3f a569 c33c
00000170: 000f a7bd d4a1 4bbf df34 cabe aabf 573f
00000180: f1d2 173e d053 c6bd 38d6 13bf 301d a43e
00000190: 54cc 82be 04fb 31bf f2bd 6cbf 7ab1 273f
000001a0: 2e0d 1b3f 6df0 8e3e 48a6 1b3e 006c faba
000001b0: 9a1a 403f f02c adbd 8af9 45bf 1cc1 e4be
000001c0: 978d 143f 9a2d 503f f67d 643f 1f1c b63d
000001d0: 81c4 33bd 9959 4cbe ae80 38bf e830 0a3f
000001e0: e4f7 d0be 40ab 103f f69a 02be ec6d d7be
000001f0: a972 1dbd 9244 56bf b644 5d3f 0456 7e3f
00000200: a03c 36bf 2100 28bf 2062 81bf 7007 d4be
00000210: 959e 993e 7cca 0bbf 50ee 5dbf 9294 373e
00000220: f085 8e3e 100c afbd 83c9 50bf a2c1 38bf
00000230: 71b3 e93c 9a88 063e 58e3 753e 9c3d e63e
00000240: 88e3 8cbe 8c37 afbe 6595 49bf 0450 1d3f
00000250: f036 8b3d f8bf d23e b93c a93d dc97 713f
00000260: 3066 74bf 8e1d 33be 2e65 753f 20e3 5fbf
00000270: f9ec f83e 9c5b 12bf d96e 6a3d dcf6 47bf
00000280: 7448 56bf 0698 2fbf 7227 4f3f 7c17 64bf
00000290: ba72 7ebf 13f8 76bf f095 cebe 7997 863e
000002a0: 8857 54be e403 acbe 94fa 0bbf 8834 74bf
000002b0: 601c 433e ec76 b3be 4061 d9be 7454 46bf
000002c0: 699e 3c3f 2a22 0b3f 6124 5ebf 6509 d43e
000002d0: b8b5 21bf 04c5 3a3f 9de5 313e 706e 2b3e
000002e0: cb76 0ebe 3ce4 583f 4c2a ad3d aef6 08bf
000002f0: a85d 3dbf 922b 273f b5ec 31bf b241 3abc
00000300: 5c3d 103f 653d afbd 480f d53e 8689 44bf
00000310: 2e04 7d3e 1824 4dbe 981e 07be 4065 a3bd
00000320: 3098 bc3e 5240 9b3e f894 12bf cf28 9abd
00000330: ac56 06bf b01d 753f 9498 79bf 5663 05bf
00000340: eef6 453d 98b8 243f 62f8 3b3f c5c6 27bf
00000350: 9549 94be f340 d13e 3c64 893e 28b1 113f
00000360: 006f eb3e 10c1 6bbf 3f9a a7be 807c 243c
00000370: f094 3cbe ec08 013f 74dd 30bf 4186 0b3f
00000380: 9ec0 7f3e b74e ea3e be4d 733e 8bda 77bf
00000390: 0050 103a c2a6 193e c007 353f c0b9 54bf
000003a0: b840 3abe 2df5 ecbe 510e 2ebe d646 fc3e
000003b0: 098f c53e 0142 0b3e 8ccd 463b 4c10 303f
000003c0: c7d7 db3e dec6 133f babb 3b3f 1e1f acbe
000003d0: 27d4 443f 0084 b03d ec7f bcbe 8cce 493f
000003e0: 1917 3abf 5056 893d 18e5 8b3e 5462 a73e
000003f0: cfdc 923e a056 8b3e 28c0 333f 63aa 383f
0.43970954 0.5654308 0.37240732 -0.11822355 0.9183387 0.37660733 -0.363464 0.85890067
-0.67577565 0.22924101 0.50723004 -0.67644644 0.59179246 0.9856734 0.85430795 -0.37520227
0.97983944 -0.3253374 -0.18264377 0.29971373 0.8898636 0.61887234 0.55555856 0.28630576
0.6571109 -0.5073523 0.8261765 0.51705134 0.60664696 -0.57221043 -0.3207028 -0.9259095
-0.8349687 -0.33872515 0.14352107 -0.1501116 -0.38323426 -0.7139503 0.76184547 0.24092488
-0.20706359 -0.23367582 -0.3834188 0.91695726 -0.65595496 0.50991297 -0.46464843 -0.5509708
-0.9557419 0.7652066 -0.16823702 -0.47277057 0.048719376 -0.97343767 0.9110069 0.46330333
-0.3817774 0.43746138 -0.790907 0.07595432 0.43633386 0.33055454 0.63368225 -0.6071975
-0.96672106 0.58657247 -0.5502459 -0.9211706 -0.6804751 -0.867058 0.67375684 0.67877823
-0.6167782 0.73308504 0.9573274 0.37675077 0.16004825 -0.83651435 -0.74844825 0.5041236
-0.1767261 -0.7664145 -0.70243883 -0.69102603 -0.16291662 -0.55374235 0.6922903 -0.8440232
0.4031528 0.8750019 0.614095 0.023854086 -0.08157158 -0.79543805 -0.39493462 0.8427683
0.14826562 -0.09683955 -0.57748747 0.32053518 -0.25546515 -0.69523644 -0.92477334 0.6550518
0.60566986 0.27917805 0.1520015 -0.0019105673 0.7504059 -0.08455837 -0.7733389 -0.4467858
0.5802855 0.8131958 0.892547 0.088920824 -0.043888573 -0.19956054 -0.7207135 0.53980875
-0.40814126 0.56511307 -0.12754425 -0.4207605 -0.038439427 -0.8369838 0.8643297 0.9935
-0.71186256 -0.65625197 -1.010807 -0.41411924 0.300038 -0.5460584 -0.8669176 0.17927769
0.2783656 -0.085472226 -0.8155748 -0.7217046 0.028527947 0.13138047 0.24012506 0.4496888
-0.27517343 -0.34222066 -0.7874358 0.6145022 0.06797588 0.41162086 0.08263535 0.94372344
-0.95468426 -0.17491743 0.9585751 -0.8745594 0.48618296 -0.57171035 0.05723462 -0.7811105
-0.83704305 -0.68591344 0.80919564 -0.89098334 -0.9939381 -0.9647228 -0.40348768 0.2628744
-0.20736516 -0.33596718 -0.54679227 -0.95392656 0.19053793 -0.35051668 -0.42457008 -0.77472615
0.73679215 0.54349005 -0.8677426 0.41413417 -0.63167906 0.7295687 0.17372747 0.16741347
-0.13912503 0.8472326 0.08455333 -0.53501403 -0.73971033 0.6530086 -0.6950181 -0.011368202
0.56343627 -0.08556632 0.4161322 -0.76772344 0.24708626 -0.200333 -0.13195264 -0.07978296
0.3683486 0.3032251 -0.5725856 -0.07527315 -0.52476 0.95748425 -0.9749844 -0.521047
0.048331194 0.6434417 0.7342588 -0.65537673 -0.2896239 0.40869865 0.26834285 0.56910944
0.45983124 -0.92091465 -0.32734868 0.010039449 -0.1841619 0.5040424 -0.6908791 0.5450173
0.24975821 0.4576318 0.23760125 -0.96817845 0.0005505085 0.1500502 0.7071495 -0.8309593
-0.1818875 -0.46280804 -0.16997649 0.49272794 0.3858569 0.13599397 0.0030334918 0.6877487
0.42938063 0.5772532 0.73333323 -0.3361749 0.7688622 0.08618927 -0.36816347 0.7883079
-0.72691494 0.06705916 0.27323222 0.32692206 0.2868409 0.27214527 0.7021508 0.7213499

encoder.fc.bias f4 [400]
00000000: 626f 9b3e ee4d 62be a00d 50bf 624b 3bbf
00000010: 5929 4f3f 8705 403e ff8b 433f f534 913e
00000020: db01 823e 0ced 54bf f8bc e3be f1c7 973e
00000030: 7e3a 1dbf c4e4 11bf 7017 fb3e b221 4c3f
00000040: 4223 49bf caf5 c33d f031 01bf 9029 88be
00000050: 6f40 46be cfa8 613f 2ce9 e2be 16c7 53bd
00000060: 0c8a 06bf b4a4 a93d b467 06bf aab8 69bf
00000070: 84d0 c33e 3c20 7abf 687d 4bbe 560c 3ebf
00000080: 1a07 10bf 9102 2e3e f956 1b3f 5a9b 233e
00000090: cbcb 853e 7018 79bf 56f3 77bf ee39 553f
000000a0: cc0e b83e 3d1e 9b3e a472 aebe 1ae9 16bf
000000b0: c489 e0be 6e08 d23d 0323 313f f25c 4ebf
000000c0: dca9 45bf 670f 03bf e928 443f 74ff e7be
000000d0: 345d 5f3f 709f dcbe 211b 13be 2ebb 5abf
000000e0: d0c8 373f fc2f 643f 32d4 65bf 1048 31bf
000000f0: 570b 163f b434 b23e f668 71bf 5a89 48bf
00000100: c01a 5fbf 6b43 573f e904 653e 9f68 a93e
00000110: be01 39bf 8d87 e03d 2e3e f7be 42b3 4a3f
00000120: d857 473e a7e6 f0be 9f67 a3be 689c e63e
00000130: c87a b4be 4e7d 47bf c2df 1fbf 4d8a 0f3f
00000140: 58cc 41be d655 df3e 4017 3b3e 40ec d33e
00000150: 37b0 7c3f 894a 953d 7849 4dbf 900d eebe
00000160: 3c6d 9ebe c2ab 433f b40b 1bbf 2d23 ad3e
00000170: 10c0 7bbf 44a6 e6be 1b47 3b3f 4636 683f
00000180: a79d ea3e bad8 51bf 35ee 943e 3a2c 083f
00000190: 1026 c0be 2a2b 03bf 7cc5 193f 14e8 0dbf
000001a0: 93ec debe fb45 433e 4c5d 48bf 60a9 d5bd
000001b0: a64a 65bf 56d4 57bf c659 61bf 9079 72bf
000001c0: aeff 3f3f ebcb 693e 165f 23be 012c ff3e
000001d0: 4e95 3c3f 2e6e 873e fac8 3b3f 4162 233e
000001e0: acca 9ebe 9620 36bf 985e eb3e 5dac ef3d
000001f0: a521 193f e72a 783e 1316 1d3f e861 8b3d
00000200: 7610 763f 0999 733f 8c85 e73e e085 7abd
00000210: b39e 453e 2e76 523f b59e 333f 4354 143f
00000220: 7782 503d d0ee e5be 1e0b 683d 325a 743e
00000230: 67c4 af3e ae4d 213f 4f47 83bd 287a 65bf
00000240: 803e e1bc 1050 4cbf 7ece 703f c456 423f
00000250: 54c6 bebe 3479 3cbf 72a4 febc 0f1c dcbe
00000260: 3a0d 56bf 43c0 e13e 317b d2bd 4430 1dbf
00000270: dfab 283f a01f 2abd 1a4d fb3e e0cb 18bd
00000280: ebff 1f3f b423 8b3d 52a0 033f 50d4 d9be
00000290: c0d2 17bf f022 533f 9009 f3bd 6801 34be
000002a0: 6819 dfbe b8e6 6fbe 72e0 a23e d203 c93e
000002b0: e8c0 a7be 0fd2 073f 6a94 3abf 0fc6 e13d
000002c0: 6029 573f 7b99 bc3e 1a4f 253e e996 273f
000002d0: 089e 1ebe a8d2 d53e d1f4 2f3f 4008 22be
000002e0: d1ee a63e 43ed 9cbc aba8 4f3f 4de1 3a3f
000002f0: e23a 2ebf 7a93 48bf 748a fb3d ed01 023f
00000300: 546a 13bf e4fb 803e 48ed 4dbf a8c8 f9be
00000310: 407d 033f 807a bdbd 0a9e 70bf 648c 7bbf
00000320: 222d 1bbf ca79 a83e a619 b13e a691 433f
00000330: c0e6 b8bc 02c4 33bf a841 3cbe 02c0 153f
00000340: cb63 e13e 41b1 15bc b187 8e3c 5571 bc3d
00000350: 96c4 f33c ebee be3d 1221 45bf 1b5c 0a3e
00000360: f871 12bf 9000 08be f146 8b3e 5826 6bbe
00000370: 7699 05bf de7e 51bf 0e26 0fbf 56a4 34be
00000380: 43cd d23e 1b23 49be 6b9b 7a3e befe da3e
00000390: 3053 38be 2ce4 213e c9af 2fbe e6cd 6fbf
000003a0: c271 5bbf 4248 7f3f 5a15 eb3e 4fda 5f3f
000003b0: d4ab 333f 3073 173e 17d7 793d 30c7 2abf
000003c0: 7cc6 613f d205 543f d0c7 7ebf b1ba 6f3f
000003d0: fa3d 433f 887c 4abf fa2e 13bf 37bb 553f
000003e0: 2953 0f3e 26d3 70bf 421d 1abf 0116 56be
000003f0: 4c7d 253f 8217 52bf aa5e 12be 3ae3 1d3f
0.30358416 -0.2210004 -0.8127079 -0.731619 0.80922467 0.18752109 0.7638549 0.28360716
0.2539204 -0.83174205 -0.4448011 0.2964473 -0.61417377 -0.56989694 0.4904132 0.79738915
-0.78569424 0.09568365 -0.50466824 -0.2659421 -0.19360517 0.88148206 -0.4431852 -0.051703535
-0.5255439 0.08283368 -0.5250199 -0.912974 0.38245022 -0.97705436 -0.19872057 -0.74237573
-0.56260836 0.16993167 0.60679585 0.1597723 0.26132044 -0.97302914 -0.96855676 0.8329152
0.3594879 0.30296507 -0.3407184 -0.58949435 -0.43855107 0.10255514 0.6919405 -0.80610573
-0.7721231 -0.5119538 0.76624924 -0.45312083 0.8725159 -0.4309039 -0.14365818 -0.85441864
0.7179079 0.8913572 -0.8977691 -0.69250584 0.58611053 0.34805834 -0.9430078 -0.7833458
-0.8715019 0.84087247 0.22365154 0.33087632 -0.72268283 0.10963354 -0.48289627 0.79179776
0.19467103 -0.47050974 -0.31914994 0.45041203 -0.35249925 -0.77925575 -0.624508 0.56070405
-0.18925607 0.43620175 0.18270588 0.41391182 0.9870638 0.07289607 -0.8019023 -0.46494722
-0.30942714 0.76433957 -0.6056473 0.338159 -0.9833994 -0.45048726 0.73155373 0.90707815
0.45823404 -0.81971323 0.29087988 0.53192484 -0.3752904 -0.5123774 0.6006696 -0.5543225
-0.43539867 0.19069664 -0.7826736 -0.10432696 -0.8956703 -0.84308374 -0.8802761 -0.9471674
0.7499951 0.22831695 -0.15954241 0.4983826 0.7366532 0.26451248 0.7335354 0.1595545
-0.31014 -0.7114347 0.45970607 0.117027976 0.5981696 0.24235116 0.6136181 0.068057835
0.9611887 0.9515539 0.45219076 -0.06116283 0.1929882 0.8221158 0.7016404 0.57941073
0.05090567 -0.44908762 0.056651227 0.23862532 0.3432953 0.63009155 -0.064100854 -0.8963952
-0.027495623 -0.79809666 0.9406508 0.75913644 -0.37260687 -0.7362244 -0.031084273 -0.42990157
-0.8361393 0.44091997 -0.10277403 -0.6140177 0.65887254 -0.041534066 0.4908226 -0.037303805
0.62499875 0.06793919 0.51416504 -0.42544794 -0.59305954 0.82475185 -0.11867058 -0.17578661
-0.4357407 -0.23427856 0.31811863 0.39260727 -0.32764363 0.530549 -0.7288271 0.11024105
0.8404751 0.36835846 0.16143456 0.65464646 -0.15489972 0.4176228 0.68732935 -0.1582346
0.32604077 -0.019156104 0.8111674 0.7300003 -0.680586 -0.7835003 0.12282267 0.5078419
-0.5758412 0.25192177 -0.8044019 -0.487859 0.5136299 -0.09251881 -0.9399115 -0.98261094
-0.6061574 0.32905418 0.3458988 0.76394117 -0.022570968 -0.7022096 -0.18384421 0.58496106
0.44021448 -0.009136499 0.017398687 0.09201304 0.029756825 0.09322914 -0.77003586 0.13511698
-0.5720515 -0.13281465 0.27202561 -0.22963846 -0.5218729 -0.8183421 -0.5591744 -0.17640814
0.41172227 -0.19642298 0.2447335 0.42772478 -0.18000484 0.15809697 -0.171569 -0.9367355
-0.85720456 0.9971963 0.45914727 0.8744249 0.70184064 0.14790034 0.06099614 -0.66710186
0.8819349 0.8282138 -0.9952364 0.93644243 0.76266444 -0.7909627 -0.57493556 0.8348879
0.13996567 -0.94072187 -0.60200894 -0.20906831 0.6464431 -0.8206712 -0.14293924 0.61674845

encoder.gcn.bias f4 [400]
00000000: 0000 0000 0000 0000 0000 0000 0000 0000
00000010: 6d22 9bbc de24 9bbc a8bc 433c c7cb 0ebc
00000020: 0000 0000 4626 9bbc b359 2e3c 3b26 9bbc
00000030: 402c 89bc 00f2 73ba 0000 0000 0000 0000
00000040: 142f 9abc ab1c a03c 0000 0000 0a75 d03b
00000050: e325 9bbc 0393 383c 73ac 503c 0000 0000
00000060: 8381 083c 4625 9bbc 8133 143c 0000 0000
00000070: e6e4 1cbc d039 8e3c 0000 0000 d6d5 273c
00000080: a68e 093c 0000 0000 0d25 9bbc c1b8 3f3c
00000090: 4e64 223c 0000 0000 020d 853b 0000 0000
000000a0: 0000 0000 3126 9bbc 9316 4fbc 0000 0000
000000b0: 0000 0000 0000 0000 84cd 043c 0000 0000
000000c0: 0826 9bbc cf25 9bbc 0000 0000 0000 0000
000000d0: 0000 0000 0000 0000 0000 0000 0000 0000
000000e0: bd25 9bbc 56b3 273c 0000 0000 3e26 9bbc
000000f0: 0b7d 0c3c 0000 0000 5cbd c4ba 0000 0000
00000100: 0000 0000 d125 9bbc 2607 e03b 0000 0000
00000110: e727 b7bc 425d 5a3c 0000 0000 0000 0000
00000120: 0000 0000 0000 0000 0000 0000 e6b7 4ebc
00000130: bc6e 403c 0000 0000 0000 0000 82ad 763c
00000140: c720 9bbc fa25 9bbc 0000 0000 0000 0000
00000150: 2126 9bbc 0000 0000 ca86 853c dc9f 4e3c
00000160: 0497 233c e173 e03b 0000 0000 d125 9bbc
00000170: 52aa 493c 0000 0000 e725 9bbc 0000 0000
00000180: 4b3e 8f3c d925 9bbc 0000 0000 0000 0000
00000190: 0000 0000 0000 0000 44a7 97bc 0000 0000
000001a0: 0000 0000 d957 6e3c 0000 0000 0000 0000
000001b0: 0421 9bbc 0000 0000 e28d 193c e7bd 3d3c
000001c0: 0000 0000 2e25 9bbc 3c26 9bbc 0000 0000
000001d0: 5361 f3bb e82a e339 0000 0000 fc9a ec3b
000001e0: d825 9bbc 0000 0000 6ce0 57bc 9a8d 1a3c
000001f0: 0000 0000 f0f2 68bc cf45 033c 9d77 70bc
00000200: 0000 0000 b524 9bbc 3c22 d3bc 56b3 d73b
00000210: 0000 0000 1415 92bc c548 a63c 0000 0000
00000220: 8125 9bbc 2426 9bbc 0000 0000 5924 9bbc
00000230: 894e 843c 0f2d 8fbc 958c ca3b 0000 0000
00000240: 0000 0000 0000 0000 0000 0000 fa0f 673c
00000250: 0000 0000 993b 583c 0000 0000 0000 0000
00000260: 0000 0000 0000 0000 df25 9bbc 48d0 003c
00000270: 1405 d73b 0000 0000 2126 9bbc 0000 0000
00000280: 1415 92bb 00e5 de3b 0000 0000 9225 9bbc
00000290: b6b1 ea3a 0000 0000 17fc 1bbc 0000 0000
000002a0: 5325 9bbc 5043 36bc ec0c 2b3c 0000 0000
000002b0: 0000 0000 0000 0000 64a7 103c 0000 0000
000002c0: 325c 7c3c f547 5dbc 4423 9bbc 7969 5c3c
000002d0: d324 9bbc 3126 9bbc 0000 0000 a9e5 303c
000002e0: 08cf 373c a58b e03a 0000 0000 34e5 883c
000002f0: 0000 0000 ee25 9bbc 1126 9bbc fe25 9bbc
00000300: 7ec7 be3a af95 7e3c 0000 0000 0000 0000
00000310: 9120 92bc 0000 0000 cf25 9bbc 0000 0000
00000320: 92d1 ad3c c524 9bbc 0000 0000 0000 0000
00000330: daff 243c 0000 0000 0000 0000 c1fe 7f3c
00000340: 0000 0000 0a26 9bbc 0000 0000 3e26 9bbc
00000350: b125 9bbc 0000 0000 00cc 8c3c 0000 0000
00000360: 1055 263c 2bae 903c 05c1 cc3b 388c 99bc
00000370: 0000 0000 3d0b 653c 0000 0000 08e4 303c
00000380: 0000 0000 0000 0000 7691 a1bc 0000 0000
00000390: 0000 0000 0000 0000 0000 0000 ea25 9bbc
000003a0: 3726 9bbc 5a3a f2bb b31c 543c 9c95 de3b
000003b0: 0000 0000 0000 0000 6b24 9bbc 38dd a83b
000003c0: 4226 9bbc d525 9bbc ea25 9bbc e523 9bbc
000003d0: 0000 0000 b02a fd3c 9cac 8fbb 0000 0000
000003e0: 1b45 5e3c 121a 9bbc 639f a8bc d307 983c
000003f0: 0000 0000 f922 9bbc da23 9bbc 0000 0000
0.0 0.0 0.0 0.0 -0.018937314 -0.018938478 0.011946835 -0.0087155765
0.0 -0.018939149 0.010641503 -0.018939128 -0.016744733 -0.0009305775 0.0 0.0
-0.018821277 0.01954492 0.0 0.0063616084 -0.018938964 0.011265519 0.012736428 0.0
0.008331659 -0.018938672 0.009045483 0.0 -0.009576058 0.017361552 0.0 0.010243854
0.008395826 0.0 -0.018938566 0.011701764 0.00991161 0.0 0.0040603885 0.0
0.0 -0.01893911 -0.012639659 0.0 0.0 0.0 0.008105639 0.0
-0.018939033 -0.018938927 0.0 0.0 0.0 0.0 0.0 0.0
-0.018938893 0.010235628 0.0 -0.018939134 0.008574734 0.0 -0.0015010047 0.0
0.0 -0.01893893 0.0068367897 0.0 -0.022357894 0.013327898 0.0 0.0
0.0 0.0 0.0 -0.012617087 0.011745151 0.0 0.0 0.015056016
-0.018936528 -0.018939007 0.0 0.0 -0.01893908 0.0 0.016299624 0.012611356
0.009984735 0.0068497513 0.0 -0.01893893 0.012308674 0.0 -0.018938972 0.0
0.017485758 -0.018938946 0.0 0.0 0.0 0.0 -0.018512376 0.0
0.0 0.014547312 0.0 0.0 -0.018936642 0.0 0.009372206 0.011580921
0.0 -0.018938627 -0.01893913 0.0 -0.0074273734 0.00043328782 0.0 0.007220624
-0.018938944 0.0 -0.013176065 0.0094331745 0.0 -0.014218077 0.008012249 -0.0146769555
0.0 -0.018938402 -0.02577316 0.006582658 0.0 -0.017832316 0.020298371 0.0
-0.018938782 -0.018939085 0.0 -0.01893823 0.01615073 -0.01747754 0.0061813095 0.0
0.0 0.0 0.0 0.01410293 0.0 0.013197803 0.0 0.0
0.0 0.0 -0.018938957 0.007862158 0.0065618847 0.0 -0.01893908 0.0
-0.004458079 0.0068022013 0.0 -0.018938813 0.0017905745 0.0 -0.009520552 0.0
-0.018938696 -0.011124447 0.0104400925 0.0 0.0 0.0 0.008828972 0.0
0.01540284 -0.013505925 -0.018937714 0.013452881 -0.018938458 -0.01893911 0.0 0.010796943
0.011218794 0.0017131461 0.0 0.016710855 0.0 -0.018938985 -0.01893905 -0.018939015
0.0014555303 0.015538617 0.0 0.0 -0.017837794 0.0 -0.018938927 0.0
0.021218095 -0.018938432 0.0 0.0 0.010070765 0.0 0.0 0.015624703
0.0 -0.018939037 0.0 -0.018939134 -0.018938871 0.0 0.017187119 0.0
0.010152116 0.017661175 0.0062485957 -0.01874362 0.0 0.01397973 0.0 0.010796554
0.0 0.0 -0.019722681 0.0 0.0 0.0 0.0 -0.018938977
-0.01893912 -0.00739221 0.012946296 0.006792737 0.0 0.0 -0.018938264 0.0051533245
-0.018939141 -0.018938938 -0.018938977 -0.018938014 0.0 0.030904144 -0.0043845903 0.0
0.013566281 -0.01893333 -0.020583814 0.018558418 0.0 -0.018937575 -0.018937994 0.0

encoder.gcn.fc.weight f4 [400, 400]
00000000: d2fe 9ebd 72cd a63d e2d0 88bc 9ba4 b5bc
00000010: 84bc a33d f4a6 94bd 1816 16bd 2022 b0bd
00000020: 39f7 97bc d696 acbd 0344 a9bc 8917 f7ba
00000030: 0e61 4bbd 2e37 673d f880 4b3c 8a60 0e3c
00000040: c156 61bd cdee 45bb 8929 04bb 5779 6c3d
00000050: 20a9 033d 6eda f83c 0dc7 39bd c159 92bc
00000060: f285 813d 6fbc 96bd 17cd a73c 97fc 5fbd
00000070: 3df6 8e3d 0107 fa3c 4fd3 7fbc 4c5d 18bd
00000080: ada7 6ebd 5a3e 703d a818 1ebb 9dbc 0dbd
00000090: 5788 ac3d e53a 98bd 038f 4a3d 87f1 093c
000000a0: 0635 67bc c93e 04bd 8a1d 7fbd b90f 9d3d
000000b0: 4ebc 003d a6aa 7f3d b933 8fbb f53c b03c
000000c0: 6598 cc3c 8910 9f3d f36b 1ebd 90c3 50bd
000000d0: 1c6c 133d 4e8e 813c becb 0fbd 293f 97bd
000000e0: 96bb 573d f637 d43c a4e6 8fbb 1083 96bd
000000f0: 1086 b33c 79e9 a73c 85a0 efbc 803a 7e3d
00000100: 97c9 873d 711d 38bd 20c0 083d 5369 a7bd
00000110: 6f25 febc 8c0b 9a3d 6bf0 a13d 4862 21bd
00000120: 176d 72bd 9bfa 4ebd c778 373d 25f2 50bc
00000130: d5f8 3bbc 97ea 5e3d 17c3 bdbb 629e 38bc
00000140: 9d2b 13bc 9512 a3b9 5a8e bbbc 5235 1fbd
00000150: 4e80 323d c3cc fabc 71d6 a73d fe85 973c
00000160: 9f79 b0bc 0656 39bd 8ce4 33bc 8547 40bd
00000170: 85e3 1fbd 9ac3 643d be8d f9bb cec1 283d
00000180: 2c7d 47bc c40e 5cbd 145d a0bd fb4d 26bd
00000190: 110f 563d 216b 1cbd f654 afbd 7e29 12bc
000001a0: 7c78 8eba db5e 45bd ef10 5f3d 76dc 79bd
000001b0: 5b0c 183d 3f46 92bc 4265 693c 19f9 e53c
000001c0: 47b6 5d3d 7470 acbd 6231 ae3d 2c57 04bd
000001d0: 4dcd a93d 8949 9c3d cde5 033d f8b2 41bd
000001e0: 26ae 83bc 28ec 19ba d604 52bd e03f 40bc
000001f0: e8ce 2bbd 9fa0 813d 1b81 1cbb 9d88 a5bb
00000200: a9f5 3a3d 2b6a eabc 7e84 73bc f372 d73c
00000210: b622 7c3d 626e 5abd b4f0 afbc 9719 7fbc
00000220: 0cc5 c8bc c6a9 0bbd eedb 793d a524 33bd
00000230: b09c 3abd 5c0c 3cbd a7a5 b23c b9ca afbd
00000240: 867d c53c e2a1 babc 7d89 9f3d a6c9 8cbd
00000250: b398 5ebd 6971 85bb 154c c23b ca58 ca38
00000260: 09e1 aabd 4f91 85bd 85b1 78bd 7e5d 7c3a
00000270: 1804 0dba 0811 eabc a180 a33c 365e 913d
00000280: 66db 453b de9a 4e3d 5c5f 923b 2da7 603d
00000290: 1b51 89bd ae0c 0d3d f767 e13b 8c19 96bc
000002a0: 88e5 a43d 26e1 6b3d 26d6 7abd d05b 3dbd
000002b0: 454e 493c b231 a43d 601a 41bc 90bd 843d
000002c0: c509 05bd 95a5 7bbd 7b1e aa3d df6f a5bd
000002d0: 2836 a7bd 7a50 2c3c 9b54 94bd fa64 3bbd
000002e0: 1f80 89bd ce73 5abd ff7a 80bd d3e4 e13c
000002f0: d913 4c3c 449b ae3d 29af 8a3d d69d 5f3c
00000300: d43c 82bd 191a ddbc 1783 1f3c 10e6 dfbc
00000310: 1594 8b3d b53f 3fbb acb1 2abd 8fb3 8cbd
00000320: bd98 02ba 2310 29bd d8f3 6b3c 24a3 323d
00000330: 05d7 47bd 587b 873d 874b c6bc 0e2a a3bd
00000340: 628b a63d 78e5 9fbc 7ddb f9bc cc6b 2cbd
00000350: c261 0c3c 9bc2 73bd adcc 4a3d 4a9b fa3c
00000360: c126 733d e280 dabc 83f3 f43c 6eab 4abd
00000370: b42c bd3c 5b83 68bc 94d0 08bd fa52 6bbb
00000380: b50c 213d 8d35 dd3c d8e9 263d d5e9 7cbd
00000390: 75e1 343d a1a9 29bd e972 0a3c bfbf c73c
000003a0: 3929 d13b 9ec3 18bd 5b9e 84bd b240 94b9
000003b0: 49fb de3c cd86 b23c 53d4 cbbc 7dca 0abd
000003c0: 2416 793c 26f4 413d 4559 9c3d dd42 69bd
000003d0: c132 d7bc 2cae 96bd 2254 163d cd11 58bd
000003e0: f909 9c3d 4b80 64bc 4310 9a3d 58ac 1cbd
000003f0: 49e5 9b3c 26b5 4b3c e290 d33c ad07 593d
-0.07763447 0.08144654 -0.016701166 -0.022173217 0.07994941 -0.07258406 -0.036642164 -0.08600259
-0.018550502 -0.08427207 -0.020662313 -0.0018851619 -0.049653105 0.056449108 0.012420885 0.008690009
-0.055014376 -0.003020215 -0.0020166358 0.057732906 0.032143712 0.030377593 -0.045355845 -0.017865064
0.06324376 -0.073601596 0.020483537 -0.054684248 0.0698056 0.030520918 -0.015614345 -0.03719835
-0.058265377 0.058653213 -0.0024123583 -0.034603704 0.08424442 -0.07433108 0.049452793 0.008419401
-0.014111763 -0.03228644 -0.06228403 0.076690145 0.03142958 0.062418602 -0.0043701795 0.021513442
0.024975011 0.07766826 -0.038677167 -0.050967753 0.035991773 0.015814926 -0.035106413 -0.07385094
0.05266913 0.02590559 -0.004391508 -0.07349217 0.021914512 0.02049707 -0.029251346 0.06206751
0.06630247 -0.044949953 0.03338635 -0.08174386 -0.03102371 0.07521734 0.07907184 -0.03940037
-0.059186067 -0.050531965 0.044792917 -0.012753044 -0.0114729 0.05442294 -0.005791079 -0.01126823
-0.008982566 -0.00031103627 -0.022895027 -0.03886921 0.043579392 -0.030615216 0.08195198 0.01849651
-0.021542368 -0.045248054 -0.010979783 -0.046943206 -0.03903534 0.055850603 -0.007615774 0.04120045
-0.012175839 -0.05372502 -0.07830253 -0.04060171 0.052260462 -0.038188104 -0.08561127 -0.008921025
-0.0010869647 -0.048186164 0.05445951 -0.061001264 0.037121158 -0.017855762 0.014245333 0.02807288
0.05412891 -0.08419886 0.08505513 -0.032309696 0.08291111 0.07631213 0.032201577 -0.04728982
-0.016074251 -0.0005871677 -0.051274143 -0.011733979 -0.041945368 0.06329464 -0.0023880664 -0.005051686
0.045644436 -0.028615078 -0.014863132 0.02629993 0.06155654 -0.053327926 -0.02147708 -0.015570066
-0.024508022 -0.034097455 0.061000757 -0.04373612 -0.045559585 -0.045910224 0.021807505 -0.08583588
0.024107706 -0.02278227 0.07789896 -0.06874399 -0.054344844 -0.0040723574 0.00592948 9.648649e-05
-0.08343703 -0.06521856 -0.06071617 0.00096269685 -0.0005379333 -0.028572574 0.019958796 0.070980474
0.0030190586 0.05044066 0.004466934 0.05484693 -0.06704923 0.03443592 0.0068788487 -0.018322729
0.08051592 0.057587765 -0.061239384 -0.046230137 0.012286727 0.08017291 -0.011786073 0.06481469
-0.03248002 -0.06143721 0.08306595 -0.08077978 -0.08164626 0.010517234 -0.072427 -0.045750596
-0.0671389 -0.053333096 -0.0627346 0.027574932 0.012455904 0.08525708 0.067716904 0.013648471
-0.06359258 -0.026989983 0.009735844 -0.027331382 0.06815354 -0.002918226 -0.041673347 -0.068701856
-0.0004981866 -0.041275155 0.014401399 0.043612614 -0.048789043 0.06615323 -0.024205936 -0.07967006
0.08132054 -0.019518599 -0.030500168 -0.04209499 0.008568229 -0.059511762 0.0495116 0.030591626
0.05936313 -0.026672784 0.029901272 -0.049479894 0.023092605 -0.014191474 -0.03340204 -0.0035907612
0.03931876 0.027003074 0.040750355 -0.061746437 0.044160325 -0.041421536 0.008450248 0.024383424
0.006383088 -0.03729593 -0.064755164 -0.00028276962 0.027219431 0.021792794 -0.024881518 -0.033884514
0.015203033 0.04735198 0.07634214 -0.05694853 -0.026269319 -0.073574394 0.03670133 -0.05275135
0.0761909 -0.013946603 0.07522633 -0.038250297 0.01903023 0.012433326 0.025825921 0.052985836

encoder.gcn2.bias f4 [60]
00000000: b528 7a3c 0000 0000 68a0 7dbc eaa0 7dbc
00000010: de1e 9bbc bb9d 7dbc d61d 8a3c 0000 0000
00000020: 6326 9bbc 0000 0000 6a26 9bbc 9ee0 90bc
00000030: a347 833c 0000 0000 41f9 823c 0000 0000
00000040: 0000 0000 1b0c 873c 0000 0000 c29d 7dbc
00000050: 0000 0000 0000 0000 1826 9bbc 4f32 1f3c
00000060: 035b 883c 72e4 543c a016 9cbb 4b26 9bbc
00000070: 0000 0000 72b8 703a 5826 9bbc 2811 803c
00000080: dc21 763c 5626 9bbc 1425 9bbc bfd5 c4bc
00000090: 56d6 823c d9bc 813c ecf2 4d3c defe efba
000000a0: 68f6 2b3c d686 3dbb 4e26 9bbc 5477 5d3c
000000b0: 0000 0000 2699 da3b dead 863c 93a0 7dbc
000000c0: 4d5d 7f3c 4175 873c 0000 0000 3226 9bbc
000000d0: 0000 0000 0000 0000 4189 863c 751e 493c
000000e0: 3249 7dbc 2126 9bbc 8a25 dd3b 0000 0000
0.015268494 0.0 -0.015480138 -0.015480259 -0.018935617 -0.0154795 0.01685993 0.0
-0.018939203 0.0 -0.018939216 -0.01768523 0.01602537 0.0 0.015987994 0.0
0.0 0.016485265 0.0 -0.015479507 0.0 0.0 -0.018939063 0.009716584
0.01664496 0.012993919 -0.0047634393 -0.018939158 0.0 0.0009182758 -0.018939182 0.01563318
0.015022721 -0.018939178 -0.018938579 -0.024027703 0.015971344 0.01583712 0.012570124 -0.0018310209
0.01049576 -0.002891948 -0.018939164 0.01351722 0.0 0.0066710887 0.016440328 -0.015480178
0.0155862095 0.016535403 0.0 -0.018939111 0.0 0.0 0.01642287 0.012275328
-0.015459346 -0.01893908 0.00674886 0.0

encoder.gcn2.fc.weight f4 [60, 400]
00000000: a6a4 fb3a 4a42 45bc bd7c 3e3d 5181 9dbd
00000010: 9b96 20bd 63b2 823d f4c4 4d3c 05e3 dc3d
00000020: 5dc6 d2bd 31db f9bc f7a1 61bd eb92 14bd
00000030: 87c4 1ebd 2fd6 ed3c dd3b 2abd 4dd8 5b3c
00000040: 56a0 c33d dc2b 873d 3ec9 bcbd 1f54 993d
00000050: 7ec4 02bd 5d06 df3d 34d5 af3d cfb7 2f3b
00000060: a01d d43d 0876 a33c 468e f63b cc07 0bbb
00000070: a9e2 b73d 4d2f ce3b a0fc 683d 6d85 aa3d
00000080: f580 ed3c adbe 5a3d 8d00 e43d 06d8 c73d
00000090: e412 1b3d d78f 8b3d ace3 c4bd 9ec3 74bc
000000a0: a161 193d 9bf5 00bd 376c 013e 86df 9bbd
000000b0: a8e5 9cbd bfc0 5a3d e644 913d fb20 963c
000000c0: 096d b93d bc6f 0b3d 52ff 543d a1b4 d43c
000000d0: 0660 30bd a2c0 4a3d ab6a c23d bcdd 5c3d
000000e0: 59d6 043e 0e93 c0bc ddf7 60bc 77ca f83d
000000f0: 90a1 353d 11d4 79bd 2cd3 6a3d 74f7 d2bd
00000100: 2391 c43d 76a3 ba3d 6f29 71bc 09ea 9bbd
00000110: 43ae 623c de42 003d 7f5f b5bd e662 863d
00000120: 989f c93d 715e 8c3d 4068 1fbd bd58 d23d
00000130: 8490 3dbd a1dc bfbc f99a e4bc 9943 1b3c
00000140: 6b76 bcbd 9aaf a03c 61b8 e5bd 6723 37bd
00000150: 3222 5abd a391 d13d 506d db3a 19fe 883d
00000160: 729c e03d 84a5 35bc 5f5d 1abd f27b 7fbd
00000170: daee 91bc 62bd 523d 5f81 97bd d6ae 27bd
00000180: 4b60 e4bd 51eb c3bc 25fa d73c b0fb 0bbc
00000190: 16e2 803d 0732 b0bd c3be e6bb bed7 c1bb
000001a0: e630 ab3d 5a4a c5bc 5e9d 5cbc 81d0 25bc
000001b0: 5686 d8bb 78f3 9f3c 86fd 333d f0d4 61bd
000001c0: 5ff6 c6bd 05ec e3bc 9ab3 803b cc40 323c
000001d0: 52fb 6f3d b887 313d ef12 e33d 5a7e aebd
000001e0: f574 093d 4edd e2bd 1b3a 6e3d 85b2 c23c
000001f0: 12b3 a9bd 26e7 02bd 4595 c1bb 0747 033e
00000200: adf9 9bbd 4a54 8e3d 9edd 8cbd 62e3 4d3d
00000210: 2e8d e53c 3a21 82bc a076 463d 53f5 40bc
00000220: ddb3 acbd c4be bdbd a6c9 cfbd 980c 99bd
00000230: 1be6 a03d be66 a1bd 9e95 903d 27cd 5abd
00000240: 08e7 b1bc 2ec9 c4bd 360d c2bd de3b 67bc
00000250: 7319 883d 4e4f 123d 7cd4 9f3d 327f 593d
00000260: 40b9 1fbd ab40 d8bc 129b 023e 9a8f d63c
00000270: 887b b23d b843 c43c ab72 a33d e9b4 ab3d
00000280: de6b bcbd 8618 183c 2eb7 8fbc 09f6 eb3d
00000290: fa1a 393b 76a6 b63c db46 e83d eef2 b93d
000002a0: 7169 5bbd 76da ab3d b811 1a3d 0fc6 0ebd
000002b0: 7267 ab3c 8a2f 223c 1c09 d9bc d56a dbbb
000002c0: 26bf a73d 9f51 073e 1b39 933d 8526 c93b
000002d0: 3d30 17bd 1ce0 88bd 23ca c13d 252f 863d
000002e0: b521 ba3d 96ed f83d ff15 33bd 8844 e63d
000002f0: e6d4 94bd 47ee 243c 01ce be3d 2323 91bd
00000300: 2fe4 653c ed45 aebb 722d b03d bdc0 d5bd
00000310: 47f0 85bd f515 be3d 0aa2 aabd 2f35 253c
00000320: 88be 21bd 71ce 823d 5c45 093a da81 28bd
00000330: c373 c53d ce2e ccbd d155 cebd c2c3 923c
00000340: 81dc 53bd e45e abbd 14c5 b5bd 5adf f53d
00000350: 685b 3d3d d323 e03d d6ff cf3c a2f5 0c3b
00000360: 569f e83d 7234 72bc 9f34 9b3d 0fcb f8bc
00000370: ff66 493c 36bc 973d 2c75 e13d e359 e53d
00000380: 0076 d9bd 8cc2 e4bd 884c 65bd 7b68 49bd
00000390: 4eb0 b8bc 5529 05bd a8ec d3bd 2927 04bd
000003a0: 506b d039 b6a8 54bc 6cef b03c c7ae ba3c
000003b0: 8e51 e93c 53c6 ae3d 6e3d 343d bdbf a13b
000003c0: f829 60bd 3fa3 703c 9418 78bd 75e3 353c
000003d0: 8592 853d 6d32 ef3d 7985 e5bd 21ce 8f3d
000003e0: b33e 13bc cffb 2cbd fcf7 c83d 34ab 103d
000003f0: a998 c53d 64da e7bc 3b7b 6c3d 784c a43d
0.0019198849 -0.01203973 0.04650568 -0.07690681 -0.03920613 0.06381681 0.012559164 0.10785488
-0.10291741 -0.030500026 -0.055086102 -0.036272924 -0.03876164 0.029032795 -0.041560996 0.013418269
0.09552066 0.066001624 -0.092180714 0.07486748 -0.03192567 0.108898856 0.08585587 0.002681244
0.10357213 0.019953743 0.0075242845 -0.0021214364 0.08978779 0.00629226 0.056881547 0.0832623
0.028992156 0.0534045 0.111329176 0.09758 0.037859812 0.06814545 -0.096137375 -0.014939217
0.03744662 -0.031484228 0.12638937 -0.07610993 -0.07660991 0.053406473 0.070932195 0.018326273
0.09054 0.034042105 0.052001305 0.025965037 -0.043060325 0.049500115 0.094930016 0.0539224
0.12972392 -0.023507621 -0.01373097 0.12147992 0.04434353 -0.060993258 0.057330295 -0.10301104
0.09597995 0.09113209 -0.014719351 -0.07612998 0.013835493 0.03131377 -0.08856105 0.06561832
0.09844893 0.06853951 -0.03891778 0.10270832 -0.0462804 -0.023420634 -0.027905928 0.009476566
-0.09202274 0.019614983 -0.11216808 -0.044711497 -0.053255267 0.10232856 0.0016740952 0.0668909
0.109673396 -0.011086825 -0.037686702 -0.062374063 -0.017814089 0.05145014 -0.073977225 -0.04093822
-0.11151179 -0.023915919 0.026364395 -0.008543894 0.062931225 -0.08603292 -0.0070417835 -0.005915611
0.08358936 -0.024083305 -0.013465254 -0.010120512 -0.006607811 0.019525275 0.04394295 -0.055134714
-0.0971496 -0.027822504 0.00392766 0.010879707 0.058589287 0.043342322 0.11087596 -0.085201934
0.033558805 -0.11077367 0.058160882 0.023766765 -0.08286108 -0.03195872 -0.005907687 0.12820064
-0.07615981 0.069496706 -0.068782076 0.050265677 0.028021421 -0.015884984 0.048452973 -0.01177724
-0.08432744 -0.09264901 -0.10145883 -0.07473105 0.07856389 -0.07880925 0.07059787 -0.053418305
-0.02171661 -0.096086845 -0.09475176 -0.014113395 0.06645479 0.035720162 0.078042 0.05309982
-0.038995028 -0.026398024 0.12754467 0.026191521 0.08714968 0.023958072 0.079808556 0.08384115
-0.092002615 0.009283191 -0.017543402 0.11521537 0.002824484 0.022296172 0.113416396 0.09079538
-0.053567354 0.083912775 0.037614554 -0.034856852 0.02092335 0.0098990295 -0.026493602 -0.006696085
0.081907555 0.1321473 0.071886264 0.006138625 -0.036911238 -0.066833705 0.09462383 0.06551961
0.0908846 0.12154691 -0.04372215 0.1124354 -0.0726717 0.010066575 0.09316636 -0.0708678
0.014031454 -0.0053183944 0.08602418 -0.104371525 -0.0653997 0.09281532 -0.08331688 0.010083481
-0.039488345 0.06387032 0.00052364706 -0.04113946 0.096412204 -0.09969865 -0.10074962 0.01791561
-0.05172396 -0.08367708 -0.0887548 0.120054916 0.04622975 0.10944333 0.025390547 0.0021508713
0.11358516 -0.014783012 0.07578396 -0.030370263 0.012292623 0.07408945 0.11008677 0.11198785
-0.1061821 -0.11169919 -0.05598119 -0.049171906 -0.022545006 -0.03251012 -0.10347873 -0.03226391
0.00039752806 -0.012979677 0.02159854 0.022788418 0.028481271 0.08533921 0.044003896 0.004936187
-0.054727525 0.014687358 -0.060570315 0.011101593 0.06522087 0.1167954 -0.112070985 0.07021738
-0.008987117 -0.04223233 0.09812924 0.035319522 0.09648258 -0.028302379 0.05773471 0.08022398

disc.fc.weight f4 [6, 60, 1]
00000000: 8f4d 03be ca11 cf3d a49a d23b d9ac 0ebd
00000010: a2b9 b63d dff9 9dbd f54d cf3d 6128 a23c
00000020: e2ba a6bd fbd3 b53d 3943 9e3d d8a2 00bd
00000030: ae8d 0fbe e1a3 dc3c d9a3 9e3d 4e06 243d
00000040: 8f4f d03c 824d f9bd de64 1cbd e6c2 903c
00000050: 07f7 e83d 63eb 27bd fdd3 6dbc f4b5 fdba
00000060: 7bd8 68bc 6e6b d13c c5a4 02be 7d93 4f3c
00000070: 67d2 b7bd 4faf 923d c3bf 953c 7de8 c2bc
00000080: e4d9 bd3d f052 83bd 7037 00be cdf4 773d
00000090: b661 8ebd 6c37 a23d 2285 a83d c266 5e3d
000000a0: 7980 8ebd ebca fdbd 00a4 ddbd afac f7bd
000000b0: 1bd2 56bc 2e94 1abb 9630 dabd 4fbc d4bc
000000c0: 349a d3bd dee0 a4bd ab1e eebd 20f6 783d
000000d0: d07e f13d fad8 02be 5416 03be b75c 68bc
000000e0: d8ef 2f3d 2874 0dbe 481a e93c 8c45 c93d
000000f0: 424d 4a3d dcaf 14bd db68 d8bc bd66 e8bd
00000100: 928d 74bc bd01 a7bc 4b6a cd3d e86a e6bd
00000110: 0854 87bd e5dd a13d 63a7 a1bd 7378 d4bd
00000120: fd28 de3b b27b 6b3d d422 723d 76f7 14bc
00000130: ecdc dfbd 2ad1 e43d a100 8ebd 6939 0ebd
00000140: 1594 f53d 0605 ae3d 483a eebc 0d26 f63c
00000150: 6fdb 783d 5919 66bd 61f6 ee3d 9890 273d
00000160: 0b06 14bb 2297 6d3d 0e07 6abd 52aa 22bd
00000170: 10e7 45bd 9ecd 8bbd 8058 d83d 9cdc 1e3d
00000180: af9c f53d 170b e03d f69f a8bc 55d3 7bbb
00000190: 17fa 083e 7cba b2bd cf66 cabd 30e8 fa3d
000001a0: 2a7e dabd b9ed e83d b287 0d3d 262c b4bd
000001b0: 703d b03d ec1e 383d fb5c d5bd 2cbc 9abb
000001c0: 92fb 7bbd dc1b a3bd 0f57 013e 8d6b 7fbd
000001d0: 98af 653d f47d b73d 7d74 95bd 14b2 0bbd
000001e0: a314 b4bd 5188 c7bd a0e0 d5bc 4f3b 073b
000001f0: 5384 f9bd 1836 a63d 9a92 e93c 8dfc f03d
00000200: 5066 efbd a0db 0139 223f c53d 9f79 d4bd
00000210: e9ef 303d d16c b3bd 948b 90bc 2968 b33d
00000220: f3fd bfbd 292f 4dbd 12af e0bd 6683 dbbd
00000230: b343 6b3d 4bfd 723d 51e4 d8bd 2ce2 68bd
00000240: 6e77 753d 259b 12bd 32bc 0ebd 1a4b 843d
00000250: 98d9 ae3d e65c 853d cf58 843d a554 bbbd
00000260: ff2d 773d dbbe 993d ed39 3e3d 2a7c 603d
00000270: 98fc 20bd e428 7d3d 6b8a 3e3c c6c7 f43c
00000280: b19f c7bc 39e7 acbd 2edb afbd a56c 4ebd
00000290: 8a48 e3bd ebf4 313d 054a 03be 0987 5e3d
000002a0: 4223 5bbd 84c5 efbd 251d d2bd 4eb5 48bd
000002b0: 29f5 25bd d469 123c 2fec 66bb fdf6 bebc
000002c0: 131f ebbd d1ef 1dbd b8a9 03be aea4 66bd
000002d0: 8bac cb3c 783d d0bd e843 e4bc cfc8 e2bd
000002e0: 18e1 c6bb a927 f93c 21a9 013e 0c2e 2fba
000002f0: c0e2 41bd 33ac 9dbc 6da6 9bbd 316e c23d
00000300: bf1d cf3d ad83 433d 5d66 053d f7ff 613d
00000310: 22e6 e2bc 9cc9 633d d7a8 283d 455f 2c3d
00000320: f94a 21bc e2dc f8bd 2782 39bd 7cf5 9dbc
00000330: d4e9 e93d 935f 9f3d 5824 c23d f15d a9bd
00000340: 299d 213d 9c1d 7dbc 4646 90bc 7cb8 ed3d
00000350: 19fa ca3d 61e4 d9ba dcc3 94bd 1fac 66bd
00000360: 3b5f a6bc c321 ecbc 5a27 153d b6ae 153c
00000370: ccdb cabd f718 aebd 79de 273d 4493 a2bd
00000380: 9b3b f33d f17a bb3c 28df c43d bb2a 55bd
00000390: ccd2 313a b2d7 b83d 918f 92bd 0876 63bc
000003a0: 3a89 4e3d df2c 04be 6fcd af3c dcd6 9c3d
000003b0: b33c 96bd 3404 babd e8f6 9e3d b275 683d
000003c0: 7b0e b13d b805 ee3d a5fe 1a3d 11d8 e1bd
000003d0: 9b0e 11be 5044 cf3d 3c4a b2bd dc92 6dbd
000003e0: cc80 573d da7c 88bd 15c9 f83c ade1 fabc
000003f0: b0fd fabb 7251 bcbd 8981 a03d c19c bbbd
-0.12822555 0.10110815 0.006427126 -0.03483281 0.089221254 -0.07713675 0.10122291 0.019794645
-0.08141114 0.08878323 0.077276655 -0.0314053 -0.1401889 0.026933612 0.07746095 0.040045075
0.025428561 -0.121729866 -0.038182132 0.01767106 0.11375242 -0.040995967 -0.014515874 -0.0019356594
-0.014211769 0.025563922 -0.12758167 0.012669441 -0.08975678 0.07162344 0.018279916 -0.0237925
0.09270075 -0.064123034 -0.12521148 0.060536195 -0.06952231 0.07920727 0.08228518 0.054297216
-0.06958098 -0.12392219 -0.10822296 -0.12093484 -0.0131116165 -0.0023586857 -0.10653798 -0.025968699
-0.10332146 -0.080507025 -0.11626943 0.060781598 0.11791766 -0.12778082 -0.12801486 -0.014182261
0.042953342 -0.13813841 0.028454915 0.09827718 0.049390085 -0.036300525 -0.026417186 -0.11347721
-0.014926331 -0.020386571 0.100300394 -0.112508595 -0.066078246 0.07903651 -0.078932546 -0.10374536
0.0067797885 0.057491012 0.059115246 -0.009092202 -0.109308094 0.111727074 -0.06933714 -0.03472272
0.11991135 0.08497052 -0.029080525 0.03004744 0.060756143 -0.056176517 0.11668087 0.04090938
-0.002258661 0.05800546 -0.057135634 -0.03971321 -0.04831606 -0.06826328 0.10563755 0.03878461
0.11992776 0.10939615 -0.020584088 -0.0038425524 0.13376652 -0.08726975 -0.098828904 0.122513175
-0.10668595 0.11373467 0.034553237 -0.08797483 0.08605468 0.044951364 -0.10418125 -0.004722139
-0.061519213 -0.07964298 0.12630866 -0.062358428 0.056075662 0.089595705 -0.07297609 -0.034105375
-0.08792999 -0.09742797 -0.026108086 0.0020634716 -0.12183442 0.08115786 0.028512288 0.1176692
-0.116894364 0.00012384215 0.09631182 -0.1037476 0.043197546 -0.087609895 -0.017644681 0.08760101
-0.09374609 -0.050093804 -0.10970892 -0.10718422 0.05743761 0.05932359 -0.10590423 -0.05685632
0.05992835 -0.03579249 -0.034847446 0.06459637 0.085375965 0.065118596 0.064622514 -0.09147004
0.0603466 0.07507106 0.04644196 0.054805912 -0.039303392 0.061806574 0.011629681 0.029880416
-0.024368139 -0.0844254 -0.08586727 -0.05039658 -0.1109782 0.043446463 -0.12821205 0.054328
-0.05350042 -0.11707595 -0.10259465 -0.04900103 -0.040517006 0.008936364 -0.0035235991 -0.023311133
-0.11480536 -0.038558785 -0.12857711 -0.056309395 0.024862548 -0.10167974 -0.027864411 -0.110734574
-0.0060693137 0.03041442 0.12662174 -0.0006682582 -0.047335386 -0.01924715 -0.076001026 0.094936736
0.101130955 0.047732998 0.032568324 0.055175748 -0.027697627 0.05561219 0.041176643 0.042083044
-0.009844535 -0.12151505 -0.04529014 -0.019282095 0.11421552 0.07781901 0.09479588 -0.08269871
0.03945652 -0.015448954 -0.017611634 0.11607453 0.099109836 -0.0016623848 -0.0726392 -0.05631649
-0.020309081 -0.028824693 0.03641448 0.009135893 -0.09905204 -0.085008554 0.04098365 -0.07938245
0.11876603 0.022885771 0.09612876 -0.052042704 0.00067834253 0.090255156 -0.07156289 -0.013883121
0.05042384 -0.12907742 0.021460263 0.07658169 -0.07335796 -0.09082833 0.077619374 0.056752868
0.0864534 0.116221845 0.037840504 -0.110275395 -0.14165728 0.101204515 -0.08705565 -0.058001384
0.052613065 -0.066644385 0.03036932 -0.030625189 -0.0076596364 -0.09195222 0.07837207 -0.09160758

disc.fc.bias f4 [6]
00000000: 90fd 0c3c 5ed8 5cbd 42da 0ebc 7907 8a3c
00000010: ee8e 643d 2494 01be
0.008605376 -0.05391728 -0.008719029 0.016849266 0.05580037 -0.12654167

disc.linear.weight f4 [1, 6]
00000000: 788f 36bd f2ba 59be 76ea 4ebe 6d9f 73be
00000010: 34c5 5bbe cff7 ca3e
-0.044570416 -0.2126272 -0.20206627 -0.23791285 -0.21461946 0.39642188
