checkpoint.pt (torch, 745671 bytes, 9 tensors)

encoder.fc.weight f4 [400, 1]
0	0x3ee03922	0.4379359
1	0x3f1097e0	0.5648174
2	0x3ebeac2c	0.37240732
3	0xbdf21f30	-0.11822355
4	0x3f6a83f7	0.9160761
5	0x3ec0d6fc	0.3766402
6	0xbeba233f	-0.36355016
7	0x3f5bcd39	0.8586002
8	0xbf2d0d00	-0.6759796
9	0x3e6abe28	0.22924101
10	0x3f01d9d4	0.50723004
11	0xbf2cd2ce	-0.6750916
12	0x3f177fb6	0.59179246
13	0x3f7a5eeb	0.97801083
14	0x3f5b13f4	0.8557732
15	0xbebf8433	-0.37405547
16	0x3f7ad6c2	0.97983944
17	0xbea71cf6	-0.32639283
18	0xbe3b06f8	-0.18264377
19	0x3e997414	0.29971373
20	0x3f63d5f9	0.8899837
21	0x3f2109ee	0.62905777
22	0x3f0e3916	0.55555856
23	0x3e92b715	0.28655306
24	0x3f28386c	0.6571109
25	0xbf034cdd	-0.5128916
26	0x3f53fb9c	0.828058
27	0x3f045d7a	0.51705134
28	0x3f1aac2e	0.60418975
29	0xbf127c62	-0.57221043
30	0xbea43328	-0.3207028
31	0xbf6d0868	-0.9259095
32	0xbf55c082	-0.8349687
33	0xbead3e1c	-0.33836448
34	0x3e14d904	0.1453591
35	0xbe17bd99	-0.1481842
36	0xbec372d6	-0.3817355
37	0xbf36c572	-0.7139503
38	0x3f43084e	0.76184547
39	0x3e78b3db	0.2428736
40	0xbe532562	-0.20619729
41	0xbe6dc59a	-0.2321991
42	0xbec44f78	-0.3834188
43	0x3f6aa434	0.91656804
44	0xbf27ecaa	-0.65595496
45	0x3f030376	0.51177156
46	0xbeed85f7	-0.4639127
47	0xbf0d0c6c	-0.5509708
48	0xbf74ab80	-0.9557419
49	0x3f436ceb	0.7633807
50	0xbe29e4cd	-0.16591187
51	0xbef20efc	-0.47277057
52	0x3d36d681	0.04463816
53	0xbf793336	-0.97343767
54	0x3f6aed09	0.91767937
55	0x3eed3618	0.46330333
56	0xbec13127	-0.37732813
57	0x3edfd7b8	0.43719268
58	0xbf4a78e2	-0.790907
59	0x3d9b8df0	0.07595432
60	0x3ee01600	0.43766785
61	0x3eaa0b96	0.33211964
62	0x3f223900	0.63368225
63	0xbf1b714c	-0.6071975
64	0xbf777b08	-0.96672106
65	0x3f17cb38	0.5929446
66	0xbf0cbcc6	-0.54975545
67	0xbf6ce2e9	-0.9253374
68	0xbf2e339e	-0.6804751
69	0xbf604891	-0.8761073
70	0x3f2c0fb4	0.6721146
71	0x3f2e20ec	0.68018985
72	0xbf1cf8c6	-0.613171
73	0x3f3a530d	0.72782975
74	0x3f75c863	0.9600889
75	0x3ec128c6	0.3772642
76	0x3e23e3b0	0.16004825
77	0xbf5625ce	-0.83651435
78	0xbf3f9a4e	-0.74844825
79	0x3f013fef	0.5048818
80	0xbe34f7b0	-0.1767261
81	0xbf4466d4	-0.76719403
82	0xbf34a830	-0.70569134
83	0xbf31bac8	-0.6942563
84	0xbe26f652	-0.16304901
85	0xbf0e9994	-0.5570309
86	0x3f3139f0	0.6922903
87	0xbf5811e8	-0.8440232
88	0x3ecd7d6a	0.40134746
89	0x3f601c56	0.8754324
90	0x3f1d3554	0.614095
91	0x3cbe8697	0.023257537
92	0xbda70f00	-0.08157158
93	0xbf4ba1d4	-0.79543805
94	0xbeca94a3	-0.39566526
95	0x3f57ca81	0.8429337
96	0x3e16ae0f	0.14714836
97	0xbdc653d0	-0.09683955
98	0xbf14403a	-0.579105
99	0x3ea443b1	0.32082894
100	0xbe82cc54	-0.25546515
101	0xbf31fb04	-0.69523644
102	0xbf6ca9ae	-0.9244641
103	0x3f27b17a	0.6550518
104	0x3f1c9e85	0.6117938
105	0x3e8fc4ef	0.28079936
106	0x3e1ba648	0.1520015
107	0xbafa6c00	-0.0019105673
108	0x3f401a9a	0.7504059
109	0xbdad2cf0	-0.08455837
110	0xbf45f98a	-0.7733389
111	0xbee4c11c	-0.4467858
112	0x3f1523a1	0.5825749
113	0x3f50ee5b	0.816137
114	0x3f64e378	0.8940959
115	0x3db8f6fd	0.09031484
116	0xbd34f601	-0.04417992
117	0xbe4d5b43	-0.20054345
118	0xbf38751f	-0.7205371
119	0x3f0a56fd	0.54038984
120	0xbed0f7e4	-0.40814126
121	0x3f10ab40	0.56511307
122	0xbdfd9c5c	-0.12383339
123	0xbed7ec43	-0.4217244
124	0xbd1310b0	-0.035904586
125	0xbf5631f8	-0.83669996
126	0x3f5e2465	0.86774284
127	0x3f7e0077	0.9921946
128	0xbf36730a	-0.71269286
129	0xbf27fc3d	-0.6561926
130	0xbf80f4b3	-1.0074676
131	0xbed40770	-0.41411924
132	0x3e98704e	0.29773182
133	0xbf0d35da	-0.55160296
134	0xbf5c0f15	-0.85960513
135	0x3e3969f1	0.1810682
136	0x3e8f4fd1	0.27990583
137	0xbdaf0c10	-0.085472226
138	0xbf506359	-0.8140159
139	0xbf39056c	-0.722739
140	0x3cf6db98	0.030134007
141	0x3e0a1aa4	0.13486725
142	0x3e761f6d	0.24035425
143	0x3ee63d9c	0.4496888
144	0xbe8ce388	-0.27517343
145	0xbeaf378c	-0.34222066
146	0xbf499569	-0.78743607
147	0x3f1d195f	0.6136684
148	0x3d8b36f0	0.06797588
149	0x3ed2bff8	0.41162086
150	0x3db15ff2	0.08660878
151	0x3f7474f6	0.9549097
152	0xbf746630	-0.95468426
153	0xbe33838d	-0.17530651
154	0x3f76fcfb	0.9647977
155	0xbf5fe320	-0.8745594
156	0x3ef99efa	0.48754102
157	0xbf125b9c	-0.57171035
158	0x3d6fcb5b	0.058543544
159	0xbf47f6dc	-0.7811105
160	0xbf55e956	-0.8355917
161	0xbf2fce08	-0.68673754
162	0x3f4f4511	0.8096476
163	0xbf64177c	-0.89098334
164	0xbf7e72ba	-0.9939381
165	0xbf76c683	-0.96396655
166	0xbece95f0	-0.40348768
167	0x3e8606ac	0.26176965
168	0xbe545788	-0.20736516
169	0xbeac03e4	-0.33596718
170	0xbf0aedd6	-0.5426916
171	0xbf7414dc	-0.9534433
172	0x3e431c60	0.19053793
173	0xbeb24b30	-0.3482299
174	0xbed96140	-0.42457008
175	0xbf46c3e3	-0.7764265
176	0x3f3cfc27	0.73822254
177	0x3f0b5c83	0.54438037
178	0xbf5f7205	-0.87283355
179	0x3edb7930	0.42865896
180	0xbf21b5b8	-0.63167906
181	0x3f3aecf0	0.7301779
182	0x3e3257d1	0.17416312
183	0x3e2b6e70	0.16741347
184	0xbe0dc2c3	-0.13843827
185	0x3f58dedd	0.8471506
186	0x3dafb5f8	0.0857963
187	0xbf08f8fa	-0.5350491
188	0xbf3d5da8	-0.73971033
189	0x3f272b92	0.6530086
190	0xbf32d0fa	-0.6985012
191	0xbc08421a	-0.008316541
192	0x3f103d5c	0.56343627
193	0xbdafa5eb	-0.08576568
194	0x3ed50f48	0.4161322
195	0xbf448986	-0.76772344
196	0x3e7d856e	0.2475793
197	0xbe4d2418	-0.200333
198	0xbe071e98	-0.13195264
199	0xbda36540	-0.07978296
200	0x3ebc9830	0.3683486
201	0x3e9a7aaa	0.3017171
202	0xbf12820e	-0.572297
203	0xbd98bedf	-0.07458281
204	0xbf0656ac	-0.52476
205	0x3f751057	0.9572806
206	0xbf799894	-0.9749844
207	0xbf054810	-0.52063084
208	0x3d45d858	0.048302025
209	0x3f249536	0.6429018
210	0x3f3b49b4	0.7315934
211	0xbf28b58c	-0.6590202
212	0xbe94c3be	-0.2905559
213	0x3eceeb7f	0.40414044
214	0x3e89643c	0.26834285
215	0x3f1123d2	0.5669528
216	0x3eeb6f00	0.45983124
217	0xbf6bc110	-0.92091465
218	0xbea74887	-0.3267252
219	0x3c247c80	0.010039449
220	0xbe3c94f0	-0.1841619
221	0x3f0108ec	0.5040424
222	0xbf30dd74	-0.6908791
223	0x3f0d034b	0.5508315
224	0x3e7f05cd	0.24904557
225	0x3ee8b9b9	0.45454195
226	0x3e7641ca	0.24048534
227	0xbf771a06	-0.96524084
228	0x3a105000	0.0005505085
229	0x3e199461	0.14998008
230	0x3f3540a7	0.70801777
231	0xbf54b9c0	-0.8309593
232	0xbe3a40b8	-0.1818875
233	0xbeec3ee0	-0.4614172
234	0xbe2cc94a	-0.1687366
235	0x3efd55fe	0.4947967
236	0x3ec6d9dd	0.38838091
237	0x3e0d58fe	0.13803479
238	0x3b0de652	0.0021652174
239	0x3f30104c	0.6877487
240	0x3edc5d88	0.4304011
241	0x3f137914	0.57606626
242	0x3f3bbbba	0.73333323
243	0xbeac70e9	-0.33679894
244	0x3f444502	0.766678
245	0x3db08400	0.08618927
246	0xbebc7fec	-0.36816347
247	0x3f4a0cf6	0.78926027
248	0xbf3a5d66	-0.72798765
249	0x3d895650	0.06705916
250	0x3e8be518	0.27323222
251	0x3e99d264	0.30043328
252	0x3e93ab86	0.288418
253	0x3e8b56a0	0.27214527
254	0x3f34319a	0.70388186
255	0x3f3913fe	0.7229613

encoder.fc.bias f4 [400]
0	0x3e9a6f81	0.30163196
1	0xbe62e728	-0.22158492
2	0xbf500da0	-0.8127079
3	0xbf3b4b62	-0.731619
4	0x3f4e8d04	0.8068392
5	0x3e3fb93e	0.18723008
6	0x3f4365ca	0.7632719
7	0x3e90de2e	0.2829451
8	0x3e816364	0.25271142
9	0xbf54ed0c	-0.83174205
10	0xbee3bcf8	-0.4448011
11	0x3e985246	0.2975027
12	0xbf1d3a7e	-0.61417377
13	0xbf13e541	-0.5777169
14	0x3efb8122	0.49121958
15	0x3f4c4293	0.79789084
16	0xbf492342	-0.78569424
17	0x3dc0379e	0.09385608
18	0xbf0131f0	-0.50466824
19	0xbe882990	-0.2659421
20	0xbe461bef	-0.19346593
21	0x3f64030d	0.89067155
22	0xbee2e92c	-0.4431852
23	0xbd536883	-0.051613342
24	0xbf068a0c	-0.5255439
25	0x3d9ddb21	0.07707811
26	0xbf05edf6	-0.52316225
27	0xbf69b8aa	-0.912974
28	0x3ec2641b	0.37967
29	0xbf7a203c	-0.97705436
30	0xbe4b7d68	-0.19872057
31	0xbf3e0c56	-0.74237573
32	0xbf10071a	-0.56260836
33	0x3e231316	0.1592525
34	0x3f1bae0f	0.6081247
35	0x3e24ee91	0.16106631
36	0x3e86769c	0.26262367
37	0xbf791870	-0.97302914
38	0xbf77f356	-0.96855676
39	0x3f559939	0.83436924
40	0x3eb85789	0.36004284
41	0x3e9b9715	0.30388704
42	0xbeae72a4	-0.3407184
43	0xbf16f260	-0.58963585
44	0xbee089c4	-0.43855107
45	0x3dd4f2e4	0.1039789
46	0x3f313501	0.692215
47	0xbf4e5cf2	-0.80610573
48	0xbf45a9dc	-0.7721231
49	0xbf03893b	-0.5138127
50	0x3f44a8c9	0.76820046
51	0xbee7ff74	-0.45312083
52	0x3f5e3376	0.86797273
53	0xbedc9f70	-0.4309039
54	0xbe0c3b41	-0.13694479
55	0xbf5abb2e	-0.85441864
56	0x3f38b8ba	0.7215687
57	0x3f63f8cc	0.8905151
58	0xbf65d432	-0.8977691
59	0xbf314810	-0.69250584
60	0x3f163b4c	0.5868423
61	0x3eb2cdc6	0.34922618
62	0xbf7168f6	-0.9430078
63	0xbf48895a	-0.7833458
64	0xbf5f1ac0	-0.8715019
65	0x3f58c9a6	0.8468269
66	0x3e64b38d	0.22334118
67	0x3ea70768	0.32622838
68	0xbf3901be	-0.72268283
69	0x3dce237c	0.10065362
70	0xbef815d8	-0.48454165
71	0x3f4aefe3	0.7927229
72	0x3e4a4031	0.1975105
73	0xbef38c27	-0.47567865
74	0xbea1e41f	-0.31619355
75	0x3ee6a854	0.450503
76	0xbeb47ac8	-0.35249925
77	0xbf477d4e	-0.77925575
78	0xbf1fdfc2	-0.624508
79	0x3f0f9911	0.56092936
80	0xbe41cc58	-0.18925607
81	0x3edead0d	0.43491402
82	0x3e37844f	0.17921565
83	0x3ed32925	0.41242328
84	0x3f7c9066	0.98657835
85	0x3d9054c7	0.0704742
86	0xbf4d4978	-0.8019023
87	0xbeee0d90	-0.46494722
88	0xbe9f72b7	-0.31142208
89	0x3f43a8d8	0.7642951
90	0xbf1b0bb4	-0.6056473
91	0x3eacaa03	0.3372346
92	0xbf7bc010	-0.9833994
93	0xbee6a644	-0.45048726
94	0x3f3b0a79	0.73062855
95	0x3f682571	0.9068213
96	0x3ee9d9a3	0.45673856
97	0xbf51d8ba	-0.81971323
98	0x3e9410d0	0.28919077
99	0x3f082307	0.5317845
100	0xbec02610	-0.3752904
101	0xbf032b2a	-0.5123774
102	0x3f19c48c	0.6006553
103	0xbf0de814	-0.5543225
104	0xbedbe86f	-0.4295077
105	0x3e43f18a	0.19135109
106	0xbf485d4c	-0.7826736
107	0xbdd5a960	-0.10432696
108	0xbf654aa6	-0.8956703
109	0xbf57d456	-0.84308374
110	0xbf6159c6	-0.8802761
111	0xbf727990	-0.9471674
112	0x3f40632a	0.7515131
113	0x3e766036	0.24060139
114	0xbe22050f	-0.15822242
115	0x3eff8fb8	0.49914336
116	0x3f3c5a31	0.7357512
117	0x3e86d6bb	0.263357
118	0x3f3bb4db	0.7332284
119	0x3e239bae	0.15977356
120	0xbe9ecaac	-0.31014
121	0xbf362096	-0.7114347
122	0x3eec7837	0.46185467
123	0x3debe166	0.11517601
124	0x3f19a491	0.60016733
125	0x3e78191e	0.24228331
126	0x3f1dd44d	0.6165207
127	0x3d87f0d4	0.06637731
128	0x3f75ba40	0.9598732
129	0x3f737927	0.9510674
130	0x3ee8f460	0.45498943
131	0xbd7a85e0	-0.06116283
132	0x3e431483	0.19050793
133	0x3f50f0c5	0.81617385
134	0x3f3549ee	0.7081593
135	0x3f14b1e2	0.5808393
136	0x3d564f7c	0.052321896
137	0xbee5eed0	-0.44908762
138	0x3d7024a9	0.05862871
139	0x3e735745	0.2376376
140	0x3eb030b5	0.3441216
141	0x3f220022	0.6328145
142	0xbd82e99b	-0.06392213
143	0xbf657a28	-0.8963952
144	0xbce13e80	-0.027495623
145	0xbf4c5010	-0.79809666
146	0x3f70bdd9	0.94039685
147	0x3f420627	0.7579064
148	0xbebec654	-0.37260687
149	0xbf3c7934	-0.7362244
150	0xbcdcbae6	-0.026944589
151	0xbed66cf5	-0.41880003
152	0xbf560d3a	-0.8361393
153	0x3ee1743d	0.44033995
154	0xbdc66652	-0.09687485
155	0xbf1d3044	-0.6140177
156	0x3f28de5a	0.6596428
157	0xbd2a1fa0	-0.041534066
158	0x3efbcfb9	0.49181917
159	0xbd18cbe0	-0.037303805
160	0x3f204b90	0.626153
161	0x3d89ef30	0.067350745
162	0x3f03a669	0.51425797
163	0xbed9d450	-0.42544794
164	0xbf17d2c0	-0.59305954
165	0x3f533125	0.82496864
166	0xbdf30990	-0.11867058
167	0xbe350e4c	-0.17681235
168	0xbedf1968	-0.4357407
169	0xbe6fe6b8	-0.23427856
170	0x3ea482af	0.32130954
171	0x3ec91447	0.39273283
172	0xbea7c0e8	-0.32764363
173	0x3f085451	0.53253657
174	0xbf3a946a	-0.7288271
175	0x3ddf6fcd	0.10909996
176	0x3f5760e8	0.8413224
177	0x3ebcc2b7	0.36867306
178	0x3e1fca7e	0.15604588
179	0x3f28089e	0.6563815
180	0xbe1e9e08	-0.15489972
181	0x3ed5eaf0	0.41780806
182	0x3f2ffa45	0.68741256
183	0xbe220840	-0.1582346
184	0x3ea70930	0.32624197
185	0xbca12871	-0.019672604
186	0x3f4fdd67	0.8119721
187	0x3f3ac2ac	0.72953296
188	0xbf2e3ae2	-0.680586
189	0xbf48937a	-0.7835003
190	0x3df64775	0.12025348
191	0x3f02a5d2	0.5103427
192	0xbf136a54	-0.5758412
193	0x3e80a96e	0.25129265
194	0xbf4ded48	-0.8044019
195	0xbef9c8a8	-0.487859
196	0x3f038527	0.5137505
197	0xbdbd7a80	-0.09251881
198	0xbf709e0a	-0.9399115
199	0xbf7b8c64	-0.98261094
200	0xbf1b2d22	-0.6061574
201	0x3ea7d1c8	0.32777238
202	0x3eb0fea5	0.34569278
203	0x3f439793	0.7640316
204	0xbcb8e6c0	-0.022570968
205	0xbf33cece	-0.70237434
206	0xbe3c41a8	-0.18384421
207	0x3f15ccaf	0.5851545
208	0x3ee14dc8	0.44004655
209	0xbbe3b33e	-0.0069488576
210	0x3c76b1ca	0.015057037
211	0x3db68691	0.08912385
212	0x3d02ccf5	0.031933744
213	0x3db538c6	0.08848719
214	0xbf452112	-0.77003586
215	0x3e083796	0.13302454
216	0xbf1271f8	-0.5720515
217	0xbe080090	-0.13281465
218	0x3e8b7ba6	0.27242774
219	0xbe6b2658	-0.22963846
220	0xbf059976	-0.5218729
221	0xbf517ede	-0.8183421
222	0xbf0f260e	-0.5591744
223	0xbe2e9870	-0.17050338
224	0x3ed22fee	0.41052192
225	0xbe4c3ad3	-0.19944315
226	0x3e7c9fb6	0.246703
227	0x3edc5b13	0.43038234
228	0xbe385330	-0.18000484
229	0x3e216310	0.15760446
230	0xbe2ec4e5	-0.17067297
231	0xbf6fcde6	-0.9367355
232	0xbf5b71c2	-0.85720456
233	0x3f7f7dfd	0.9980162
234	0x3eeb640e	0.45974773
235	0x3f602e88	0.87571
236	0x3f342d8d	0.70382005
237	0x3e1911fb	0.14948265
238	0x3d74db3f	0.059779402
239	0xbf2ac730	-0.66710186
240	0x3f61e4f6	0.8823999
241	0x3f53a5c7	0.8267483
242	0xbf7ec7d0	-0.9952364
243	0x3f6f792e	0.9354428
244	0x3f429415	0.76007205
245	0xbf4a7c88	-0.7909627
246	0xbf132efa	-0.57493556
247	0x3f55d519	0.83528286
248	0x3e0d9aba	0.13828555
249	0xbf70d326	-0.94072187
250	0xbf1a1d42	-0.60200894
251	0xbe711512	-0.23543194
252	0x3f25b694	0.6473172
253	0xbf521782	-0.8206712
254	0xbe10dfcb	-0.1414787
255	0x3f1e3d13	0.6181194

encoder.gcn.bias f4 [400]
0	0x00000000	0.0
1	0x00000000	0.0
2	0x00000000	0.0
3	0x00000000	0.0
4	0xbc9b21b5	-0.018936971
5	0xbc9b24dc	-0.018938474
6	0x3c2c300c	0.010509502
7	0xbc3a4fcd	-0.011371565
8	0x00000000	0.0
9	0xbc9b2647	-0.01893915
10	0x3c0ba8de	0.008524148
11	0xbc9b2636	-0.018939119
12	0xbcac975f	-0.021068273
13	0x3b6b0c72	0.0035865572
14	0x00000000	0.0
15	0x00000000	0.0
16	0xbc9996e3	-0.018748706
17	0x3c9475a9	0.018122511
18	0x00000000	0.0
19	0x3c2d5389	0.010578998
20	0xbc9b25d9	-0.018938946
21	0x3c269b7a	0.010168904
22	0x3c5bbfbf	0.013412415
23	0x00000000	0.0
24	0x3c282ff3	0.010265338
25	0xbc9b2528	-0.018938616
26	0x3bfeca02	0.007775546
27	0x00000000	0.0
28	0xbbe51ca3	-0.006991939
29	0x3c870348	0.016481057
30	0x00000000	0.0
31	0x3c421033	0.0118446825
32	0x3c24b016	0.010051748
33	0x00000000	0.0
34	0xbc9b24cf	-0.01893845
35	0x3c46c032	0.012130784
36	0x3c2c8c54	0.010531504
37	0x00000000	0.0
38	0x3c09027e	0.008362411
39	0x00000000	0.0
40	0x00000000	0.0
41	0xbc9b2632	-0.018939111
42	0x3a52406c	0.0008020464
43	0x00000000	0.0
44	0x00000000	0.0
45	0x00000000	0.0
46	0x3c1a4fbb	0.009418423
47	0x00000000	0.0
48	0xbc9b2606	-0.01893903
49	0xbc9b25d2	-0.018938933
50	0x00000000	0.0
51	0x00000000	0.0
52	0x00000000	0.0
53	0x00000000	0.0
54	0x00000000	0.0
55	0x00000000	0.0
56	0xbc9b25bd	-0.018938893
57	0x3c584136	0.013199141
58	0x00000000	0.0
59	0xbc9b263c	-0.01893913
60	0x3bed97c1	0.0072507565
61	0x00000000	0.0
62	0x3b574624	0.0032848204
63	0x00000000	0.0
64	0x00000000	0.0
65	0xbc9b25ca	-0.018938918
66	0x3c2c0bbb	0.010500844
67	0x00000000	0.0
68	0xbcba9387	-0.022775425
69	0x3b94770a	0.004530792
70	0x00000000	0.0
71	0x00000000	0.0
72	0x00000000	0.0
73	0x00000000	0.0
74	0x00000000	0.0
75	0xbb92162c	-0.0044582095
76	0x3c142f36	0.009044459
77	0x00000000	0.0
78	0x00000000	0.0
79	0x3c3f618c	0.011680972
80	0xbc9b20a1	-0.018936457
81	0xbc9b2600	-0.018939018
82	0x00000000	0.0
83	0x00000000	0.0
84	0xbc9b2622	-0.018939082
85	0x00000000	0.0
86	0x3c7ca643	0.015420499
87	0x3c4d2c2b	0.0125227375
88	0x3c804bb0	0.01566109
89	0x3ba4f42c	0.0050339904
90	0x00000000	0.0
91	0xbc9b25d8	-0.018938944
92	0x3c4e7489	0.012601026
93	0x00000000	0.0
94	0xbc9b25cf	-0.018938927
95	0x00000000	0.0
96	0x3c623b98	0.013808154
97	0xbc9b25cc	-0.018938921
98	0x00000000	0.0
99	0x00000000	0.0
100	0x00000000	0.0
101	0x00000000	0.0
102	0xbcac58b3	-0.021038389
103	0x00000000	0.0
104	0x00000000	0.0
105	0x3c55ba97	0.013044975
106	0x00000000	0.0
107	0x00000000	0.0
108	0xbc9b216a	-0.018936832
109	0x00000000	0.0
110	0xbc0bb81b	-0.008527781
111	0x3c47ead8	0.012201987
112	0x00000000	0.0
113	0xbc9b2551	-0.018938692
114	0xbc9b263c	-0.01893913
115	0x00000000	0.0
116	0x3bdfc412	0.0068287933
117	0x3b8be156	0.0042688055
118	0x00000000	0.0
119	0x3bfeb1c9	0.0077726585
120	0xbc9b25ca	-0.018938918
121	0x00000000	0.0
122	0xbc520611	-0.012818829
123	0x3bdae9da	0.0066807093
124	0x00000000	0.0
125	0xbcb3d6b8	-0.021952972
126	0x3c3627d7	0.011117897
127	0xbc910967	-0.017704679
128	0x00000000	0.0
129	0xbc9b24ae	-0.018938389
130	0xbcc58c58	-0.024114773
131	0x3bb9ea3b	0.0056736744
132	0x00000000	0.0
133	0xbc912525	-0.017717907
134	0x3b970c2f	0.0046096067
135	0x00000000	0.0
136	0xbc9b25a4	-0.018938847
137	0xbc9b2624	-0.018939085
138	0x00000000	0.0
139	0xbc9b2473	-0.018938279
140	0x3c664fab	0.01405708
141	0xbcaee58c	-0.02134969
142	0x3bdfcab3	0.0068295836
143	0x00000000	0.0
144	0x00000000	0.0
145	0x00000000	0.0
146	0x00000000	0.0
147	0x3c4daaf8	0.012552969
148	0x00000000	0.0
149	0x3c06269c	0.008187916
150	0x00000000	0.0
151	0x00000000	0.0
152	0x00000000	0.0
153	0x00000000	0.0
154	0xbc9b25da	-0.018938947
155	0x3c10d6d2	0.00884028
156	0x3b9af72b	0.0047291717
157	0x00000000	0.0
158	0xbc9b261d	-0.018939072
159	0x00000000	0.0
160	0xbbd3d45f	-0.0064645256
161	0x3bd9faa2	0.006652192
162	0x00000000	0.0
163	0xbc9b257a	-0.018938769
164	0xbc3c585b	-0.011495675
165	0x00000000	0.0
166	0xbc2db92e	-0.010603232
167	0x00000000	0.0
168	0xbc9b251f	-0.0189386
169	0xbc2ee1d3	-0.010673958
170	0x3c3bd147	0.01146347
171	0x00000000	0.0
172	0x00000000	0.0
173	0x00000000	0.0
174	0x3c1a5e2a	0.0094218645
175	0x00000000	0.0
176	0x3c759503	0.01498914
177	0xbcbc8174	-0.023010947
178	0xbc9b23d9	-0.018937992
179	0x3c6fcab0	0.014635727
180	0xbc9b2514	-0.018938579
181	0xbc9b2632	-0.018939111
182	0x00000000	0.0
183	0x3c532606	0.012887483
184	0x3c02b983	0.0079788
185	0x3bef615a	0.0073053064
186	0x00000000	0.0
187	0x3c7cb3e9	0.015423753
188	0x00000000	0.0
189	0xbc9b25f4	-0.018938996
190	0xbc9b2614	-0.018939056
191	0xbc9b2605	-0.018939028
192	0x3c1d4d9e	0.009601025
193	0x3c81da0f	0.015851049
194	0x00000000	0.0
195	0x00000000	0.0
196	0xbc79b5a5	-0.015241061
197	0x00000000	0.0
198	0xbc9b25d1	-0.01893893
199	0x00000000	0.0
200	0x3c60b1e6	0.013714289
201	0xbc9b24c0	-0.018938422
202	0x00000000	0.0
203	0x00000000	0.0
204	0x3bfc01d4	0.0076906476
205	0x00000000	0.0
206	0x00000000	0.0
207	0x3c705d98	0.014670752
208	0x00000000	0.0
209	0xbc9b260a	-0.018939037
210	0x00000000	0.0
211	0xbc9b263e	-0.018939134
212	0xbc9b258e	-0.018938806
213	0x00000000	0.0
214	0x3c71af29	0.014751234
215	0x00000000	0.0
216	0x3be5920d	0.007005936
217	0x3c78493f	0.015154182
218	0x3c0df52b	0.00866441
219	0xbc99d797	-0.018779559
220	0x00000000	0.0
221	0x3c466487	0.0121089285
222	0x00000000	0.0
223	0x3c43a2a3	0.011940631
224	0x00000000	0.0
225	0x00000000	0.0
226	0xbc9d8fc8	-0.0192336
227	0x00000000	0.0
228	0x00000000	0.0
229	0x00000000	0.0
230	0x00000000	0.0
231	0xbc9b25e4	-0.018938966
232	0xbc9b2632	-0.018939111
233	0xbc0e1967	-0.008673049
234	0x3c4ba105	0.012428527
235	0x3c106669	0.008813479
236	0x00000000	0.0
237	0x00000000	0.0
238	0xbc9b2454	-0.018938221
239	0x3c2fd550	0.01073201
240	0xbc9b2641	-0.01893914
241	0xbc9b25da	-0.018938947
242	0xbc9b25e7	-0.018938972
243	0xbc9b23f0	-0.018938035
244	0x00000000	0.0
245	0xbbf0f0bc	-0.0073529165
246	0xbc33167e	-0.0109306555
247	0x00000000	0.0
248	0x3c4d68d1	0.012537197
249	0xbc9b1b02	-0.018933777
250	0xbcab5343	-0.020913726
251	0x3c6d8ad2	0.014498429
252	0x00000000	0.0
253	0xbc9b217c	-0.018936865
254	0xbc9b23cc	-0.018937968
255	0x00000000	0.0

encoder.gcn.fc.weight f4 [400, 400]
0	0xbd9efed2	-0.07763447
1	0x3da6cd72	0.08144654
2	0xbc88d0e2	-0.016701166
3	0xbcb5a49b	-0.022173217
4	0x3da3bc84	0.07994941
5	0xbd94a6f4	-0.07258406
6	0xbd161618	-0.036642164
7	0xbdb02220	-0.08600259
8	0xbc97f739	-0.018550502
9	0xbdac96d6	-0.08427207
10	0xbca94403	-0.020662313
11	0xbaf71789	-0.0018851619
12	0xbd4b610e	-0.049653105
13	0x3d67372e	0.056449108
14	0x3c4b80f8	0.012420885
15	0x3c0e608a	0.008690009
16	0xbd6156c1	-0.055014376
17	0xbb45eecd	-0.003020215
18	0xbb042989	-0.0020166358
19	0x3d6c7957	0.057732906
20	0x3d03a920	0.032143712
21	0x3cf8da6e	0.030377593
22	0xbd39c70d	-0.045355845
23	0xbc9259c1	-0.017865064
24	0x3d8185f2	0.06324376
25	0xbd96bc6f	-0.073601596
26	0x3ca7cd17	0.020483537
27	0xbd5ffc97	-0.054684248
28	0x3d8ef63d	0.0698056
29	0x3cfa0701	0.030520918
30	0xbc7fd34f	-0.015614345
31	0xbd185d4c	-0.03719835
32	0xbd6ea7ad	-0.058265377
33	0x3d703e5a	0.058653213
34	0xbb1e18a8	-0.0024123583
35	0xbd0dbc9d	-0.034603704
36	0x3dac8857	0.08424442
37	0xbd983ae5	-0.07433108
38	0x3d4a8f03	0.049452793
39	0x3c09f187	0.008419401
40	0xbc673506	-0.014111763
41	0xbd043ec9	-0.03228644
42	0xbd7f1d8a	-0.06228403
43	0x3d9d0fb9	0.076690145
44	0x3d00bc4e	0.03142958
45	0x3d7faaa6	0.062418602
46	0xbb8f33b9	-0.0043701795
47	0x3cb03cf5	0.021513442
48	0x3ccc9865	0.024975011
49	0x3d9f1089	0.07766826
50	0xbd1e6bf3	-0.038677167
51	0xbd50c390	-0.050967753
52	0x3d136c1c	0.035991773
53	0x3c818e4e	0.015814926
54	0xbd0fcbbe	-0.035106413
55	0xbd973f29	-0.07385094
56	0x3d57bb96	0.05266913
57	0x3cd437f6	0.02590559
58	0xbb8fe6a4	-0.004391508
59	0xbd968310	-0.07349217
60	0x3cb38610	0.021914512
61	0x3ca7e979	0.02049707
62	0xbcefa085	-0.029251346
63	0x3d7e3a80	0.06206751
64	0x3d87c997	0.06630247
65	0xbd381d71	-0.044949953
66	0x3d08c020	0.03338635
67	0xbda76953	-0.08174386
68	0xbcfe256f	-0.03102371
69	0x3d9a0b8c	0.07521734
70	0x3da1f06b	0.07907184
71	0xbd216248	-0.03940037
72	0xbd726d17	-0.059186067
73	0xbd4efa9b	-0.050531965
74	0x3d3778c7	0.044792917
75	0xbc50f225	-0.012753044
76	0xbc3bf8d5	-0.0114729
77	0x3d5eea97	0.05442294
78	0xbbbdc317	-0.005791079
79	0xbc389e62	-0.01126823
80	0xbc132b9d	-0.008982566
81	0xb9a31295	-0.00031103627
82	0xbcbb8e5a	-0.022895027
83	0xbd1f3552	-0.03886921
84	0x3d32804e	0.043579392
85	0xbcfaccc3	-0.030615216
86	0x3da7d671	0.08195198
87	0x3c9785fe	0.01849651
88	0xbcb0799f	-0.021542368
89	0xbd395606	-0.045248054
90	0xbc33e48c	-0.010979783
91	0xbd404785	-0.046943206
92	0xbd1fe385	-0.03903534
93	0x3d64c39a	0.055850603
94	0xbbf98dbe	-0.007615774
95	0x3d28c1ce	0.04120045
96	0xbc477d2c	-0.012175839
97	0xbd5c0ec4	-0.05372502
98	0xbda05d14	-0.07830253
99	0xbd264dfb	-0.04060171
100	0x3d560f11	0.052260462
101	0xbd1c6b21	-0.038188104
102	0xbdaf54f6	-0.08561127
103	0xbc12297e	-0.008921025
104	0xba8e787c	-0.0010869647
105	0xbd455edb	-0.048186164
106	0x3d5f10ef	0.05445951
107	0xbd79dc76	-0.061001264
108	0x3d180c5b	0.037121158
109	0xbc92463f	-0.017855762
110	0x3c696542	0.014245333
111	0x3ce5f919	0.02807288
112	0x3d5db647	0.05412891
113	0xbdac7074	-0.08419886
114	0x3dae3162	0.08505513
115	0xbd04572c	-0.032309696
116	0x3da9cd4d	0.08291111
117	0x3d9c4989	0.07631213
118	0x3d03e5cd	0.032201577
119	0xbd41b2f8	-0.04728982
120	0xbc83ae26	-0.016074251
121	0xba19ec28	-0.0005871677
122	0xbd5204d6	-0.051274143
123	0xbc403fe0	-0.011733979
124	0xbd2bcee8	-0.041945368
125	0x3d81a09f	0.06329464
126	0xbb1c811b	-0.0023880664
127	0xbba5889d	-0.005051686
128	0x3d3af5a9	0.045644436
129	0xbcea6a2b	-0.028615078
130	0xbc73847e	-0.014863132
131	0x3cd772f3	0.02629993
132	0x3d7c22b6	0.06155654
133	0xbd5a6e62	-0.053327926
134	0xbcaff0b4	-0.02147708
135	0xbc7f1997	-0.015570066
136	0xbcc8c50c	-0.024508022
137	0xbd0ba9c6	-0.034097455
138	0x3d79dbee	0.061000757
139	0xbd3324a5	-0.04373612
140	0xbd3a9cb0	-0.045559585
141	0xbd3c0c5c	-0.045910224
142	0x3cb2a5a7	0.021807505
143	0xbdafcab9	-0.08583588
144	0x3cc57d86	0.024107706
145	0xbcbaa1e2	-0.02278227
146	0x3d9f897d	0.07789896
147	0xbd8cc9a6	-0.06874399
148	0xbd5e98b3	-0.054344844
149	0xbb857169	-0.0040723574
150	0x3bc24c15	0.00592948
151	0x38ca58ca	9.648649e-05
152	0xbdaae109	-0.08343703
153	0xbd85914f	-0.06521856
154	0xbd78b185	-0.06071617
155	0x3a7c5d7e	0.00096269685
156	0xba0d0418	-0.0005379333
157	0xbcea1108	-0.028572574
158	0x3ca380a1	0.019958796
159	0x3d915e36	0.070980474
160	0x3b45db66	0.0030190586
161	0x3d4e9ade	0.05044066
162	0x3b925f5c	0.004466934
163	0x3d60a72d	0.05484693
164	0xbd89511b	-0.06704923
165	0x3d0d0cae	0.03443592
166	0x3be167f7	0.0068788487
167	0xbc96198c	-0.018322729
168	0x3da4e588	0.08051592
169	0x3d6be126	0.057587765
170	0xbd7ad626	-0.061239384
171	0xbd3d5bd0	-0.046230137
172	0x3c494e45	0.012286727
173	0x3da431b2	0.08017291
174	0xbc411a60	-0.011786073
175	0x3d84bd90	0.06481469
176	0xbd0509c5	-0.03248002
177	0xbd7ba595	-0.06143721
178	0x3daa1e7b	0.08306595
179	0xbda56fdf	-0.08077978
180	0xbda73628	-0.08164626
181	0x3c2c507a	0.010517234
182	0xbd94549b	-0.072427
183	0xbd3b64fa	-0.045750596
184	0xbd89801f	-0.0671389
185	0xbd5a73ce	-0.053333096
186	0xbd807aff	-0.0627346
187	0x3ce1e4d3	0.027574932
188	0x3c4c13d9	0.012455904
189	0x3dae9b44	0.08525708
190	0x3d8aaf29	0.067716904
191	0x3c5f9dd6	0.013648471
192	0xbd823cd4	-0.06359258
193	0xbcdd1a19	-0.026989983
194	0x3c1f8317	0.009735844
195	0xbcdfe610	-0.027331382
196	0x3d8b9415	0.06815354
197	0xbb3f3fb5	-0.002918226
198	0xbd2ab1ac	-0.041673347
199	0xbd8cb38f	-0.068701856
200	0xba0298bd	-0.0004981866
201	0xbd291023	-0.041275155
202	0x3c6bf3d8	0.014401399
203	0x3d32a324	0.043612614
204	0xbd47d705	-0.048789043
205	0x3d877b58	0.06615323
206	0xbcc64b87	-0.024205936
207	0xbda32a0e	-0.07967006
208	0x3da68b62	0.08132054
209	0xbc9fe578	-0.019518599
210	0xbcf9db7d	-0.030500168
211	0xbd2c6bcc	-0.04209499
212	0x3c0c61c2	0.008568229
213	0xbd73c29b	-0.059511762
214	0x3d4accad	0.0495116
215	0x3cfa9b4a	0.030591626
216	0x3d7326c1	0.05936313
217	0xbcda80e2	-0.026672784
218	0x3cf4f383	0.029901272
219	0xbd4aab6e	-0.049479894
220	0x3cbd2cb4	0.023092605
221	0xbc68835b	-0.014191474
222	0xbd08d094	-0.03340204
223	0xbb6b52fa	-0.0035907612
224	0x3d210cb5	0.03931876
225	0x3cdd358d	0.027003074
226	0x3d26e9d8	0.040750355
227	0xbd7ce9d5	-0.061746437
228	0x3d34e175	0.044160325
229	0xbd29a9a1	-0.041421536
230	0x3c0a72e9	0.008450248
231	0x3cc7bfbf	0.024383424
232	0x3bd12939	0.006383088
233	0xbd18c39e	-0.03729593
234	0xbd849e5b	-0.064755164
235	0xb99440b2	-0.00028276962
236	0x3cdefb49	0.027219431
237	0x3cb286cd	0.021792794
238	0xbccbd453	-0.024881518
239	0xbd0aca7d	-0.033884514
240	0x3c791624	0.015203033
241	0x3d41f426	0.04735198
242	0x3d9c5945	0.07634214
243	0xbd6942dd	-0.05694853
244	0xbcd732c1	-0.026269319
245	0xbd96ae2c	-0.073574394
246	0x3d165422	0.03670133
247	0xbd5811cd	-0.05275135
248	0x3d9c09f9	0.0761909
249	0xbc64804b	-0.013946603
250	0x3d9a1043	0.07522633
251	0xbd1cac58	-0.038250297
252	0x3c9be549	0.01903023
253	0x3c4bb526	0.012433326
254	0x3cd390e2	0.025825921
255	0x3d5907ad	0.052985836

encoder.gcn2.bias f4 [60]
0	0x3c754163	0.014969203
1	0x00000000	0.0
2	0xbc7da07a	-0.015480155
3	0xbc55f4e8	-0.0130588785
4	0xbc9b18b4	-0.018932678
5	0xbc7d9e50	-0.015479639
6	0x3c87632c	0.016526781
7	0x00000000	0.0
8	0xbc9b2663	-0.018939203
9	0x00000000	0.0
10	0xbc9b2668	-0.018939212
11	0xbc90322e	-0.017602053
12	0x3c803af8	0.015653118
13	0x00000000	0.0
14	0x3c802433	0.015642261
15	0x00000000	0.0
16	0x00000000	0.0
17	0x3c842d18	0.016134784
18	0x00000000	0.0
19	0xbc7d9de0	-0.015479535
20	0x00000000	0.0
21	0x00000000	0.0
22	0xbc9b2621	-0.01893908
23	0x3c06eeaf	0.008235618
24	0x3c858689	0.016299503
25	0x3c4fb737	0.012677959
26	0x00000000	0.0
27	0xbc9b264b	-0.018939158
28	0x00000000	0.0
29	0x3a991aaf	0.0011680926
30	0xbc9b2659	-0.018939184
31	0x3c7a5352	0.015278654
32	0x3c6a0ae2	0.014284821
33	0xbc9b2654	-0.018939175
34	0xbc9b2565	-0.01893873
35	0xbcc61d37	-0.024183853
36	0x3c805a8d	0.015668178
37	0x3c7b5f11	0.01534249
38	0x3c445614	0.011983413
39	0xba227f10	-0.00061987434
40	0x3c180b7b	0.009280081
41	0xbb4afd54	-0.003097375
42	0xbc9b2650	-0.018939167
43	0x3c56341e	0.013073949
44	0x3b2267ae	0.0024781036
45	0x3bf973e0	0.0076126903
46	0x3c836247	0.016038073
47	0xbc7d9ff8	-0.015480034
48	0x3c78c7fc	0.015184399
49	0x3c8449f9	0.016148554
50	0x00000000	0.0
51	0xbc9b262d	-0.018939102
52	0x00000000	0.0
53	0x00000000	0.0
54	0x3c83b6d9	0.0160784
55	0x3c32c21e	0.010910539
56	0xbc7d9882	-0.015478255
57	0xbc9b261b	-0.018939069
58	0x3c05fdb3	0.008178162
59	0x00000000	0.0

encoder.gcn2.fc.weight f4 [60, 400]
0	0x3afba4a6	0.0019198849
1	0xbc45424a	-0.01203973
2	0x3d3e7cbd	0.04650568
3	0xbd9d8151	-0.07690681
4	0xbd20a232	-0.03921718
5	0x3d82b266	0.06381683
6	0x3c537404	0.012906078
7	0x3ddd7756	0.10813777
8	0xbdd2c65d	-0.10291741
9	0xbcf9db2e	-0.03050002
10	0xbd60fb66	-0.054927252
11	0xbd1492e5	-0.036272902
12	0xbd1ea4f0	-0.038731515
13	0x3ceab805	0.0286522
14	0xbd2a3bdd	-0.041560996
15	0x3c5bd84d	0.013418269
16	0x3dc09283	0.09402945
17	0x3d88bbbb	0.06676432
18	0xbdbcc93e	-0.092180714
19	0x3d9809c3	0.07423737
20	0xbd02c471	-0.031925622
21	0x3ddf87f5	0.109146036
22	0x3db0c556	0.08631389
23	0x3b2fb7cf	0.002681244
24	0x3dd4007d	0.10351656
25	0x3ca37617	0.01995377
26	0x3bfb8c69	0.0076766503
27	0xbb0b07cc	-0.0021214364
28	0x3dbdf361	0.092749365
29	0x3be23b2c	0.0069040265
30	0x3d68fca0	0.056881547
31	0x3daacc45	0.083397426
32	0x3ced9e2f	0.029006092
33	0x3d5abead	0.0534045
34	0x3de3ff5d	0.11132691
35	0x3dc77cbd	0.09740589
36	0x3d1bed63	0.038068186
37	0x3d8b8fd7	0.06814545
38	0xbdc6f7d8	-0.09715241
39	0xbc74c39e	-0.014939217
40	0x3d1961a1	0.03744662
41	0xbd00f593	-0.031484198
42	0x3de5819f	0.11206364
43	0xbd9bdf86	-0.07610993
44	0xbd9ce5a8	-0.07660991
45	0x3d5ac0bf	0.053406473
46	0x3d928c9d	0.07155726
47	0x3c9620fb	0.018326273
48	0x3db96d0f	0.090540044
49	0x3d0b6fc1	0.034042124
50	0x3d54ff52	0.052001305
51	0x3cd4b4a1	0.025965037
52	0xbd306006	-0.043060325
53	0x3d4ac0a2	0.049500115
54	0x3dc26aab	0.094930016
55	0x3d5cddbc	0.0539224
56	0x3e04d65b	0.12972395
57	0xbcbe378f	-0.023219852
58	0xbc60f7dd	-0.01373097
59	0x3df8ca7e	0.12147997
60	0x3d38f60a	0.045156516
61	0xbd79d411	-0.060993258
62	0x3d567f9d	0.052367795
63	0xbdd2f774	-0.10301104
64	0x3dc49123	0.09597995
65	0x3dbaa376	0.09113209
66	0xbc67c1e0	-0.0141453445
67	0xbd9bea09	-0.07612998
68	0x3c62d40b	0.0138445
69	0x3d0ce8d1	0.03440172
70	0xbdb55f7f	-0.08856105
71	0x3d8662e6	0.06561832
72	0x3dc99f98	0.09844893
73	0x3d8c5e71	0.06853951
74	0xbd1f6840	-0.03891778
75	0x3daf28de	0.08552717
76	0xbd3becfe	-0.04588031
77	0xbcbfdca1	-0.023420634
78	0xbce49af9	-0.027905928
79	0x3c241309	0.010014304
80	0xbdbc7669	-0.092022724
81	0x3ca0afae	0.01961502
82	0xbde5b861	-0.11216808
83	0xbd372367	-0.044711497
84	0xbd5a2227	-0.053255226
85	0x3dd191a3	0.10232856
86	0x3b100b54	0.0021979408
87	0x3d89c3d2	0.06726803
88	0x3ddc19a3	0.10747077
89	0xbc278387	-0.01022423
90	0xbd1a5d5f	-0.037686702
91	0xbd7f7beb	-0.062374037
92	0xbc93d17a	-0.018044222
93	0x3d52bd62	0.05145014
94	0xbd97820c	-0.07397851
95	0xbd27aed6	-0.04093822
96	0xbde25b11	-0.11052526
97	0xbcc3eb13	-0.023915803
98	0x3cd7fa25	0.026364395
99	0xbc0bfbb0	-0.008543894
100	0x3d80e216	0.062931225
101	0xbdb03207	-0.08603292
102	0xbbe510f3	-0.006990546
103	0xbbc1d7be	-0.005915611
104	0x3dab30e6	0.08358936
105	0xbcc35443	-0.02384389
106	0xbc5c9d5e	-0.013465254
107	0xbc25d081	-0.010120512
108	0xbbd886db	-0.006607873
109	0x3c9ff378	0.019525275
110	0x3d56cbe9	0.052440558
111	0xbd62038c	-0.055179164
112	0xbdc6f65f	-0.0971496
113	0xbce3eb9a	-0.027822305
114	0x3b80b3c0	0.003927678
115	0x3c3240cc	0.010879707
116	0x3d503333	0.050830077
117	0x3d312d2f	0.04325598
118	0x3de312ef	0.11087596
119	0xbdada439	-0.084785886
120	0x3d0974fb	0.033558827
121	0xbde2dd4e	-0.11077367
122	0x3d6e361b	0.058157068
123	0x3cca803e	0.024719354
124	0xbda9b312	-0.08286108
125	0xbd03a3fe	-0.032138817
126	0xbbbff952	-0.0058585787
127	0x3e03506d	0.12823649
128	0xbd9bf9ad	-0.07615981
129	0x3d8e5426	0.06949644
130	0xbd8ccf87	-0.0687552
131	0x3d4f7ad6	0.050654255
132	0x3ce58d2e	0.028021421
133	0xbc82897c	-0.015934698
134	0x3d61580a	0.0550156
135	0xbc40f553	-0.01177724
136	0xbdacb3dc	-0.08432743
137	0xbdbdbec0	-0.09264898
138	0xbdcfc9a6	-0.10145883
139	0xbd990c95	-0.07473103
140	0x3da1e9ae	0.07905899
141	0xbda1a5f4	-0.07892981
142	0x3d90bca2	0.07067229
143	0xbd5acd27	-0.053418305
144	0xbcb1e708	-0.02171661
145	0xbdc4c92e	-0.096086845
146	0xbdc20d36	-0.09475176
147	0xbc5c7d06	-0.013457542
148	0x3d881973	0.06645479
149	0x3d1545d0	0.03644353
150	0x3d9fd47c	0.078042
151	0x3d597f32	0.05309982
152	0xbd1fb940	-0.038995028
153	0xbcd840ab	-0.026398024
154	0x3e029b12	0.12754467
155	0x3cd7cba3	0.026342219
156	0x3db269f7	0.087116174
157	0x3cc443b8	0.023958072
158	0x3da372ae	0.07980858
159	0x3dabb4e9	0.08384115
160	0xbdba27a4	-0.09089592
161	0x3c14ee42	0.009090008
162	0xbc8fb72e	-0.017543402
163	0x3debf60d	0.1152154
164	0x3c6b043d	0.014344272
165	0x3cb6a676	0.022296172
166	0x3de80a1f	0.113300554
167	0x3db9f2ee	0.09079538
168	0xbd5b6bc3	-0.053569566
169	0x3da032ca	0.07822187
170	0x3d1977bf	0.037467714
171	0xbd0ec60f	-0.034856852
172	0x3cab6772	0.02092335
173	0x3c222f8a	0.0098990295
174	0xbcd88182	-0.026428942
175	0xbbdb6ad5	-0.006696085
176	0x3da95254	0.08267656
177	0x3e075fb2	0.13220099
178	0x3d93391d	0.07188628
179	0x3bc2a3e6	0.0059399484
180	0xbd173035	-0.03691121
181	0xbd88e012	-0.06683363
182	0x3dc1ca23	0.09462383
183	0x3d8630e0	0.06552291
184	0x3dbbcc00	0.09169769
185	0x3df43f2b	0.11926111
186	0xbd3315ff	-0.04372215
187	0x3de74836	0.1129307
188	0xbd94d4e6	-0.0726717
189	0x3c24ee60	0.010066599
190	0x3dbece33	0.09316673
191	0xbd912323	-0.0708678
192	0x3c37aff7	0.011211387
193	0xbbb5d154	-0.0055486355
194	0x3db02d72	0.08602418
195	0xbdd5c0bd	-0.104371525
196	0xbd8ed195	-0.06973568
197	0x3dbe15f5	0.09281532
198	0xbdaaa1f1	-0.08331669
199	0x3c25352f	0.010083481
200	0xbd1cd288	-0.038286716
201	0x3d82ce79	0.06387038
202	0x3a09455c	0.00052364706
203	0xbd2881da	-0.04113946
204	0x3dc6c2d4	0.09705129
205	0xbdcc2ece	-0.09969865
206	0xbdce55d1	-0.10074962
207	0x3c98d23e	0.018654939
208	0xbd53dc81	-0.05172396
209	0xbdab5ede	-0.08367704
210	0xbdb5c514	-0.0887548
211	0x3df5df70	0.12005508
212	0x3d3d5b6e	0.046229772
213	0x3de023d3	0.10944333
214	0x3cd171c4	0.025566943
215	0x3b0cf5a2	0.0021508713
216	0x3de99dfc	0.11407086
217	0xbc62b134	-0.013836194
218	0x3d9ad4e6	0.075601384
219	0xbcefc89a	-0.029270459
220	0x3c4966ff	0.012292623
221	0x3d986d63	0.07442739
222	0x3de1752c	0.11008677
223	0x3de6626e	0.11249243
224	0xbdd97600	-0.1061821
225	0xbde4c28c	-0.11169919
226	0xbd65621b	-0.056001764
227	0xbd49687b	-0.049171906
228	0xbcb8b04e	-0.022545006
229	0xbd052955	-0.03251012
230	0xbdd3eca8	-0.10347873
231	0xbd042727	-0.0322639
232	0x39d06888	0.00039750733
233	0xbc692509	-0.014230021
234	0x3cb566c2	0.022143725
235	0x3cbc26be	0.022967692
236	0x3ce9518e	0.028481271
237	0x3daec653	0.08533921
238	0x3d343d6f	0.0440039
239	0x3b6c3ce8	0.0036047045
240	0xbd6029ef	-0.05472749
241	0x3c70a349	0.014687368
242	0xbd781894	-0.060570315
243	0x3c35e382	0.011101605
244	0x3d859285	0.06522087
245	0x3e0e36e7	0.13888131
246	0xbde5be28	-0.1121791
247	0x3d8fce21	0.07021738
248	0xbc11a1d8	-0.008888684
249	0xbd2cf319	-0.042224023
250	0x3dc8e661	0.09809566
251	0x3d163c6d	0.03667872
252	0x3dc598a9	0.09648258
253	0xbce8f06f	-0.02843496
254	0x3d6c7b6f	0.057734903
255	0x3da44c78	0.08022398

disc.fc.weight f4 [6, 60, 1]
0	0xbe0350ef	-0.12823842
1	0x3dcf11ca	0.10110815
2	0x3bd29aa4	0.006427126
3	0xbd0eacd9	-0.03483281
4	0x3db6b9a2	0.089221254
5	0xbd9df9df	-0.07713675
6	0x3dcefe5b	0.10107108
7	0x3ca22861	0.019794645
8	0xbda6cf33	-0.08144989
9	0x3db5d3fb	0.08878323
10	0x3d9e2842	0.07722522
11	0xbd010fe2	-0.031509288
12	0xbe0f9144	-0.14020258
13	0x3cdca3e1	0.026933612
14	0x3d9e85c3	0.07740357
15	0x3d24064e	0.040045075
16	0x3cd04f8f	0.025428561
17	0xbdf9546a	-0.12174304
18	0xbd1c64de	-0.038182132
19	0x3c90c2e6	0.01767106
20	0x3de8f707	0.11375242
21	0xbd27eb63	-0.040995967
22	0xbc6fe79e	-0.014642624
23	0xbb1621be	-0.0022908296
24	0xbc69484a	-0.014238426
25	0x3cd0d315	0.025491277
26	0xbe02a4c5	-0.12758167
27	0x3c4f2b63	0.012644622
28	0xbdb7d267	-0.08975678
29	0x3d92af4f	0.07162344
30	0x3c9520ee	0.018204179
31	0xbcc313d2	-0.023813162
32	0x3dbdcc3d	0.09267471
33	0xbd835c81	-0.06414128
34	0xbe005860	-0.12533712
35	0x3d77d4c8	0.06050566
36	0xbd8e77ea	-0.069564655
37	0x3da21847	0.07914787
38	0x3da3e8c3	0.0800338
39	0x3d5e66c2	0.054297216
40	0xbd8e8d16	-0.06960504
41	0xbdfdcaeb	-0.12392219
42	0xbdddcb7a	-0.10829826
43	0xbdf7bbba	-0.12096353
44	0xbc56d21b	-0.0131116165
45	0xbb6648a9	-0.0035138524
46	0xbdda4ac4	-0.10658792
47	0xbcd4bc4f	-0.025968699
48	0xbdd3a375	-0.10333911
49	0xbda52b1b	-0.08064862
50	0xbdee1eab	-0.11626943
51	0x3d7897aa	0.060691513
52	0x3df17ed0	0.11791766
53	0xbe02d8fa	-0.12778082
54	0xbe031eac	-0.12804669
55	0xbc691e9a	-0.014228487
56	0x3d2fefd8	0.042953342
57	0xbe0d7ecb	-0.13817899
58	0x3ce8cf56	0.028419178
59	0x3dc9458c	0.09827718
60	0x3d4ae3ca	0.049533643
61	0xbd14afdc	-0.036300525
62	0xbcd868d8	-0.02641718
63	0xbded5bfe	-0.11589812
64	0xbc749373	-0.014927733
65	0xbca701c2	-0.02038658
66	0x3dce4f68	0.10073739
67	0xbde66ae8	-0.112508595
68	0xbd875408	-0.066078246
69	0x3da1dde5	0.07903651
70	0xbda1a763	-0.078932546
71	0xbdd3c151	-0.103396066
72	0x3be3272e	0.006932161
73	0x3d6b7bb2	0.057491012
74	0x3d74b8c6	0.059746526
75	0xbc14f776	-0.009092202
76	0xbddfdcec	-0.109308094
77	0x3de5d30e	0.11221896
78	0xbd8e00a1	-0.06933714
79	0xbd0e3968	-0.034722716
80	0x3df59415	0.11991135
81	0x3dae0506	0.08497052
82	0xbcee3a37	-0.029080493
83	0x3d025954	0.03182347
84	0x3d7b6d5c	0.06138359
85	0xbd62c2ea	-0.055361666
86	0x3df8b7c8	0.121444285
87	0x3d279098	0.04090938
88	0xbb14060b	-0.002258661
89	0x3d74ad21	0.05973542
90	0xbd6a070e	-0.057135634
91	0xbd20b41d	-0.03923427
92	0xbd432a44	-0.04764773
93	0xbd8bcd9e	-0.06826328
94	0x3dd85880	0.10563755
95	0x3d1c13a9	0.038104687
96	0x3df6c193	0.1204864
97	0x3de113be	0.10990094
98	0xbca6fd5e	-0.020384487
99	0xbb7aa952	-0.0038247895
100	0x3e0860fc	0.13318247
101	0xbdaa2c2c	-0.08309206
102	0xbdca66d0	-0.09882891
103	0x3dfc07be	0.12306164
104	0xbdd56b3d	-0.10420845
105	0x3debfa54	0.11522356
106	0x3d0fd73b	0.03511737
107	0xbdb42eed	-0.08798013
108	0x3db04a4e	0.086079225
109	0x3d3b0d5b	0.045667034
110	0xbdd55cfb	-0.10418125
111	0xbb9abc24	-0.004722135
112	0xbd7bfb92	-0.061519213
113	0xbda31bdc	-0.07964298
114	0x3e01f6c9	0.12691797
115	0xbd7ceda2	-0.06175006
116	0x3d67bdb1	0.05657739
117	0x3db77df4	0.089595705
118	0xbd946b11	-0.07246984
119	0xbd0bb214	-0.034105375
120	0xbdb414a3	-0.08792999
121	0xbdc78851	-0.09742797
122	0xbcd5e0a0	-0.026108086
123	0x3b073b4f	0.0020634716
124	0xbdf98453	-0.12183442
125	0x3da63618	0.08115786
126	0x3ce9929a	0.028512288
127	0x3df0fc8d	0.1176692
128	0xbdef6650	-0.116894364
129	0x3901dba0	0.00012384215
130	0x3dc53f22	0.09631182
131	0xbdd4799f	-0.1037476
132	0x3d30efe9	0.043197546
133	0xbdb36cd1	-0.087609895
134	0xbc908b94	-0.017644681
135	0x3db36829	0.08760101
136	0xbdbffdf3	-0.09374609
137	0xbd4d2f29	-0.050093804
138	0xbde0af12	-0.10970892
139	0xbddb8366	-0.10718422
140	0x3d6b43b3	0.05743761
141	0x3d72fd4b	0.05932359
142	0xbdd8e451	-0.10590423
143	0xbd68e22c	-0.05685632
144	0x3d75776e	0.05992835
145	0xbd129b25	-0.03579249
146	0xbd0ebc32	-0.034847446
147	0x3d844b1a	0.06459637
148	0x3daed998	0.085375965
149	0x3d855ce6	0.065118596
150	0x3d8458cf	0.064622514
151	0xbdbb54a5	-0.09147004
152	0x3d772dff	0.0603466
153	0x3d99bedb	0.07507106
154	0x3d3e39ed	0.04644196
155	0x3d607c2a	0.054805912
156	0xbd20fc98	-0.039303392
157	0x3d7d28e4	0.061806574
158	0x3c3e8a6b	0.011629681
159	0x3cf4c7c6	0.029880416
160	0xbcc79fb1	-0.024368139
161	0xbdace739	-0.0844254
162	0xbdafdb2e	-0.08586727
163	0xbd4e6ca5	-0.05039658
164	0xbde3488a	-0.1109782
165	0x3d31f4eb	0.043446463
166	0xbe034a05	-0.12821205
167	0x3d5e8709	0.054328
168	0xbd5b2342	-0.05350042
169	0xbdefc584	-0.11707595
170	0xbdd21d25	-0.10259465
171	0xbd48b54e	-0.04900103
172	0xbd25f529	-0.040517006
173	0x3c1269d4	0.008936364
174	0xbb66ec2f	-0.0035235991
175	0xbcbef6fd	-0.023311133
176	0xbdeb1f13	-0.11480536
177	0xbd1defd1	-0.038558785
178	0xbe03a9b8	-0.12857711
179	0xbd66a4ae	-0.056309395
180	0x3cccc67f	0.024996994
181	0xbdd03d78	-0.10167974
182	0xbce443e3	-0.027864402
183	0xbde7be0e	-0.11315547
184	0xbbc6eb86	-0.006070557
185	0x3cf927a5	0.030414412
186	0x3e0219fc	0.12705225
187	0xba2f2e0c	-0.0006682582
188	0xbd41e2c0	-0.047335386
189	0xbc9dac33	-0.01924715
190	0xbd9ba66d	-0.076001026
191	0x3dc323e7	0.09528332
192	0x3dcf68f0	0.10127437
193	0x3d4383ad	0.047732998
194	0x3d07f4ba	0.033192374
195	0x3d61fff7	0.055175748
196	0xbce2e622	-0.027697627
197	0x3d65c30a	0.056094207
198	0x3d28a8d7	0.041176643
199	0x3d2c5f47	0.04208305
200	0xbc214af9	-0.009844535
201	0xbdf8dce2	-0.12151505
202	0xbd39821f	-0.04529011
203	0xbc8f7526	-0.017511915
204	0x3deb2f0e	0.11483584
205	0x3da106cb	0.07862624
206	0x3dcbe5c5	0.099559344
207	0xbda95df1	-0.08269871
208	0x3d219d29	0.03945652
209	0xbc60de07	-0.01372481
210	0xbc904648	-0.017611638
211	0x3deeaebc	0.11654422
212	0x3dcc53c7	0.09976917
213	0xbad9e44d	-0.0016623825
214	0xbd94c3dc	-0.0726392
215	0xbd697c32	-0.057003208
216	0xbca1da3c	-0.019757383
217	0xbce81010	-0.028327972
218	0x3d15ee59	0.03660426
219	0x3c15d4d0	0.009144977
220	0xbdcc0dbf	-0.09963559
221	0xbda59349	-0.08084733
222	0x3d27de79	0.04098365
223	0xbda1777f	-0.0788412
224	0x3df84e9a	0.12124367
225	0x3cc7abdd	0.024373943
226	0x3dc6037f	0.096686356
227	0xbd552fb0	-0.05204743
228	0x3a362970	0.00069489237
229	0x3dba4b1d	0.09096358
230	0xbd928f91	-0.07156289
231	0xbc637608	-0.013883121
232	0x3d4e893a	0.05042384
233	0xbe042cdf	-0.12907742
234	0x3cb4b9b5	0.022061208
235	0x3d9e11e9	0.0771826
236	0xbd955164	-0.07290915
237	0xbdba0434	-0.09082833
238	0x3d9ffbf6	0.078117296
239	0x3d6875b2	0.056752868
240	0x3dbda2c5	0.092595614
241	0x3dee05b8	0.116221845
242	0x3d1af635	0.037832458
243	0xbddcddbb	-0.10784479
244	0xbe110f62	-0.14166024
245	0x3dcf3faa	0.10119565
246	0xbdb4fdab	-0.08837446
247	0xbd6d92dc	-0.058001384
248	0x3db94e5e	0.090481505
249	0xbd887cda	-0.066644385
250	0x3cf8c9ba	0.030369628
251	0xbd0c4311	-0.034243647
252	0x3bf19251	0.0073721786
253	0xbdbc5172	-0.09195222
254	0x3d9b4b1e	0.07582687
255	0xbdbb9cc1	-0.09160758

disc.fc.bias f4 [6]
0	0x3b6be99b	0.0035997394
1	0xbd5c7a5f	-0.05382764
2	0xbc0eda42	-0.008719029
3	0x3c8898fd	0.016674513
4	0x3d5d539f	0.054034825
5	0xbe019424	-0.12654167

disc.linear.weight f4 [1, 6]
0	0xbd07504b	-0.033035558
1	0xbe5a510b	-0.21319978
2	0xbe4eea76	-0.20206627
3	0xbe74733b	-0.23872082
4	0xbe5b56d5	-0.21419843
5	0x3ecaf7cf	0.39642188
