test_decoder.pt (torch, 283527 bytes, 9 tensors)

rnn.weight_ih_l0 f4 [183, 61]
000000 ec 89 00 be 67 d3 e0 3d f1 f1 c5 bd ca 9e e5 bc
       -0.12552613 0.10977822 -0.09665287 -0.028029818
000010 20 82 3c bc e5 1f da 3d af 21 d3 bd 73 a3 30 3d
       -0.011505634 0.10650615 -0.10309159 0.043124627
000020 94 e9 ac bd 50 55 9b bc db c2 c9 bd c6 b9 e5 bb
       -0.08442989 -0.018961579 -0.09851619 -0.0070106713
000030 d8 4c 0c bd 4b 50 92 bd 42 9c 96 3d 2f ed e0 bc
       -0.03425297 -0.07144221 0.073540226 -0.027456848
000040 d5 13 78 3c 2b 5d 90 bd 73 25 51 bd c9 c0 49 bd
       0.015141447 -0.070490204 -0.051061105 -0.04925612
000050 c7 10 03 3e 98 e7 0e bd 4d 22 9c bd 13 45 71 3d
       0.12799369 -0.034888834 -0.0762373 0.058903765
000060 24 0a b2 bd 4c 0d 8e bd 4e 6d fd bc c9 8e 65 bd
       -0.086933404 -0.0693613 -0.03093591 -0.056044374
000070 e5 17 33 bd 1f a3 45 bc 56 94 35 bd 3d 4a 13 3d
       -0.04372396 -0.012062817 -0.044330917 0.03595947
000080 5b ed c7 bd d2 87 b0 bd ea fb 40 3d 0b ac 60 bd
       -0.09762069 -0.08619656 0.047115244 -0.054851573
000090 bd d7 a6 3d 51 13 69 bd 3f 79 07 3d c5 f3 87 3d
       0.081466176 -0.056903187 0.033074614 0.06638292
0000a0 95 88 4d 3d 39 c0 cd bd f5 59 b8 3d a4 72 8d 3d
       0.050179083 -0.10046429 0.09001533 0.069066316
0000b0 12 d6 57 3c 87 e5 b4 3d 82 f5 d6 3d 38 ed 10 3c
       0.013173597 0.08832841 0.10496046 0.00884562
0000c0 13 80 bf 3c 68 f2 e8 3c ee 16 ff bd 96 d4 e2 bd
       0.0233765 0.0284359 -0.12455545 -0.11075704
0000d0 9c e2 9c bc b6 ca a7 3b 77 82 53 bd 94 ad 63 bd
       -0.019151025 0.0051206006 -0.051638093 -0.05558546
0000e0 91 66 b6 3c 43 6f d9 bd 33 3b 00 3e 0e 8e c3 3d
       0.022265704 -0.106169246 0.12522583 0.09548579
0000f0 4c a3 bd 3c 4a 86 9c 3d f5 4c 89 bd b7 6b 1e bd
       0.023149155 0.07642801 -0.067041315 -0.038676944
000100 4e 65 aa 3c fb 20 c6 3d 5e 6b 84 3d a4 62 8b bd
       0.020800259 0.09674259 0.06465791 -0.068059236
000110 e4 d4 b3 3d 8b 14 85 bd 15 9d 79 bd 94 ff 4a bd
       0.0878084 -0.06498059 -0.06094082 -0.049560145
000120 e7 c8 39 bd 09 78 f3 bc b3 99 c4 bd f4 41 de 3d
       -0.04535761 -0.029720323 -0.09599628 0.10852423
000130 11 4b f2 3d e1 64 e1 3c f3 f0 6e 3d ad b3 95 3d
       0.11830724 0.027513923 0.058335256 0.07309661
000140 9b 1a 88 3d b8 58 02 3e 67 f5 cf 3d 0d 54 65 bd
       0.066456996 0.12729156 0.10154229 -0.05598836
000150 ba f9 ff bd 64 f3 f2 3d 0c 9c 9f bd ca b9 d4 3d
       -0.124988034 0.11862829 -0.077934355 0.10386999
000160 76 c6 81 bd 23 6a 65 bc f4 e3 f1 bd 06 13 c5 3d
       -0.063366815 -0.014002356 -0.11811057 0.09622769
000170 50 b8 99 bd 57 ae 60 bd fe 9c 30 3d f2 de 8e bd
       -0.07505858 -0.054853763 0.04311847 -0.06976117
000180 55 0e aa bc 3a e2 80 3d 13 2e 22 3b 30 e7 fa bd
       -0.020758787 0.06293149 0.00247467 -0.12251127
000190 90 a1 15 bd 60 9a c6 3d 0e 94 67 3d b7 59 25 bd
       -0.03653103 0.096974134 0.05653768 -0.040368762
0001a0 30 ce 85 3d db 50 a6 bd 88 8a 6a bd 93 c7 d5 3a
       0.06533468 -0.08120891 -0.05726102 0.0016310088
0001b0 56 c5 47 3c 58 49 f8 3d e8 0f 14 bd c7 ab 95 bb
       0.012193045 0.12123364 -0.036147982 -0.0045675966
0001c0 53 38 02 be 75 8f bf bd 40 1e c9 3d 53 95 f8 3d
       -0.12716798 -0.09353534 0.09820223 0.12137856
0001d0 53 1a d3 bd 7e ba af 3c 05 6e ec 3d 4d dc b9 bc
       -0.10307755 0.021451231 0.11544422 -0.022688055
0001e0 36 fb 05 3d 78 90 22 bd 35 57 41 3d aa 41 2a bc
       0.032710277 -0.039688557 0.047202308 -0.010391632
0001f0 02 ea 47 3c c0 1d f1 bd 4b 4a 5f 3d 18 0b 66 3d
       0.012201788 -0.117732525 0.05451421 0.056162924
000200 80 6d 9a bd 6e 7b 51 bd ff 54 81 3d 01 14 b5 bd
       -0.07540417 -0.051143102 0.0631504 -0.08841706
000210 d1 45 f0 3d dd 4f 12 3d 6a ba ee bd c2 07 21 3d
       0.117320664 0.035720695 -0.116566494 0.03931404
000220 05 d8 b1 bd 1a c5 e4 bd 2f 2c 2a bd 37 d8 ce bd
       -0.086837806 -0.11170407 -0.041546043 -0.100998335
000230 28 96 99 3d 3b 49 c5 3d 90 d0 f2 3d fa e1 09 3b
       0.07499343 0.09633108 0.118561864 0.0021039234
000240 f0 cc fb bd da ba 08 3c c0 73 a2 bd db a4 cc bd
       -0.12294948 0.00834533 -0.07932234 -0.09992381
000250 af 37 81 3d ba d7 8a 3d 01 50 43 3d 35 fa 0c 3d
       0.06309449 0.06779428 0.04768372 0.034418304
000260 42 00 e5 3d 56 84 01 bd 9e bf 0d be 93 ea c6 3d
       0.1118169 -0.031620346 -0.13842627 0.0971271
000270 c1 8a 62 bd eb 9f 93 3d 7a 20 b0 3d a4 62 f6 3a
       -0.055308107 0.07208236 0.085999444 0.0018797708
000280 b1 61 59 bd eb b4 8e 3d c7 b3 5a 3c 6b c3 d4 bd
       -0.05307168 0.06968101 0.013348526 -0.103888355
000290 6a f6 ba 3d 39 6f a3 3c ed 16 0d be a7 6d cb bc
       0.09129031 0.019950496 -0.13778277 -0.02483256
0002a0 e7 2c 93 3d 1b 51 03 bd 69 4e 86 bd fa d0 18 3c
       0.07186299 -0.03205977 -0.06557924 0.009327168
0002b0 0b 3a 97 bd 2f 05 88 3d ac 7c 1d bd 3e 5c 80 3d
       -0.07384118 0.06641614 -0.038448974 0.06267594
0002c0 07 cf dc bd ab 70 e3 bd 1b a7 6f bd c7 a7 4f 3d
       -0.10781675 -0.11105474 -0.058508974 0.050697114
0002d0 da 4d 8c bd d1 b6 01 3d a4 46 fa bd 45 95 76 bd
       -0.068507865 0.031668488 -0.12220505 -0.06020095
0002e0 2f 7a e5 bd 52 8a 80 3d 6e b6 9c 3d 94 06 cd bc
       -0.11204945 0.062763825 0.07651983 -0.02502755
0002f0 40 c5 0e 3d 5d 94 29 bd d2 fc 92 3d 23 d4 b5 bd
       0.03485608 -0.041401256 0.07177128 -0.088783525
000300 40 e3 ea bd 5e 11 ef 3d 18 f7 43 3d ea 75 d6 bd
       -0.11469126 0.116732344 0.04784307 -0.10471709
000310 be 59 d3 bc fb ac d9 bb 90 d9 e5 3d 6b 4e f9 3b
       -0.025799628 -0.0066429353 0.112231374 0.007608225
000320 75 cb 56 bd 54 e6 75 bc 20 ee 8a bd c6 46 89 bd
       -0.052440125 -0.015008528 -0.067837 -0.06702952
000330 a9 1e 15 bd 69 3e 60 3d 32 68 4c 3d 24 f7 79 bd
       -0.036406193 0.05474702 0.049904056 -0.061026707
000340 0e b4 ef 3b e6 aa cf bd 8e d8 b7 bd 97 7a a2 3d
       0.0073151654 -0.10140018 -0.089768514 0.079335384
000350 68 81 20 bd 6d 9e 83 bd a4 e5 c9 bd 1f 14 08 be
       -0.03918591 -0.06426702 -0.098582536 -0.13288926
000360 f4 9c 9a 3d c3 e4 9b bd 7e bf d5 3d 64 c8 fe bd
       0.07549468 -0.07611992 0.10436915 -0.12440565
000370 35 4c b8 3d 83 60 a9 bd ab 87 67 bd fa 0a 84 3d
       0.0899891 -0.08270361 -0.056525867 0.06447406
000380 d9 81 8e 3d bc 0b 4f bd bd 19 f3 bd 81 3a bd 3d
       0.0695836 -0.0505483 -0.118701436 0.09239674
000390 36 29 ab 3d 45 7c 13 3d f5 23 12 bd 83 ca 84 bd
       0.0835747 0.036007185 -0.035678823 -0.064839385
0003a0 02 7b e0 3d b2 31 cf 3c 4a 3a a5 3d 70 83 c9 3c
       0.10960962 0.025292251 0.080677584 0.024598807
0003b0 ee 85 4f 3d d9 7f 0a 3d eb bc 10 3d 5d 60 c6 bd
       0.050664835 0.03381333 0.035336416 -0.096863486
0003c0 64 54 8c bd 23 cd e8 bd bf 62 9b 3d 1a c5 c3 3d
       -0.06852034 -0.11367252 0.07587194 0.095590785
0003d0 db 6d 16 3d 44 ae ef 3c f7 29 bb bb 16 c5 99 3d
       0.03672586 0.029257901 -0.0057117897 0.07508294
0003e0 d0 d3 c4 3d aa ae ed 3d 69 8f b2 3c 82 3f a0 3d
       0.096107125 0.1160558 0.021796899 0.07824613
0003f0 14 51 03 3d 86 4d 36 3d 0f 62 ed bd 22 c4 79 bd
       0.032059744 0.044507526 -0.11590969 -0.060978062

rnn.weight_hh_l0 f4 [183, 61]
000000 15 62 1b bd c6 2c 16 bd 0e 4f a4 bd 24 9e ff bd
       -0.037935335 -0.036663793 -0.08022891 -0.12481335
000010 63 db 8f bd b2 aa 51 3d f9 3a a3 bd e5 22 9a 3d
       -0.070242666 0.05118818 -0.079702325 0.07526187
000020 eb 17 91 bc b0 32 b8 3d 8c b2 e0 3d 96 cf 87 3c
       -0.0177116 0.08994043 0.10971555 0.016578477
000030 b1 9a fb bd a2 92 df 3d 6b 36 21 bd 59 81 e4 3d
       -0.122853644 0.1091664 -0.039358538 0.111574836
000040 4a de 4f 3d 01 75 81 bc 46 62 8c bd 84 84 e8 3d
       0.0507491 -0.015802862 -0.06854682 0.113534
000050 66 2f a0 bd 18 4c bf bd c7 90 00 bd ed 7e 97 3d
       -0.078215405 -0.093406856 -0.03138807 0.07397256
000060 70 4f d1 bc 8a 9f df bd 2b 95 3f bd 04 fd 12 3d
       -0.025550574 -0.109191015 -0.046773117 0.035885826
000070 98 13 be 3d 06 bf 65 ba 19 8b 05 3d d4 d8 c8 3d
       0.09281081 -0.00087641214 0.032603357 0.09806982
000080 0b 47 6c 3d ac 56 fb 3d bb 1b 85 bd a2 de 0e bd
       0.05768494 0.12272391 -0.0649943 -0.034880288
000090 85 5f ab bc a9 ec fb bd 3d b1 42 bc b0 54 e3 bd
       -0.02091957 -0.12300999 -0.011883077 -0.11100137
0000a0 e5 82 00 be 82 80 a4 3d 73 a9 37 3b 9b 90 02 bd
       -0.12549932 0.080323234 0.0028024584 -0.031876188
0000b0 37 3c ff bd 14 e5 70 3d b8 b6 ab bd 34 38 90 3a
       -0.12462657 0.058812216 -0.0838446 0.0011003078
0000c0 ba 2b aa bd ca 7d bb bd a9 cd d3 3d a0 fe c8 bd
       -0.083091214 -0.09154852 0.10341961 -0.09814191
0000d0 c2 92 a1 3d 0b 7e 88 bd f7 6d 48 bd 25 b7 a1 3d
       0.0788932 -0.06664666 -0.048932996 0.0789626
0000e0 4c 28 c7 bd f7 a2 c3 bd 45 89 00 be 4b 54 94 bd
       -0.09724483 -0.095525675 -0.12552364 -0.0724264
0000f0 4a 18 34 bd 01 05 41 3d ce 36 70 3d 0d 8e bc 3d
       -0.043968476 0.047123913 0.058646016 0.092067815
000100 87 8f c4 bd 7d 64 d3 bc 66 06 be bc 74 d3 8e 3d
       -0.09597688 -0.025804752 -0.02319641 0.06973925
000110 2c 2d c8 3d c6 4f c4 bd c7 92 43 bc 57 9e f1 bd
       0.09774241 -0.09585528 -0.01193685 -0.11797779
000120 29 d5 e5 3d 58 3d 1f bd 3d 65 b2 3d 42 f8 8a 3d
       0.11222298 -0.03887686 0.08710716 0.06785633
000130 27 15 94 bd 0f 61 00 be e5 9a e9 bd ad 27 1c bd
       -0.07230597 -0.12537025 -0.11406497 -0.038123775
000140 d0 73 d3 bd c1 89 b3 bd 7a e3 82 bc c7 49 34 3d
       -0.10324824 -0.08766509 -0.01597761 0.044015672
000150 6a f9 f6 3d 72 56 d5 3d 14 f0 04 3c 85 2a 81 bc
       0.12059291 0.10416879 0.00811388 -0.015767345
000160 81 e4 8c 3b f0 d6 af 3d 10 16 6d 3d 8e 8e d7 3c
       0.0042997007 0.08585918 0.05788237 0.026313093
000170 25 9f 6f bd 96 33 c7 3c 54 99 9d bd 5f 44 1c 3d
       -0.05850138 0.02431659 -0.07695261 0.03815114
000180 16 2d 12 bb fc d7 cb 3d cd 44 fe 3d a9 31 92 bc
       -0.0022304705 0.09953305 0.124154665 -0.017845945
000190 b4 a3 04 bc 56 43 88 3d a1 da f0 3d 45 c8 ac bd
       -0.0080956705 0.06653468 0.1176045 -0.08436636
0001a0 e5 67 96 bd e8 c1 3c 3d d2 95 ca 3c 49 6e 9f 3c
       -0.07344035 0.04608336 0.024729643 0.019461768
0001b0 1a 96 8a bd a2 c4 fc bd 9f 92 54 bc 93 16 9f 3d
       -0.06766911 -0.12342192 -0.01297441 0.077679776
0001c0 10 c8 4c 3c cc f9 4b bd 2e 09 3c 3d af 7e 9a 3d
       0.0124988705 -0.04979877 0.045907192 0.07543694
0001d0 ab 27 96 bd 3e 92 db bb 18 bd 83 3d 54 61 54 bb
       -0.07331785 -0.006700783 0.06432551 -0.0032406645
0001e0 03 03 f0 bc 2e 38 81 3d 79 d0 cb 3d 42 3a 97 bd
       -0.029298311 0.063095436 0.099518724 -0.07384159
0001f0 65 61 e8 3b b5 15 cb bd 9b 25 a5 bd 36 02 ae 3d
       0.0070916885 -0.0991625 -0.08063813 0.084965155
000200 1b 58 bf 3d b2 60 00 3e 07 b4 b1 bd ec ae ad bd
       0.09342977 0.12536886 -0.086769156 -0.08480629
000210 22 2f a5 bd 63 a9 58 3c b6 f4 8a 3c 31 08 83 3c
       -0.080656305 0.013223979 0.01696239 0.015995117
000220 2a 3d aa bd 7f c2 8a bd 11 a2 e3 3c 51 c8 fd 3c
       -0.08312447 -0.067753784 0.02778724 0.030979307
000230 79 e4 28 3d e1 0a 27 3d 20 19 b5 3d 90 8e b2 3d
       0.041233514 0.04078186 0.08842683 0.08718598
000240 5f 7a 36 bd fc e8 fa bd 61 c9 3c bd 31 69 dc 3d
       -0.044550296 -0.122514695 -0.046090487 0.10762251
000250 d4 80 96 3d d7 f5 02 be 44 74 6d bd b7 d4 83 3d
       0.07348791 -0.12789093 -0.057972208 0.064370565
000260 4e 71 01 be cc 96 a9 3d 36 9a ad 3d 96 c0 99 3d
       -0.12640879 0.08280715 0.08476679 0.07507436
000270 0c 3d f4 3d 73 c2 aa bc bc 0e 7c bd 80 de 78 3d
       0.11925706 -0.020844674 -0.06153749 0.060759068
000280 c2 ba 8e bd f4 91 3f 3d c2 67 88 ba fe 39 c4 bd
       -0.06969215 0.04677005 -0.0010406899 -0.09581374
000290 91 1d c7 3d 57 a4 91 bd 28 74 e7 3d a7 a5 ac 3d
       0.09722436 -0.071114235 0.11301452 0.08430033
0002a0 da 6e a1 bc 15 6a f3 3c 52 ea e2 3d 2e 80 15 3d
       -0.019706178 0.02971367 0.11079849 0.036499195
0002b0 16 3a d4 bc 83 03 ad bc 69 87 fe bc ba 36 9f 3d
       -0.025906604 -0.021119839 -0.031070428 0.0777411
0002c0 05 d7 ff bd ba 3a f6 3d ad d1 ae 3d 67 7d 91 3d
       -0.124921836 0.1202292 0.08536086 0.07103997
0002d0 b4 51 bc bd 65 17 d9 bd b1 fb bd bd e2 af 32 3d
       -0.09195271 -0.10600165 -0.09276522 0.043624766
0002e0 d1 0d a6 bd 69 fa b3 3d 01 53 cf 3b a1 03 81 bc
       -0.08108104 0.08787996 0.0063270335 -0.0157488
0002f0 3f 39 df bd cd cd e4 bb 01 27 f2 bd c7 d0 9e 3d
       -0.10899591 -0.006982541 -0.11823846 0.07754665
000300 39 9f 4e bd 63 db 6c 3d f1 83 c5 3d da 1c d8 bd
       -0.050444815 0.05782641 0.096443065 -0.10552378
000310 59 f8 3a 3d 18 36 0d bd e1 eb fd 3d d3 23 92 bd
       0.045647 -0.034475416 0.12398506 -0.07135739
000320 0b 6d 3d bd c8 86 68 3d 2f 2b b5 3d 02 70 37 bd
       -0.04624657 0.056769162 0.08846127 -0.044784553
000330 57 cd 3b bb 18 1b 1a 3d 93 ec b8 bd eb 89 d5 bd
       -0.0028656328 0.037623495 -0.09029498 -0.104266964
000340 dc 5a 26 bb 21 fc bb bd 4f d5 9b bd 44 1f db bc
       -0.0025383746 -0.09178949 -0.07609045 -0.026748307
000350 92 09 12 bd 29 9e fc 3d 66 ff b4 3c 93 44 0b 3d
       -0.03565366 0.12334854 0.02209444 0.034000944
000360 77 9a a2 bd 92 24 ee bc 9b b6 ee 3d 37 00 75 bd
       -0.07939618 -0.029070172 0.11655923 -0.059814658
000370 a5 dd e6 3d 46 94 84 bd 4d 42 3c bc d3 02 2d 3d
       0.11272744 -0.064735934 -0.011490417 0.04223902
000380 d0 40 f2 3d 55 fa 63 3d e4 bf a6 3d 9d 16 9b bd
       0.11828768 0.055658657 0.08142069 -0.075726725
000390 d2 e1 a7 3d 0f 10 70 bd 6a 8c 0c bd 1a 76 ef 3d
       0.08197369 -0.058609065 -0.034313597 0.11692448
0003a0 bd d5 15 bd 53 b2 aa bd b7 c5 6f bd 6b 18 b4 bd
       -0.03658079 -0.08334794 -0.058538165 -0.0879372
0003b0 d5 e7 35 3d 51 14 c4 bd 91 57 99 bc db 14 92 3d
       0.044410545 -0.095741875 -0.018718513 0.07132884
0003c0 15 47 35 bd 47 dd e8 3d e9 a5 f5 bd c9 ae fa bd
       -0.044257242 0.1137033 -0.119945355 -0.12240369
0003d0 c4 17 24 3d cb 1f 88 3d 7f 00 0d 3d 68 7d ce 3c
       0.040061727 0.06646689 0.0344243 0.025206283
0003e0 95 da d1 bc 29 8a 84 bb ce dc f9 bd d2 bc 3b 3d
       -0.025616923 -0.0040447903 -0.12200318 0.04583437
0003f0 c4 58 75 bd 94 b0 cd bc 90 11 e3 bd c2 5f f4 3d
       -0.059899107 -0.025108613 -0.11087334 0.11932327

rnn.bias_ih_l0 f4 [183]
000000 90 f8 0b be be 18 03 be 38 ad bb 3d 5b 05 4b 3d
       -0.13669038 -0.12802407 0.09163898 0.049565654
000010 dd d4 dc bd 78 b4 c5 3d e5 ae 04 3e b9 53 ca bd
       -0.10782788 0.09653562 0.12957342 -0.0987925
000020 2b 7d 1e bd 93 42 e4 3d 76 59 b7 3d 5c 7b d0 bd
       -0.03869359 0.111455105 0.0895261 -0.10179779
000030 b2 b9 d7 3d aa ab 89 3b 91 93 28 3c ab 1f bc 3c
       0.105334654 0.004201372 0.010289089 0.02296432
000040 a3 81 97 3d fe 06 c1 3d fb 20 e6 3d 07 c7 c2 3d
       0.07397773 0.09425162 0.11236759 0.09510618
000050 8d 84 12 be bb 3b 66 3d 15 1d f9 3d c5 49 a4 3d
       -0.14308377 0.056209307 0.1216375 0.08021883
000060 28 13 9c bc d2 66 55 3c 8c 3e 2c bd b7 23 4b 3d
       -0.019052103 0.013025003 -0.042051837 0.049594607
000070 08 c0 ad 3d d3 2d 99 bd 27 ca 55 3d 31 5f 68 bd
       0.08483893 -0.074794434 0.05219474 -0.056731407
000080 34 be 90 bd 38 42 e8 3d ea 33 10 3e ab d7 0c ba
       -0.07067528 0.11340755 0.14082304 -0.0005372713
000090 0e 29 1c bc a9 a1 c4 bc 19 f1 bd 3d 03 32 ed bd
       -0.009531273 -0.024002867 0.09274501 -0.115818046
0000a0 c1 d1 bd bd 6e 03 04 bd bb a9 01 3d e9 60 a1 bc
       -0.09268523 -0.032229833 0.03165601 -0.01969953
0000b0 00 54 2d bd 47 73 d3 bd 16 c4 12 bc 4d 9b 0b bd
       -0.042316437 -0.10324722 -0.008957883 -0.034083653
0000c0 c9 68 28 bb 67 29 4d 3c d6 ac e6 3c ea d2 43 bd
       -0.0025697222 0.012522078 0.028158586 -0.047808565
0000d0 e1 67 a7 3d 72 af b4 bd 1a 33 c1 bc 93 bc 3f bd
       0.0817411 -0.08822526 -0.023583937 -0.046810698
0000e0 cb e6 ce bd c0 5b 08 bd 71 31 fd bd 25 48 aa bd
       -0.10102614 -0.033290625 -0.12362946 -0.08314542
0000f0 c5 b8 b5 3d 55 8c 5f bd 67 85 3f 3c fa ca 35 bc
       0.088731326 -0.05457719 0.01168952 -0.011095757
000100 53 d9 29 bc 8c 94 aa 3b 80 b8 8c bd aa 57 61 bd
       -0.010366756 0.0052056964 -0.06871128 -0.055015244
000110 2f c8 1b bc 77 0d 39 bd dd 1f 5b bd 96 ae 11 bd
       -0.009508177 -0.045178857 -0.053497184 -0.03556689
000120 1d 61 8b 3d 37 76 c0 bd c5 fe 05 3d 11 dd fd bd
       0.06805632 -0.09397548 0.03271367 -0.12395681
000130 bd ba 00 3e 34 98 9f bc 8c 86 5a 3c df 52 70 bd
       0.12571235 -0.019481756 0.013337743 -0.058672782
000140 89 60 b4 3d fb 41 53 3d 18 6d 6e bb 4f 90 f1 bd
       0.08807475 0.051576596 -0.0036380943 -0.11795103
000150 93 87 a0 bd 8c 1d cd bd 90 af dd 3b 65 aa 44 bd
       -0.07838359 -0.10015401 0.0067653134 -0.048014063
000160 1c eb 91 bd 7d 5b b7 3c 5a 34 d6 bd 7a 3e f7 3c
       -0.07124922 0.022382492 -0.10459204 0.030181158
000170 47 08 b5 bd 9f d5 ec 3d 48 73 e6 3d b5 74 ca 3c
       -0.088394694 0.115641825 0.11252457 0.024713853
000180 89 d9 e5 bd 7f 23 32 3d 59 c4 85 bd 54 a9 f1 3d
       -0.11223132 0.043490883 -0.06531591 0.11799875
000190 83 06 22 3e 75 4f 22 3c ae 9a f6 bc b0 77 e8 bc
       0.15822797 0.009906639 -0.030103054 -0.028377384
0001a0 4a dc a2 3d a7 94 c4 bd aa 65 f9 bc a6 3e 4b bd
       0.07952173 -0.09598666 -0.030443985 -0.049620293
0001b0 6a cd a3 3d b0 ed 51 bd 02 d3 42 bc b6 0f 43 3d
       0.07998164 -0.051252067 -0.0118911285 0.047622405
0001c0 99 c5 84 bd b6 d0 ef bc 45 11 92 3c 81 97 5d 3c
       -0.06483001 -0.029274326 0.0178305 0.013524891
0001d0 0c 17 38 bd 76 ed 3f bd 44 fa 1a 3a cb aa 47 bc
       -0.044943854 -0.04685732 0.0005911926 -0.012186716
0001e0 67 fe 01 3d b2 b0 c3 bd 9e 28 2c 3d 95 cd 22 bd
       0.031736758 -0.09555186 0.042030923 -0.03974684
0001f0 b5 78 41 3d 8e 84 16 bd 47 3c 44 bd 14 58 e8 3c
       0.047234256 -0.036747508 -0.047909047 0.028362311
000200 e0 60 12 bd d3 aa 04 bd 3a 1c 95 bc 21 3b ff 3d
       -0.03573692 -0.032389473 -0.018201936 0.1246245
000210 9a e9 59 bd 57 f6 7b bd f6 44 02 be 06 9d 83 bd
       -0.053201295 -0.061514225 -0.12721619 -0.06426434
000220 1e 48 ee bd 9d 5d ed bc 9e d5 2f bd 16 d6 7b 3d
       -0.11634849 -0.028975302 -0.04292833 0.061483465
000230 f2 84 16 bd 6b f2 aa bd 55 c2 90 bd 7d 77 c6 3d
       -0.03674788 -0.08347019 -0.07068316 0.09690759
000240 43 47 14 bc d0 de 27 3d 84 16 fc 3c 39 ad a6 bb
       -0.009050193 0.040983975 0.030772455 -0.0050865677
000250 1b 8d 17 bc 72 11 37 bd 42 c7 dc 3c 84 58 e1 3d
       -0.009249951 -0.04469437 0.026950482 0.11003211
000260 05 d3 ce 3d 0e aa c9 bd b2 66 74 3d 23 91 35 bc
       0.100988425 -0.098468885 0.05966825 -0.011081967
000270 5d 3d 68 3d c9 5e b8 bd c2 e9 d2 3c 60 ea 12 bc
       0.056699146 -0.09002454 0.02574623 -0.008967012
000280 51 1e e9 bb a9 ee 23 bc 3e 72 5e bc 5e 63 e3 3c
       -0.0071142097 -0.0100056315 -0.013577042 0.027757343
000290 e7 7c e3 bc e6 90 01 bb 18 7d 74 bd 85 ea ca 3d
       -0.027769519 -0.0019770204 -0.05968961 0.09908012
0002a0 9e 83 ea bd be 28 1a bd 7a 0c 4e bd f8 5f 17 bd
       -0.11450885 -0.03763651 -0.050304867 -0.036956757
0002b0 22 0d ae bd 25 f3 87 bd 10 9e eb ba 24 57 da bd
       -0.08498599 -0.06638173 -0.0017976183 -0.10661152
0002c0 93 d8 80 bd fe 0d 5d ba d9 df 07 be 7d 38 c1 bc
       -0.06291308 -0.0008432566 -0.13268985 -0.023586506
0002d0 68 ce f8 3d 01 48 a6 bc 25 2b 44 bc
       0.12148744 -0.020298006 -0.011973177

rnn.bias_hh_l0 f4 [183]
000000 90 cc ea bd 84 e8 03 bc df 03 a2 3d 8d 94 9c 3d
       -0.114647985 -0.0080510415 0.079108946 0.07645521
000010 54 ba b1 bc ad b7 21 3c 86 f6 fb bd f0 86 50 b9
       -0.021695293 0.009870452 -0.1230288 -0.00019886694
000020 e4 e5 83 bd 92 9c 72 bd e5 87 82 bc 3f bb ac 3d
       -0.064403325 -0.05923135 -0.01593394 0.08434152
000030 23 cb 42 bd 34 62 9a bc 0e 52 eb 3b 6e ab 81 3d
       -0.047557008 -0.018845655 0.0071814125 0.06331526
000040 4d 9b b5 bd 09 11 01 be 41 1c 2f bd 87 29 da 3d
       -0.08867512 -0.12604155 -0.042751554 0.10652452
000050 cd d2 01 3d 14 c0 83 3c 8e 7a d7 3d e5 d2 51 3c
       0.031695176 0.0160828 0.10521422 0.012806629
000060 97 a4 d7 bd ab 56 fe bd f7 bf 8a 3d 45 88 e3 bc
       -0.1052944 -0.12418874 0.06774896 -0.02777494
000070 dd 32 43 3d 0a 18 9c 3c b9 d5 d8 bd 79 4a 10 3e
       0.04765593 0.019054431 -0.10587639 0.14090909
000080 3c 18 42 3d 6f 0c 8b 3d 9a 86 ff bb 80 5f 1d 3d
       0.047386393 0.06789481 -0.007798028 0.038421154
000090 5a 9c 0a 3e 49 09 de 3c 30 f4 a2 3d f7 e6 cd 3d
       0.13536206 0.027104037 0.07956731 0.10053819
0000a0 57 61 ca bd 3d 42 97 3d e3 2e 0a 3d 4d 33 04 bd
       -0.09881847 0.07385681 0.03373612 -0.032275487
0000b0 8d 99 93 3d b6 ca 17 3d 8b 29 ea bd 2d cb 26 3d
       0.07207022 0.037058555 -0.11433705 0.040721107
0000c0 2b 5d c4 3d 14 15 02 bd ab 60 15 bd 6a f8 4b 3d
       0.09588083 -0.031758383 -0.036469143 0.049797453
0000d0 29 cd fb 3d 57 62 91 3d ed d9 68 bc 75 c7 dd bd
       0.122949906 0.07098835 -0.014212114 -0.10829059
0000e0 56 90 c3 3c 1a 1c 86 bd 1b e8 d1 3d 2d e3 f2 3d
       0.023872536 -0.06548329 0.10249349 0.118597366
0000f0 fb 76 8f bd 07 1a cd 3d 96 09 a4 3c 42 20 b0 3d
       -0.070051156 0.1001473 0.020024102 0.08599903
000100 e8 78 19 bb 1f f0 9d 3d a4 3b 83 3c 1d 5d 82 3d
       -0.0023418013 0.07711815 0.01601965 0.06365416
000110 e4 ab 9f 3d 62 c4 fd 3d 83 74 e9 bd 2c 8c 3c 3c
       0.077964574 0.12390973 -0.11399176 0.011508029
000120 3f c7 2b bd 17 02 5b 3d f0 db 3e 3d 91 e7 8e 3d
       -0.041938063 0.05346879 0.046596467 0.069777615
000130 a2 a0 91 3d d9 e9 26 bc ff 54 ac 3d cd 10 0b bd
       0.071107164 -0.01018759 0.08414649 -0.03395157
000140 f9 d2 8c 3b d0 99 10 3e 95 1a 26 3e 26 e6 d4 bd
       0.004297611 0.14121175 0.16221078 -0.1039546
000150 c2 39 2a bc cb d7 b6 3d cd 2c 30 bd 60 30 01 3e
       -0.010389747 0.08927878 -0.043011475 0.1261611
000160 e6 30 c7 3d e9 25 59 bd 66 3b da bd 44 10 36 3d
       0.097261235 -0.05301467 -0.106558606 0.044449106
000170 f2 90 57 bd 99 a7 fe bc a0 65 c7 bd 63 18 9f bc
       -0.052628465 -0.031085776 -0.0973618 -0.019420808
000180 d4 b7 90 3c 8b 84 ad 3d 0e aa 41 3d 3e d2 76 3d
       0.017665781 0.08472546 0.047281317 0.060259096
000190 fd 4c f6 3d 4e fe 53 3d 22 d3 ed 3d b3 18 78 bd
       0.12026403 0.051756196 0.11612536 -0.06057043
0001a0 58 be db 3d 5a a8 90 bd 44 a5 9b 3c a7 fc da bb
       0.107296646 -0.070633605 0.018999703 -0.0066829505
0001b0 9b e4 7e 3d d7 f3 31 3c 9f a5 d3 bd e0 16 83 3d
       0.062229734 0.010861359 -0.10334324 0.064008474
0001c0 7d 35 00 bd 0e 59 d4 bd f9 cc e8 3c df 56 12 bd
       -0.03130101 -0.10368548 0.028418051 -0.035727378
0001d0 6f 0b f4 3d c6 e4 07 bd a0 88 0a 3d 44 9a d2 3c
       0.11916243 -0.03317716 0.033821702 0.025708325
0001e0 85 a3 0e bd 89 cf e2 bd 3e 97 b5 3d 7c 63 b2 3c
       -0.034823913 -0.110747404 0.08866738 0.021775953
0001f0 5b 8f 56 3d a6 c3 5f 3d a6 e4 b9 3d 97 4e 1f bc
       0.05238281 0.054629944 0.09076814 -0.009723327
000200 5a 8c df 3d a2 e0 69 3b 12 23 34 3d 00 74 96 bd
       0.10915442 0.003568687 0.04397876 -0.07346344
000210 8e 96 d6 bc 72 90 ae 3d 6b 8f 81 3d 69 66 c2 3d
       -0.026194837 0.085236445 0.06326183 0.094921894
000220 3a b7 6d ba 7f b6 d5 3d 9d 1d 70 bd 58 cd e2 3c
       -0.00090681354 0.10435199 -0.05862199 0.027685806
000230 70 c8 f2 3d 48 77 db 3c 3c c8 5b bc aa c3 0f bb
       0.11854637 0.026790276 -0.013414439 -0.0021936693
000240 80 40 ee bd 25 9a f3 bc 6b 26 e8 3d 42 80 d3 3b
       -0.11633396 -0.029736588 0.11335453 0.0064544985
000250 56 4b d9 bd 18 27 20 bd ed 85 55 3d 44 b0 49 39
       -0.10610072 -0.039099783 0.052129675 0.00019234518
000260 59 90 a4 bd 0c ea 8d bd b1 ae 3b bd 69 2b 01 be
       -0.08035345 -0.069294065 -0.045820896 -0.12614216
000270 57 3b 2c be 15 f3 25 3d 1f 64 d8 bd 94 05 be bd
       -0.16819511 0.040515024 -0.105659716 -0.09278408
000280 f7 5e 3e bd 5c 2a 42 3d 81 3c da bd 36 3e 0f be
       -0.046477284 0.04740368 -0.106560715 -0.13988575
000290 ce 7f 02 bd 3a 17 c4 3d 7a 88 cd 3c 8b a1 37 bd
       -0.031860165 0.095747426 0.025089491 -0.044831794
0002a0 67 8c 4d bc ec d5 a5 3b 70 b8 15 3b 96 fd e2 3d
       -0.012545682 0.005060902 0.002284553 0.11083524
0002b0 db 74 82 bd 2a 7f 28 3d cb 59 c2 bc 81 c2 b7 3c
       -0.06369945 0.041136898 -0.023724457 0.022431614
0002c0 74 4d d3 bd c1 a3 24 3d 74 d2 3c 3d f4 26 ba bd
       -0.103175074 0.04019523 0.04609914 -0.09089461
0002d0 2c 77 86 3d 01 ab 04 be 79 db f5 3d
       0.06565699 -0.12955858 0.12004752

cnn.weight f4 [128, 61, 5]
000000 57 46 f2 bc 7b 4a a6 3c bc f0 cd 3c 30 0d bd bc
       -0.029574556 0.020299187 0.025139205 -0.023077577
000010 ae fd 02 3d da 5e 5a 3d fd a0 b5 bc cf 5e 74 bc
       0.03198021 0.053313114 -0.022171492 -0.014915182
000020 92 bc 7b bc 0f 0b ad 3c 6d ea 08 3d 77 97 5b 3d
       -0.015364783 0.021123437 0.03342669 0.053611245
000030 5a c6 70 3a ef be f7 3c fe 6e 4b bd de 09 ea 3c
       0.000918483 0.030242411 -0.049666397 0.028569158
000040 ab 78 87 bd af 05 0a bd e5 1c 78 bd 63 e9 24 3d
       -0.066148125 -0.033696827 -0.06057443 0.040261637
000050 91 cf 36 3c dd fc d4 bb d4 57 db bb e9 92 58 bd
       0.011157886 -0.00649987 -0.0066938195 -0.05287448
000060 6a 19 0e bd c4 0c 58 ba 96 d3 81 3c 6e 64 0f bd
       -0.034692205 -0.00082416483 0.015847962 -0.035007887
000070 27 df 75 bb 0c 9f 46 bc 5f 20 21 3d 02 b4 b9 bc
       -0.0037517042 -0.012122881 0.039337512 -0.022668842
000080 cc 1d 90 bb 53 c8 47 3d e1 37 40 bd 65 47 9b bb
       -0.0043980833 0.04877503 -0.04692829 -0.0047387355
000090 76 d7 18 bd 46 53 34 bd f8 ad 14 bc 42 d8 2c bd
       -0.037314855 -0.04402473 -0.0090746805 -0.042198427
0000a0 70 01 08 bd 11 af 0f 3c f0 24 3e bd 5e a1 a6 bd
       -0.033204496 0.008769766 -0.046421945 -0.08136247
0000b0 ea 4a 70 bd 50 65 e1 ba 26 1c 93 3c 72 e6 94 bc
       -0.058665194 -0.0017196331 0.017957758 -0.018176291
0000c0 dc 46 63 3b 04 0d 85 bc 01 59 f1 bb 9d 65 13 bd
       0.0034679687 -0.016241558 -0.0073653464 -0.035985578
0000d0 98 b1 11 bd 10 c1 45 3c e0 90 8d bd 90 1b 04 3d
       -0.035569757 0.0120699555 -0.06912398 0.03225285
0000e0 df 1c 49 3d be 11 f4 bb 7c 7e 34 3c 96 f3 3c bd
       0.0490998 -0.007448404 0.011016484 -0.04613074
0000f0 ab 98 fc 3c db 61 a7 3b 52 20 e0 bb 0d 22 25 bd
       0.030834517 0.005108101 -0.0068397904 -0.040315676
000100 3a 00 21 bd f7 8d 25 bd cc 94 4d 3b 9d 64 7a bd
       -0.039306857 -0.04041859 0.0031369207 -0.06113111
000110 f4 28 b9 bc 16 2e 05 bd bc ab 3a bd 62 07 81 3c
       -0.022602536 -0.032514654 -0.045573935 0.01575059
000120 63 2d 80 3c b7 16 d6 3b 62 ea aa bc 1a 39 1e bc
       0.015646642 0.0065334695 -0.020863716 -0.009657169
000130 04 c7 8c 3c 92 ef 7d bb 31 01 f7 3c ae 9a 55 bc
       0.017184742 -0.0038747531 0.030151935 -0.013037367
000140 14 e9 22 3d be 72 49 bd 98 81 31 bd b1 06 44 3d
       0.039773062 -0.049181692 -0.04333648 0.047857944
000150 99 6e 0e bd 25 ac 01 bc ab 60 95 3c 3c 9b 11 3d
       -0.034773443 -0.007914578 0.018234571 0.035548434
000160 bf e4 6e 3d 9f f5 cb 3c 3a 0d 5b bd 3b 14 4d bd
       0.058323618 0.024897395 -0.05347941 -0.05006812
000170 0e f7 9b bb dd 73 5d 3d 18 60 0e bc 5e 34 13 bc
       -0.004759676 0.054065574 -0.008689903 -0.008984653
000180 40 5d a4 bc 8b a2 0c 3b 9b fa 20 3c c9 40 d1 bb
       -0.020063996 0.0021459188 0.009825374 -0.006385897
000190 e7 b8 34 3d ea 49 2b 3c ad ae 65 3d 05 ee dc bc
       0.04412165 0.010454634 0.056074787 -0.026968965
0001a0 bf 4c 7f 3c 87 ad 10 bd fc 62 a3 bc a2 f2 fb bc
       0.015582263 -0.03532174 -0.01994466 -0.030755345
0001b0 c3 28 05 3d 49 1b 21 bd 0d 6d 31 bd 46 80 77 bd
       0.032509577 -0.03933266 -0.04331689 -0.060425065
0001c0 28 5d 4b bd 45 46 3b bd 43 a9 7c 3d 7f 04 a7 3c
       -0.049649388 -0.04572131 0.061684858 0.020387886
0001d0 93 41 5b bd 96 28 93 bc c5 15 90 bc b2 cb 15 3c
       -0.053529333 -0.017963689 -0.017588506 0.009142803
0001e0 0f 10 f1 3c d4 57 dd bc 6b 08 b3 3c 07 80 5f bd
       0.029426603 -0.027019419 0.0218546 -0.054565456
0001f0 9c 22 96 bd 3b 66 64 3d ec 7e dd bc 20 97 8f 3b
       -0.0733082 0.055761557 -0.02703806 0.004382029
000200 fe 5a 71 3c 54 10 63 3c 91 f0 3f 3d e4 22 c4 bc
       0.014731167 0.013858873 0.04686028 -0.023942418
000210 ae 3f 2f bd 8a 73 18 bd fd 4f ce bc 18 0e 02 3d
       -0.04278534 -0.03721956 -0.025184626 0.031751722
000220 62 8a 55 bd 1f a0 a1 3a 7a e6 3b 3d 66 e8 eb 3c
       -0.052133925 0.0012331045 0.045874096 0.02879734
000230 05 59 b0 3b db e2 55 bd 00 34 9e bc 4c bb 28 bd
       0.0053817057 -0.0522183 -0.019311905 -0.041194245
000240 54 ae f7 b9 cf d8 f8 bb b7 0c 4e 3b 4f a5 3a bd
       -0.00047241396 -0.007594205 0.0031440684 -0.045567807
000250 f8 c0 04 bd dd 56 40 3d ce ed 0d bd 2a 32 d7 bb
       -0.03241059 0.04695784 -0.034650616 -0.0065672593
000260 b8 59 5d 3c 22 2e ff bc aa ea d2 ba c9 dd 14 bd
       0.01351016 -0.031149928 -0.0016091664 -0.036344323
000270 42 8c 8a bd 4b 16 38 3d 9f 43 8f bb 89 b1 72 3c
       -0.06765033 0.044943135 -0.0043720747 0.0148128355
000280 e2 d3 98 3a 98 b2 f3 bc d4 33 6b 3d d8 12 4b 3d
       0.0011659826 -0.029748246 0.057422474 0.049578518
000290 75 f9 43 bc 18 66 46 bd 82 9a 6d bd e8 60 01 3c
       -0.011961331 -0.048437208 -0.05800868 0.007896639
0002a0 c6 33 6f bd 3c b2 04 3c f6 de 06 3d 01 08 c4 3c
       -0.058398984 0.008099135 0.032927476 0.023929598
0002b0 52 64 4c 3d 7f 83 78 3d 43 61 97 ba 7f 98 32 bd
       0.04990036 0.06067228 -0.0011549372 -0.043602463
0002c0 11 a3 32 3b 72 3e ee 3a b0 2c 33 bd 97 50 f1 3c
       0.002725784 0.0018176569 -0.04374379 0.029457374
0002d0 b4 b5 c8 bc 8c 7b 27 bd e2 68 9d bc 1c 80 b4 bc
       -0.024500705 -0.040889308 -0.019215051 -0.022033744
0002e0 50 ab 6f bc fd 20 00 bd 8c a6 1f 3d 0d cb 3e bd
       -0.014628246 -0.03128146 0.03897719 -0.046580363
0002f0 45 a2 80 3c aa 96 3e 3d 34 b1 21 3d f5 00 62 bc
       0.015702376 0.046530403 0.039475635 -0.0137941735
000300 e4 33 a4 3b 38 23 94 3c 45 6e 21 39 bd 58 7a 3b
       0.0050110687 0.0180832 0.00015395235 0.0038199865
000310 2e d3 91 bc c9 b2 70 3c 43 c8 06 bd a8 40 05 bd
       -0.017800894 0.014691063 -0.03290583 -0.032532364
000320 57 72 d0 3c 2e c6 07 bd e9 9e 3e 3d 59 0e 21 bd
       0.025445146 -0.033147983 0.046538267 -0.039320324
000330 f2 a5 75 3c f0 cc df 3c 32 51 f2 3c bf c5 51 bc
       0.014993178 0.027319402 0.029579733 -0.012803494
000340 62 a7 d3 3c 5d 83 6a 3d ad 23 e7 bc 67 a8 ac 3c
       0.02583665 0.057254184 -0.028215254 0.021076394
000350 33 e2 21 3d 72 62 00 3d 11 ed 6e bd df a7 dd bb
       0.03952236 0.031343885 -0.058331553 -0.0067643966
000360 06 78 c3 3c 8e b1 72 3d ba 76 ac 3c 71 6e 3d bd
       0.023860943 0.05925136 0.021052707 -0.046247903
000370 f8 f6 ce bc 64 8a 8e bd 0c 16 49 bd e2 44 8d 3c
       -0.025264248 -0.0695999 -0.04909329 0.01724476
000380 e3 1b 8d bb d1 c0 34 bc 1b c6 48 3d 68 1a 42 bd
       -0.004306303 -0.011032299 0.049017053 -0.047388464
000390 c7 99 27 3d be f2 88 bc a6 42 49 3b f0 67 a7 bc
       0.040918138 -0.016717311 0.0030709892 -0.020435303
0003a0 d4 68 2d bd b9 b4 2e 3d 34 06 59 bd c1 b9 ff bc
       -0.0423363 0.04265282 -0.05298443 -0.031216504
0003b0 48 d5 2e 3d 48 70 38 3d bf 43 25 bd f4 7d 39 bd
       0.04268387 0.045028955 -0.04034781 -0.045286134
0003c0 96 fc ac 3b 3a a6 0b 3d 29 cc 60 3c de f6 ee bb
       0.005279134 0.034094073 0.013720551 -0.0072926125
0003d0 21 b3 41 3d 61 10 20 3d 53 22 a8 bc f0 45 13 3d
       0.04728997 0.03907812 -0.02052418 0.03595537
0003e0 44 66 04 3d 9b 5f fe bb 6d d6 c5 bc 65 4f 0a bc
       0.03232409 -0.007762862 -0.024150098 -0.008441781
0003f0 96 bc 7d bd c1 04 c7 3c 75 67 ca 3c 0c 00 25 bc
       -0.061947428 0.024294259 0.024707535 -0.010070812

cnn.bias f4 [128]
000000 89 af 78 3c 36 32 81 3c 8d c9 7e bd bd 81 33 3c
       0.01517857 0.015771013 -0.062203933 0.010956225
000010 48 a0 33 3c 95 72 6a bc 30 4d 8b 3d 28 d0 1f 3d
       0.010963507 -0.014309545 0.06801832 0.039016873
000020 c4 16 4c 3d f0 92 d7 bc 36 19 41 3d 1c 74 0e 3d
       0.0498264 -0.026315182 0.047143184 0.0347787
000030 5b 41 76 3b 93 68 6d bd 9f bb 3b bd e7 1a 77 bd
       0.0037575576 -0.057961058 -0.045833226 -0.06032839
000040 17 32 1a 3d 5c c2 1e bd c7 41 16 3d 89 a2 df 3c
       0.037645426 -0.038759574 0.036683824 0.027299182
000050 81 07 2a 3d ad fe 1d 3c 73 4f 80 3d a7 32 1f bd
       0.041511063 0.009643239 0.06265154 -0.038866665
000060 3c d2 67 3d 68 65 8c 3c bb 0d 86 3d 39 25 29 3d
       0.05659698 0.017138198 0.06545588 0.041295264
000070 cd d3 b8 bb 66 50 06 bd 69 01 39 3d 61 7b f8 bc
       -0.005640483 -0.032791518 0.04516736 -0.03033227
000080 f2 41 9f bd c0 38 47 bc c4 3b fd bc 0e 75 c7 bc
       -0.0777625 -0.012159526 -0.030912288 -0.024347808
000090 2a f6 31 bb 7d 4b 12 bb 83 7a 4a bd 96 e3 fa bc
       -0.0027154782 -0.0022322827 -0.049433243 -0.0306261
0000a0 e2 d3 4a bc 90 fb 5e bd 42 1c 1f bd 84 80 e4 bb
       -0.012379618 -0.054439127 -0.038845308 -0.006973328
0000b0 ed e8 b6 3a 5d cc 41 3d 92 8f 1d bd 34 51 01 bd
       0.0013954915 0.047314037 -0.038466997 -0.031571582
0000c0 2c f6 0e bd ab c2 ae bc 39 9d 3a bd 6c 5c 5b bd
       -0.034902737 -0.02133306 -0.045560095 -0.053554937
0000d0 2e a6 1a 3c 1d 09 c7 3c a8 04 91 3d d0 7c 86 bc
       0.009439034 0.024296338 0.07080966 -0.016416937
0000e0 4b 41 91 3d 6e e4 10 3d 40 bc f2 bb 92 c5 0c 3d
       0.07092532 0.035374098 -0.007407695 0.034368105
0000f0 59 7e 38 3d cc b8 40 3d bb 63 8f 3d 18 e3 95 3c
       0.04504237 0.047051236 0.07001444 0.018296763
000100 56 56 13 3d a0 bb 97 bd e1 bb 41 bd a6 55 bc 3a
       0.03597101 -0.074088335 -0.047298316 0.0014368787
000110 2b 74 15 3d 58 83 69 bd 30 bf f5 3c c7 81 98 3c
       0.03648774 -0.057010025 0.029998392 0.01861657
000120 3e 74 e5 bc 49 fa 70 bd 82 79 84 3d cb cd 98 bb
       -0.02800953 -0.05883244 0.06468488 -0.0046632043
000130 d4 04 9d bc 58 a6 e2 bc dd ca 29 3d 03 85 15 bd
       -0.019167341 -0.02766721 0.04145323 -0.036503803
000140 a6 be d6 3c b8 f7 19 bb ab b0 83 3d 61 79 93 3b
       0.026213955 -0.00234936 0.06430181 0.0045005535
000150 95 b9 80 3d 30 12 78 3d e6 0e 7a 3c 24 40 ab 3c
       0.06285397 0.06056422 0.015262341 0.020904608
000160 f0 28 12 bd 3d 5f 0b 3b 73 3e a8 bc f8 27 b6 bc
       -0.035683572 0.0021266483 -0.02053759 -0.022235855
000170 58 ed 13 bd dd 4a e8 ba 9c 05 39 3d cc 50 83 3d
       -0.03611502 -0.0017722506 0.045171365 0.06411895
000180 eb ec 5b bc c2 6e 91 bd 49 87 3e bd 61 98 c3 bc
       -0.013423185 -0.071012035 -0.046515737 -0.02387637
000190 3b c9 fc 3c 57 43 7c bb c3 82 0e bd 8c d0 de 3c
       0.030857673 -0.0038492286 -0.034792673 0.027199052
0001a0 c1 06 2f bd 35 13 c1 bc 1f 61 5f 3d 58 0b 7c 3d
       -0.04273105 -0.023568729 0.05453598 0.061534256
0001b0 12 fb 8f bc 3d e5 30 3d 96 70 4e bb ae da 5a 3d
       -0.017575774 0.04318737 -0.0031500212 0.053431205
0001c0 5a ae 52 3d 1a 27 d5 3b 47 33 7e 3d 62 9b 50 bc
       0.051435806 0.0065049054 0.06206062 -0.012732359
0001d0 d8 93 1f 3d 2b bb ea bc f2 91 3d 3d 1b fa aa 3c
       0.038959354 -0.028653702 0.046281762 0.020871213
0001e0 1b 59 d3 bb b0 2a 93 3c 6d 1c 9e bc 10 99 21 bd
       -0.006449831 0.01796469 -0.019300664 -0.039452612
0001f0 7b c0 33 3d 03 11 4f 3c 9c d7 15 bd 9f d6 c2 3c
       0.043884736 0.012638333 -0.036582574 0.02378398

linear.weight f4 [64, 128]
000000 eb 48 9e bd 78 b5 92 3c ff 8d 00 3c df 49 c4 3b
       -0.07728752 0.017908797 0.0078463545 0.0059902514
000010 72 57 80 bd aa 38 5e 3c 11 34 9c bc 69 c3 83 bd
       -0.06266679 0.013563314 -0.019067796 -0.06433756
000020 e1 fe 47 3d 04 32 6a 3d 4a 3a 0f bd c3 8f f4 3c
       0.048827056 0.057176605 -0.0349677 0.029853707
000030 0f eb 00 3d cd 75 27 bd 6d 31 a7 bd 66 ad 3f bd
       0.03147417 -0.040883828 -0.08163724 -0.046796225
000040 72 20 3a bd 84 f3 83 bd 46 e4 82 bd f7 93 85 3d
       -0.0454411 -0.06442931 -0.06391196 0.06522363
000050 ee 98 5c 3c ab 07 be 3d 98 36 ab bd 02 46 84 bb
       0.013464196 0.09278806 -0.08360022 -0.004036666
000060 2d 02 75 3d b6 e2 da 3c 23 d1 af bd bb 29 23 bd
       0.059816528 0.026719432 -0.085848115 -0.03983472
000070 ca 3d f6 3c 37 cb f2 bc 5c 25 73 3d e9 b0 63 bd
       0.03005876 -0.029637916 0.0593618 -0.055588637
000080 e8 2a 76 3c ed 3e 0f bd 5d bf df bc 93 21 7a 3d
       0.015024878 -0.03497212 -0.027312929 0.061067175
000090 f1 63 d2 3c d6 ce 19 3c 30 6a c5 bb 44 fc ff bc
       0.025682421 0.009387692 -0.0060246214 -0.03124822
0000a0 d6 6f 11 3d ab 76 33 bc 86 d4 9a 3d a1 13 2b 3d
       0.035507046 -0.010953586 0.07560067 0.041766766
0000b0 e3 8c 06 3d 8d ff 33 3d b7 05 b2 bc 68 42 34 bd
       0.032849204 0.043944884 -0.02173124 -0.044008642
0000c0 4f ac a5 bd 2f b5 94 bd a4 2d 42 3d 5c 7a 9d bd
       -0.08089506 -0.072611205 0.047406808 -0.07689354
0000d0 cf 9a 87 3d ae 66 96 bd 99 1c 8a bd c7 28 45 3d
       0.06621324 -0.07343803 -0.06743736 0.04813459
0000e0 18 9a de bb 7c 0e 64 bd 2f 23 16 3d 01 61 fb 3c
       -0.0067932718 -0.055677876 0.036654647 0.030685904
0000f0 4d 72 c9 ba 32 02 69 bc 10 3b bb bd 84 70 07 3d
       -0.0015369147 -0.014221715 -0.09142125 0.033066288
000100 37 fe 85 bc 2d f5 a8 bd ce f9 45 3d b7 c8 82 bd
       -0.01635657 -0.082498886 0.048333935 -0.063859396
000110 0d 29 bc bc 11 c7 cf 3d 73 41 89 bd cb 03 2b bd
       -0.022968793 0.10145391 -0.067019366 -0.041751664
000120 33 54 97 3d 91 81 b0 3c 69 02 f5 3c 2d 68 17 3c
       0.073891066 0.021546157 0.029908376 0.009241146
000130 59 3e 5a bd f3 65 66 3d 4d 70 73 3d e6 de 56 3d
       -0.053282116 0.05624957 0.05943327 0.052458666
000140 2e 3d d2 bd 80 28 6a bc 6e d3 4c bc 5e 76 6e 3d
       -0.10265575 -0.0142918825 -0.012501581 0.058218352
000150 d7 f8 8c 3c 61 e8 81 bd a1 cf ab bc 1d da 85 3d
       0.0172085 -0.06343151 -0.020973029 0.065357424
000160 96 7d 93 bc 0c fe 4f 3d 91 35 57 3d fa d2 07 3d
       -0.01800422 0.050779387 0.05254132 0.033160187
000170 29 7c 8b bc 86 ea 58 bb 6d fd 5e 3d 5c 19 e0 3c
       -0.017026978 -0.0033098771 0.054440904 0.027355842
000180 18 d1 10 3d d1 64 2c 3c ce 0d 88 bb 07 88 c8 3c
       0.035355657 0.010522083 -0.0041520363 0.024478925
000190 cc d8 96 bd 06 5e a2 3d ec 30 30 bd 82 d4 19 bd
       -0.073655695 0.0792809 -0.043015406 -0.03755618
0001a0 08 66 d3 3b 0b 23 01 3c 7e c2 38 3b 8f 13 cc bd
       0.006451372 0.00788189 0.0028192098 -0.09964668
0001b0 aa dc b5 3c 8d e3 9a bd 71 3c 81 3d f7 70 0b 3d
       0.022199947 -0.07562933 0.063103564 0.03404328
0001c0 4b 0f a5 3c f3 b4 88 3c 43 b9 84 3c 7f 04 2f bd
       0.020148894 0.016687846 0.01620162 -0.042728897
0001d0 4a eb dc bc f8 a0 7a bc 2f 9b 70 bd 9f bf 56 bd
       -0.026967663 -0.015297167 -0.058741745 -0.052428838
0001e0 e1 fc ac bd 23 a5 50 bc 78 12 2e bd 88 9f 8c 3d
       -0.0844667 -0.012734684 -0.042498082 0.06866366
0001f0 aa 40 90 3d 2d b5 2f 3d 85 44 9a 3d f1 6a 5f 3d
       0.07043584 0.042897392 0.075326 0.054545347
000200 90 6f b0 bd f7 ae 41 bd ec 8f 14 3c e4 87 a1 3c
       -0.08615029 -0.047286 0.009067517 0.019718118
000210 8b 00 5a bd f7 1f 49 3d 61 fa 93 bd 86 8e 1f 3d
       -0.053223174 0.04910275 -0.0722549 0.03895428
000220 c8 d6 81 bd 35 2b 80 bd 1a c5 a0 bd 6b 98 a1 3d
       -0.063397944 -0.06258241 -0.07850094 0.078903995
000230 e5 66 0b bd fa 15 97 3c 2b 69 e9 bc 88 54 31 bc
       -0.034033675 0.018443096 -0.02849253 -0.0108233765
000240 51 e6 72 3d 15 f0 47 bd 32 8e f4 bb 6a dd 41 bd
       0.059301678 -0.048812944 -0.00746324 -0.047330298
000250 c8 12 47 3c c4 c7 20 bd fd 51 3e 3d e3 6f 44 3d
       0.012150474 -0.03925301 0.04646491 0.047958266
000260 f0 6b ab bc 3f ae a3 3c 8f e6 f3 bc 9b 22 0b 3d
       -0.020925492 0.019980548 -0.029773025 0.03396855
000270 3c a2 2f bc 97 5d 9b bc 0f a5 80 3d ba 35 97 bc
       -0.010719832 -0.018965526 0.062814824 -0.018458236
000280 27 e1 79 bd aa 56 33 3c 0b 9d 06 3c 86 6e c6 3d
       -0.061005738 0.010945955 0.008216153 0.096890494
000290 01 19 83 3d e4 ec a9 bd 58 8f a7 3c 39 c5 09 bd
       0.064012535 -0.082971364 0.020454094 -0.03363535
0002a0 58 62 70 bd 43 92 35 3d 7d cd 5a bd 22 00 5e bc
       -0.058687538 0.04432894 -0.053418625 -0.013549836
0002b0 43 24 f1 bc 4d cc ad bc 49 33 f3 bc 02 d0 28 bd
       -0.029436236 -0.021215582 -0.02968754 -0.041213997
0002c0 dc 93 9d bd bc c0 ad 3d 86 01 47 bd 78 03 1f 3c
       -0.076942176 0.08484027 -0.048585437 0.009705417
0002d0 7c b5 2a bd 7f 6d 58 3d cf 0e 1c 3c 14 46 ad 3d
       -0.041676983 0.0528388 0.009525015 0.08460632
0002e0 7c 49 62 bc 38 04 6d 3d fb ca e3 3d 1c 9c 81 bc
       -0.013811465 0.05786535 0.111227 -0.015821509
0002f0 18 25 5a bb da c0 40 3b d8 90 f4 3c c4 ee 07 bb
       -0.003328627 0.0029411823 0.029854223 -0.002074168
000300 61 e7 2f 3b 9f 41 5b bd 4a 92 c2 ba 42 15 0f 3d
       0.0026840793 -0.053529378 -0.0014844623 0.034932382
000310 68 22 b8 3c c1 f2 20 bd 3b a5 80 bc 52 64 c0 bd
       0.022477344 -0.03929401 -0.015703788 -0.093941346
000320 1e 76 19 bd 75 10 44 bd b5 d5 81 bd ca c3 59 3d
       -0.03746616 -0.047867257 -0.063395895 0.053165235
000330 53 f8 0c bd 12 29 7f bd 19 d2 02 3d ed ef 6d bd
       -0.034416508 -0.062295027 0.031938646 -0.05809014
000340 94 ef 64 bd ed 46 c5 3d 9c 92 3c 3c dd e3 65 bd
       -0.055892542 0.09632669 0.011509564 -0.05612551
000350 a1 c3 d3 bd 78 7b d7 bd e3 55 09 bd 03 f6 1b bd
       -0.10340048 -0.10521597 -0.033529174 -0.038076412
000360 bb c4 06 bc 0d 89 d9 3d ac 07 11 bd cd 2e 98 bd
       -0.008225615 0.106218435 -0.035407707 -0.074308015
000370 94 d2 2d 3d fe 14 2d bd 42 f4 5f bd 77 19 c3 3d
       0.04243715 -0.042256348 -0.0546763 0.095263414
000380 f4 3f 84 3c 77 d2 bd bc ac dc 3a 3d b9 36 4f bd
       0.016143776 -0.023171647 0.045620605 -0.050589297
000390 45 56 0c bc e8 bf 11 3d b1 c9 c9 bc ee 16 0d bd
       -0.00856549 0.035583407 -0.024632307 -0.034445696
0003a0 23 45 d5 3d d2 0c bc bd 37 57 4d bd 9d 2d 93 bc
       0.104135774 -0.09182133 -0.050132003 -0.017966086
0003b0 7a d0 8a 3d 2a 0b e2 bd 31 30 ab bd 98 c8 6e 3d
       0.06778045 -0.110372856 -0.08358801 0.05829677
0003c0 21 77 88 3d 0a d7 55 3d 74 5a 14 3d d8 5d 0e 3c
       0.06663347 0.05220703 0.036219075 0.008689366
0003d0 e7 ba 10 bd 42 fa e1 bd ca d6 c5 bd 0a 5d 3e 3d
       -0.035334494 -0.11034061 -0.096601084 0.046475448
0003e0 e0 4a ab 3d 89 69 79 3c ad 15 77 3d ec 7a ca 3d
       0.08363891 0.015222915 0.060323406 0.09886727
0003f0 a1 8e 01 3d 40 eb 7e bd 25 8e 8c 3d f3 ea 85 3d
       0.031630162 -0.06223607 0.068630494 0.06538954

linear.bias f4 [64]
000000 b5 79 8f bd 93 1d bc bd 45 a4 b5 3d f9 cf a7 bd
       -0.07005636 -0.09185328 0.088692226 -0.081939645
000010 28 f0 37 bd b0 b9 c6 3c 0c 00 1c 3b 51 73 88 3c
       -0.044906765 0.024258465 0.002380374 0.01665655
000020 1c 45 37 bd c7 1d 3a 3c 38 9a 2b 3d 69 2d af bb
       -0.044743642 0.011359639 0.04189512 -0.0053459895
000030 5e 81 ce 3d 29 6b 62 bd 98 1c 06 3d 1c 7c 87 bd
       0.100832686 -0.055277977 0.032742113 -0.06615469
000040 86 ef 6e 3b 9e 85 f8 bb 9b 27 12 bd ca b8 44 3d
       0.0036458685 -0.007584288 -0.035682302 0.04802779
000050 20 3f de 3d 67 38 e3 bc 10 89 c3 bd ed 07 26 3d
       0.10851884 -0.027736856 -0.09547627 0.040534902
000060 41 39 6f 3c e1 d2 7f bd 9a a0 de bc fc c3 cf 3d
       0.014601053 -0.06245697 -0.02717619 0.10144803
000070 f0 fd 44 bd fe 34 db bd ba 7a ff 3b 71 f5 68 3d
       -0.048093736 -0.10703467 0.0077966126 0.056874696
000080 6f c4 84 bd 09 01 69 3c 49 94 33 bd 6d 9c 6e 3d
       -0.06482779 0.014221438 -0.043842588 0.058254648
000090 95 fc 07 3d 08 55 75 3c d2 a7 73 bd 7f ac f7 bb
       0.033199865 0.014973886 -0.059486218 -0.007558405
0000a0 ec 64 00 bd 38 6f 2d b9 fd 69 97 bc 9b 3a 0c bd
       -0.031346247 -0.00016539998 -0.018483156 -0.034235578
0000b0 9a cc 41 bc 50 90 d4 3c 28 08 e2 3c 95 9a 6e bc
       -0.011828566 0.02594772 0.02759178 -0.014563222
0000c0 80 f9 7c bd 1d 94 d3 3c e1 ed 97 3c 51 71 c5 bc
       -0.06176138 0.025827462 0.018546047 -0.024101885
0000d0 cc c0 ec bc da 70 06 bd 66 6b a9 bd 94 e0 a2 3d
       -0.028900526 -0.032822467 -0.08272438 0.07952991
0000e0 79 e1 a1 3d c1 8e 25 3d ee 66 1f 3c b7 ef 22 3d
       0.079043336 0.040419344 0.00972913 0.03977939
0000f0 0a c5 d2 3c 96 5c 8e bd db 92 af 3c 36 c4 86 bd
       0.025728721 -0.06951253 0.02143233 -0.06580393

linear2.weight f4 [1, 64]
000000 e4 42 fb ba a5 e2 27 bd 3c e8 b9 3c 6d 5c 33 3d
       -0.0019169715 -0.04098763 0.022693746 0.043789316
000010 c1 ac 82 bd bd 72 98 3d 49 9e 85 3b b5 44 24 3c
       -0.063806064 0.074437596 0.004077707 0.010026147
000020 fb 12 65 3d 93 d3 1c ba 49 05 f4 3b c6 d4 5f 3d
       0.055926304 -0.0005982455 0.007446919 0.054646276
000030 c8 78 0f 3d b4 2f 8f 3d 86 89 dc 3d 35 b4 15 bd
       0.035027295 0.069915205 0.10768418 -0.036548812
000040 20 fc f3 ba f8 9e a4 3d 6f d7 a6 3c 9d 0d d9 3d
       -0.0018614568 0.080381334 0.020366399 0.105983
000050 fd 41 bc 3c 8a d9 bf bd a4 de 25 bd 44 c2 30 bd
       0.022980684 -0.09367664 -0.04049553 -0.043154016
000060 0d 83 37 3d e0 5a 9a b8 82 af 1e 3d 90 de 53 3d
       0.044802714 -7.360219e-05 0.038741596 0.051725924
000070 78 f2 be bd 40 77 a7 bc 38 dd c5 bb 1e 8d a3 3c
       -0.09323591 -0.020442605 -0.006038334 0.01996475
000080 57 35 cb bb 07 66 30 bc ce d6 70 bd 36 08 b0 bb
       -0.006201427 -0.010766513 -0.058798604 -0.0053720726
000090 44 5b 96 bd 7a 2b b6 3d 5c b3 db bd d2 5d 9f bd
       -0.07341626 0.08895011 -0.107275695 -0.07781567
0000a0 3a 52 d2 bd 98 e6 6f bd 4d 60 5a 3b fb 33 fa bb
       -0.1026959 -0.05856952 0.003332156 -0.007635591
0000b0 b7 57 95 3c 9a 8f d6 3d 50 35 cb 38 af aa c7 bd
       0.018230302 0.104766086 9.6897245e-05 -0.09749352
0000c0 71 1d 90 bd 34 0e b2 3c 09 9d 05 bd 85 93 c4 3d
       -0.070368655 0.021735288 -0.032620464 0.095984496
0000d0 b0 e4 46 bc 9d f6 9e bd 42 97 cd bd e5 34 65 3c
       -0.012139484 -0.077618815 -0.10038616 0.013989662
0000e0 a3 fc 8f 3d 97 5d 96 bd ca ab 43 3d 9d 79 09 bd
       0.070306085 -0.073420696 0.047771253 -0.033563245
0000f0 1a b5 dc 3d bf e6 ad 3d 87 88 7a bd a2 1f 6f 3c
       0.1077673 0.08491277 -0.06116536 0.014594944
