test_decoder.pt (torch, 283527 bytes, 9 tensors)

rnn.weight_ih_l0 f4 [183, 61]
000000 80 90 ef bd 4b d4 fb 3d f1 f1 c5 bd ca 9e e5 bc
       -0.11697483 0.12296351 -0.09665287 -0.028029818
000010 20 82 3c bc e5 1f da 3d af 21 d3 bd 49 a3 66 3d
       -0.011505634 0.10650615 -0.10309159 0.056308065
000020 94 e9 ac bd 50 55 9b bc db c2 c9 bd c6 b9 e5 bb
       -0.08442989 -0.018961579 -0.09851619 -0.0070106713
000030 d8 4c 0c bd 52 4e 6e bd 42 9c 96 3d eb 0e 6c bc
       -0.03425297 -0.05818016 0.073540226 -0.014407854
000040 d5 13 78 3c 2b 5d 90 bd ef 31 1b bd c9 c0 49 bd
       0.015141447 -0.070490204 -0.037889417 -0.04925612
000050 c7 10 03 3e 98 e7 0e bd 4d 22 9c bd 13 45 71 3d
       0.12799369 -0.034888834 -0.0762373 0.058903765
000060 24 0a b2 bd e0 ee 65 bd 5f b0 96 bc 3e 97 30 bd
       -0.086933404 -0.056136012 -0.018394647 -0.043112986
000070 e5 17 33 bd 1f a3 45 bc 56 94 35 bd 3d 4a 13 3d
       -0.04372396 -0.012062817 -0.044330917 0.03595947
000080 51 17 ad bd 41 d2 95 bd ea fb 40 3d 0b ac 60 bd
       -0.08451713 -0.073154934 0.047115244 -0.054851573
000090 bd d7 a6 3d 95 c6 32 bd 8a 6e 3d 3d c5 f3 87 3d
       0.081466176 -0.043646414 0.046247996 0.06638292
0000a0 95 88 4d 3d 39 c0 cd bd 53 0a d3 3d a4 72 8d 3d
       0.050179083 -0.10046429 0.103047036 0.069066316
0000b0 38 ed d8 3c 21 da cf 3d 82 f5 d6 3d e9 f5 b3 3c
       0.026480302 0.10149027 0.10496046 0.021967845
0000c0 13 80 bf 3c c7 4d 2a 3d fc 65 e4 bd 96 d4 e2 bd
       0.0233765 0.04157808 -0.111522645 -0.11075704
0000d0 9c e2 9c bc b6 ca a7 3b 77 82 53 bd 6f e7 2d bd
       -0.019151025 0.0051206006 -0.051638093 -0.04245704
0000e0 62 4b 11 3d 43 6f d9 bd 33 3b 00 3e 0e 8e c3 3d
       0.03547228 -0.106169246 0.12522583 0.09548579
0000f0 4c a3 bd 3c 5e 2f a9 3d 10 dd 69 bd b7 6b 1e bd
       0.023149155 0.08260988 -0.057095587 -0.038676944
000100 4e 65 aa 3c fb 20 c6 3d 5e 6b 84 3d a4 62 8b bd
       0.020800259 0.09674259 0.06465791 -0.068059236
000110 4c 33 c8 3d 8b 14 85 bd 15 9d 79 bd 94 ff 4a bd
       0.09775409 -0.06498059 -0.06094082 -0.049560145
000120 e7 c8 39 bd 09 78 f3 bc 5d 17 b0 bd f4 41 de 3d
       -0.04535761 -0.029720323 -0.08598206 0.10852423
000130 8f 35 03 3e e1 64 e1 3c f3 f0 6e 3d 76 0c aa 3d
       0.128134 0.027513923 0.058335256 0.08303158
000140 9b 1a 88 3d b8 58 02 3e 67 f5 cf 3d 0d 54 65 bd
       0.066456996 0.12729156 0.10154229 -0.05598836
000150 ba f9 ff bd 64 f3 f2 3d ae 2a 8b bd f8 ee e7 3d
       -0.124988034 0.11862829 -0.0679525 0.113248765
000160 7a be 5b bd 23 6a 65 bc f4 e3 f1 bd 06 13 c5 3d
       -0.05364845 -0.014002356 -0.11811057 0.09622769
000170 50 b8 99 bd b0 3d 38 bd 64 d6 58 3d f2 de 8e bd
       -0.07505858 -0.044980705 0.052938834 -0.06976117
000180 55 0e aa bc 3a e2 80 3d 4f 7b 4c 3c 8c 8f e6 bd
       -0.020758787 0.06293149 0.012480571 -0.11257848
000190 90 a1 15 bd 60 9a c6 3d 0e 94 67 3d 18 69 fa bc
       -0.03653103 0.096974134 0.05653768 -0.03056769
0001a0 30 ce 85 3d 81 bc 91 bd ff e2 41 bd 93 c7 d5 3a
       0.06533468 -0.071160324 -0.04733562 0.0016310088
0001b0 ed e6 b4 3c 58 49 f8 3d 11 f9 d6 bc 4c c3 ab 3b
       0.02208277 0.12123364 -0.026241811 0.005241787
0001c0 53 38 02 be 75 8f bf bd 40 1e c9 3d 53 95 f8 3d
       -0.12716798 -0.09353534 0.09820223 0.12137856
0001d0 7c d6 be bd 17 a4 00 3d 05 6e ec 3d 4d dc b9 bc
       -0.093182534 0.03140649 0.11544422 -0.022688055
0001e0 36 fb 05 3d 78 90 22 bd f0 1b 60 3d cc ae bd ba
       0.032710277 -0.039688557 0.054714143 -0.0014471649
0001f0 02 ea 47 3c c0 1d f1 bd 4b 4a 5f 3d 18 0b 66 3d
       0.012201788 -0.117732525 0.05451421 0.056162924
000200 80 6d 9a bd 46 d8 2c bd ff 54 81 3d 01 14 b5 bd
       -0.07540417 -0.042198442 0.0631504 -0.08841706
000210 d1 45 f0 3d dd 4f 12 3d 6a ba ee bd 01 ca 45 3d
       0.117320664 0.035720695 -0.116566494 0.04828835
000220 05 d8 b1 bd 3c 8c d2 bd 2f 2c 2a bd 37 d8 ce bd
       -0.086837806 -0.10280654 -0.041546043 -0.100998335
000230 22 e5 ab 3d 3b 49 c5 3d 90 d0 f2 3d fa e1 09 3b
       0.08393313 0.09633108 0.118561864 0.0021039234
000240 f0 cc fb bd da ba 08 3c c0 73 a2 bd b8 4b ba bd
       -0.12294948 0.00834533 -0.07932234 -0.090964735
000250 80 13 93 3d 4b f7 9c 3d 01 50 43 3d 35 fa 0c 3d
       0.07181454 0.07664355 0.04768372 0.034418304
000260 42 00 e5 3d 56 84 01 bd 36 9f 04 be c9 22 d9 3d
       0.1118169 -0.031620346 -0.12951359 0.10602338
000270 c1 8a 62 bd eb 9f 93 3d 7a 20 b0 3d 5b be 31 3c
       -0.055308107 0.07208236 0.085999444 0.010848607
000280 65 c5 34 bd eb b4 8e 3d c7 b3 5a 3c 6b c3 d4 bd
       -0.044133563 0.06968101 0.013348526 -0.103888355
000290 2c 2b cd 3d 39 6f a3 3c 56 e1 03 be c4 39 82 bc
       0.10018 0.019950496 -0.12878928 -0.015896685
0002a0 e7 2c 93 3d 35 8f bd bc 69 4e 86 bd 17 8c 95 3c
       0.07186299 -0.023139575 -0.06557924 0.018255277
0002b0 8e 07 85 bd 2f 05 88 3d ac 7c 1d bd 3e 5c 80 3d
       -0.064955816 0.06641614 -0.038448974 0.06267594
0002c0 07 cf dc bd 61 2a d1 bd 1c fb 4a bd c7 a7 4f 3d
       -0.10781675 -0.10213161 -0.049555883 0.050697114
0002d0 da 4d 8c bd d1 b6 01 3d a4 46 fa bd d3 91 67 bd
       -0.068507865 0.031668488 -0.12220505 -0.056535553
0002e0 16 9e d6 bd 52 8a 80 3d 6e b6 9c 3d 94 06 cd bc
       -0.10479371 0.062763825 0.07651983 -0.02502755
0002f0 40 c5 0e 3d 5d 94 29 bd d3 dc a1 3d 23 d4 b5 bd
       0.03485608 -0.041401256 0.07903447 -0.088783525
000300 40 e3 ea bd 5e 11 ef 3d 18 f7 43 3d ea 75 d6 bd
       -0.11469126 0.116732344 0.04784307 -0.10471709
000310 4b 61 97 bc fb ac d9 bb bd 71 f4 3d 6b 4e f9 3b
       -0.01847901 -0.0066429353 0.11935756 0.007608225
000320 75 cb 56 bd 26 2c fe bb 20 ee 8a bd c6 46 89 bd
       -0.052440125 -0.0077567277 -0.067837 -0.06702952
000330 a9 1e 15 bd 69 3e 60 3d 32 68 4c 3d 24 f7 79 bd
       -0.036406193 0.05474702 0.049904056 -0.061026707
000340 48 6b 6f 3c c9 21 c2 bd 2c 7e a9 bd 97 7a a2 3d
       0.01461298 -0.094791 -0.082760185 0.079335384
000350 68 81 20 bd 6d 9e 83 bd a4 e5 c9 bd 26 b8 00 be
       -0.03918591 -0.06426702 -0.098582536 -0.12570247
000360 ed 2e a9 3d c3 e4 9b bd 7e bf d5 3d 64 c8 fe bd
       0.082609035 -0.07611992 0.10436915 -0.12440565
000370 9e 40 c7 3d 03 91 9a bd ab 87 67 bd fa 0a 84 3d
       0.097291216 -0.0754719 -0.056525867 0.06447406
000380 d9 81 8e 3d 1d 41 32 bd bd 19 f3 bd e6 27 cc 3d
       0.0695836 -0.043519128 -0.118701436 0.099685475
000390 20 fb b9 3d 45 7c 13 3d 86 49 e9 bc 83 ca 84 bd
       0.090811014 0.036007185 -0.028477442 -0.064839385
0003a0 a6 3d ef 3d 07 c1 04 3d 4a 3a a5 3d 70 83 c9 3c
       0.116816804 0.032410648 0.080677584 0.024598807
0003b0 ee 85 4f 3d d9 7f 0a 3d ff 3d 2e 3d e7 ac b7 bd
       0.050664835 0.03381333 0.042539593 -0.089685254
0003c0 64 54 8c bd 23 cd e8 bd bf 62 9b 3d 1a c5 c3 3d
       -0.06852034 -0.11367252 0.07587194 0.095590785
0003d0 41 11 36 3d 80 67 1d 3d f7 29 bb bb 16 c5 99 3d
       0.04445005 0.038428783 -0.0057117897 0.07508294
0003e0 d0 d3 c4 3d aa ae ed 3d 69 8f b2 3c 29 08 b3 3d
       0.096107125 0.1160558 0.021796899 0.08741791
0003f0 14 51 03 3d 86 4d 36 3d 0f 62 ed bd 22 c4 79 bd
       0.032059744 0.044507526 -0.11590969 -0.060978062

rnn.weight_hh_l0 f4 [183, 61]
000000 15 62 1b bd c6 2c 16 bd 0e 4f a4 bd 24 9e ff bd
       -0.037935335 -0.036663793 -0.08022891 -0.12481335
000010 63 db 8f bd b2 aa 51 3d f9 3a a3 bd e5 22 9a 3d
       -0.070242666 0.05118818 -0.079702325 0.07526187
000020 eb 17 91 bc b0 32 b8 3d 8c b2 e0 3d 96 cf 87 3c
       -0.0177116 0.08994043 0.10971555 0.016578477
000030 b1 9a fb bd a2 92 df 3d 6b 36 21 bd 59 81 e4 3d
       -0.122853644 0.1091664 -0.039358538 0.111574836
000040 4a de 4f 3d 01 75 81 bc 46 62 8c bd 84 84 e8 3d
       0.0507491 -0.015802862 -0.06854682 0.113534
000050 66 2f a0 bd 18 4c bf bd c7 90 00 bd ed 7e 97 3d
       -0.078215405 -0.093406856 -0.03138807 0.07397256
000060 70 4f d1 bc 8a 9f df bd 2b 95 3f bd 04 fd 12 3d
       -0.025550574 -0.109191015 -0.046773117 0.035885826
000070 98 13 be 3d 06 bf 65 ba 19 8b 05 3d d4 d8 c8 3d
       0.09281081 -0.00087641214 0.032603357 0.09806982
000080 0b 47 6c 3d ac 56 fb 3d bb 1b 85 bd a2 de 0e bd
       0.05768494 0.12272391 -0.0649943 -0.034880288
000090 85 5f ab bc a9 ec fb bd 3d b1 42 bc b0 54 e3 bd
       -0.02091957 -0.12300999 -0.011883077 -0.11100137
0000a0 e5 82 00 be 82 80 a4 3d 73 a9 37 3b 9b 90 02 bd
       -0.12549932 0.080323234 0.0028024584 -0.031876188
0000b0 37 3c ff bd 14 e5 70 3d b8 b6 ab bd 34 38 90 3a
       -0.12462657 0.058812216 -0.0838446 0.0011003078
0000c0 ba 2b aa bd ca 7d bb bd a9 cd d3 3d a0 fe c8 bd
       -0.083091214 -0.09154852 0.10341961 -0.09814191
0000d0 c2 92 a1 3d 0b 7e 88 bd f7 6d 48 bd 25 b7 a1 3d
       0.0788932 -0.06664666 -0.048932996 0.0789626
0000e0 4c 28 c7 bd f7 a2 c3 bd 45 89 00 be 4b 54 94 bd
       -0.09724483 -0.095525675 -0.12552364 -0.0724264
0000f0 4a 18 34 bd 01 05 41 3d ce 36 70 3d 0d 8e bc 3d
       -0.043968476 0.047123913 0.058646016 0.092067815
000100 87 8f c4 bd 7d 64 d3 bc 66 06 be bc 74 d3 8e 3d
       -0.09597688 -0.025804752 -0.02319641 0.06973925
000110 2c 2d c8 3d c6 4f c4 bd c7 92 43 bc 57 9e f1 bd
       0.09774241 -0.09585528 -0.01193685 -0.11797779
000120 29 d5 e5 3d 58 3d 1f bd 3d 65 b2 3d 42 f8 8a 3d
       0.11222298 -0.03887686 0.08710716 0.06785633
000130 27 15 94 bd 0f 61 00 be e5 9a e9 bd ad 27 1c bd
       -0.07230597 -0.12537025 -0.11406497 -0.038123775
000140 d0 73 d3 bd c1 89 b3 bd 7a e3 82 bc c7 49 34 3d
       -0.10324824 -0.08766509 -0.01597761 0.044015672
000150 6a f9 f6 3d 72 56 d5 3d 14 f0 04 3c 85 2a 81 bc
       0.12059291 0.10416879 0.00811388 -0.015767345
000160 81 e4 8c 3b f0 d6 af 3d 10 16 6d 3d 8e 8e d7 3c
       0.0042997007 0.08585918 0.05788237 0.026313093
000170 25 9f 6f bd 96 33 c7 3c 54 99 9d bd 5f 44 1c 3d
       -0.05850138 0.02431659 -0.07695261 0.03815114
000180 16 2d 12 bb fc d7 cb 3d cd 44 fe 3d a9 31 92 bc
       -0.0022304705 0.09953305 0.124154665 -0.017845945
000190 b4 a3 04 bc 56 43 88 3d a1 da f0 3d 45 c8 ac bd
       -0.0080956705 0.06653468 0.1176045 -0.08436636
0001a0 e5 67 96 bd e8 c1 3c 3d d2 95 ca 3c 49 6e 9f 3c
       -0.07344035 0.04608336 0.024729643 0.019461768
0001b0 1a 96 8a bd a2 c4 fc bd 9f 92 54 bc 93 16 9f 3d
       -0.06766911 -0.12342192 -0.01297441 0.077679776
0001c0 10 c8 4c 3c cc f9 4b bd 2e 09 3c 3d af 7e 9a 3d
       0.0124988705 -0.04979877 0.045907192 0.07543694
0001d0 ab 27 96 bd 3e 92 db bb 18 bd 83 3d 54 61 54 bb
       -0.07331785 -0.006700783 0.06432551 -0.0032406645
0001e0 03 03 f0 bc 2e 38 81 3d 79 d0 cb 3d 42 3a 97 bd
       -0.029298311 0.063095436 0.099518724 -0.07384159
0001f0 65 61 e8 3b b5 15 cb bd 9b 25 a5 bd 36 02 ae 3d
       0.0070916885 -0.0991625 -0.08063813 0.084965155
000200 1b 58 bf 3d b2 60 00 3e 07 b4 b1 bd ec ae ad bd
       0.09342977 0.12536886 -0.086769156 -0.08480629
000210 22 2f a5 bd 63 a9 58 3c b6 f4 8a 3c 31 08 83 3c
       -0.080656305 0.013223979 0.01696239 0.015995117
000220 2a 3d aa bd 7f c2 8a bd 11 a2 e3 3c 51 c8 fd 3c
       -0.08312447 -0.067753784 0.02778724 0.030979307
000230 79 e4 28 3d e1 0a 27 3d 20 19 b5 3d 90 8e b2 3d
       0.041233514 0.04078186 0.08842683 0.08718598
000240 5f 7a 36 bd fc e8 fa bd 61 c9 3c bd 31 69 dc 3d
       -0.044550296 -0.122514695 -0.046090487 0.10762251
000250 d4 80 96 3d d7 f5 02 be 44 74 6d bd b7 d4 83 3d
       0.07348791 -0.12789093 -0.057972208 0.064370565
000260 4e 71 01 be cc 96 a9 3d 36 9a ad 3d 96 c0 99 3d
       -0.12640879 0.08280715 0.08476679 0.07507436
000270 0c 3d f4 3d 73 c2 aa bc bc 0e 7c bd 80 de 78 3d
       0.11925706 -0.020844674 -0.06153749 0.060759068
000280 c2 ba 8e bd f4 91 3f 3d c2 67 88 ba fe 39 c4 bd
       -0.06969215 0.04677005 -0.0010406899 -0.09581374
000290 91 1d c7 3d 57 a4 91 bd 28 74 e7 3d a7 a5 ac 3d
       0.09722436 -0.071114235 0.11301452 0.08430033
0002a0 da 6e a1 bc 15 6a f3 3c 52 ea e2 3d 2e 80 15 3d
       -0.019706178 0.02971367 0.11079849 0.036499195
0002b0 16 3a d4 bc 83 03 ad bc 69 87 fe bc ba 36 9f 3d
       -0.025906604 -0.021119839 -0.031070428 0.0777411
0002c0 05 d7 ff bd ba 3a f6 3d ad d1 ae 3d 67 7d 91 3d
       -0.124921836 0.1202292 0.08536086 0.07103997
0002d0 b4 51 bc bd 65 17 d9 bd b1 fb bd bd e2 af 32 3d
       -0.09195271 -0.10600165 -0.09276522 0.043624766
0002e0 d1 0d a6 bd 69 fa b3 3d 01 53 cf 3b a1 03 81 bc
       -0.08108104 0.08787996 0.0063270335 -0.0157488
0002f0 3f 39 df bd cd cd e4 bb 01 27 f2 bd c7 d0 9e 3d
       -0.10899591 -0.006982541 -0.11823846 0.07754665
000300 39 9f 4e bd 63 db 6c 3d f1 83 c5 3d da 1c d8 bd
       -0.050444815 0.05782641 0.096443065 -0.10552378
000310 59 f8 3a 3d 18 36 0d bd e1 eb fd 3d d3 23 92 bd
       0.045647 -0.034475416 0.12398506 -0.07135739
000320 0b 6d 3d bd c8 86 68 3d 2f 2b b5 3d 02 70 37 bd
       -0.04624657 0.056769162 0.08846127 -0.044784553
000330 57 cd 3b bb 18 1b 1a 3d 93 ec b8 bd eb 89 d5 bd
       -0.0028656328 0.037623495 -0.09029498 -0.104266964
000340 dc 5a 26 bb 21 fc bb bd 4f d5 9b bd 44 1f db bc
       -0.0025383746 -0.09178949 -0.07609045 -0.026748307
000350 92 09 12 bd 29 9e fc 3d 66 ff b4 3c 93 44 0b 3d
       -0.03565366 0.12334854 0.02209444 0.034000944
000360 77 9a a2 bd 92 24 ee bc 9b b6 ee 3d 37 00 75 bd
       -0.07939618 -0.029070172 0.11655923 -0.059814658
000370 a5 dd e6 3d 46 94 84 bd 4d 42 3c bc d3 02 2d 3d
       0.11272744 -0.064735934 -0.011490417 0.04223902
000380 d0 40 f2 3d 55 fa 63 3d e4 bf a6 3d 9d 16 9b bd
       0.11828768 0.055658657 0.08142069 -0.075726725
000390 d2 e1 a7 3d 0f 10 70 bd 6a 8c 0c bd 1a 76 ef 3d
       0.08197369 -0.058609065 -0.034313597 0.11692448
0003a0 bd d5 15 bd 53 b2 aa bd b7 c5 6f bd 6b 18 b4 bd
       -0.03658079 -0.08334794 -0.058538165 -0.0879372
0003b0 d5 e7 35 3d 51 14 c4 bd 91 57 99 bc db 14 92 3d
       0.044410545 -0.095741875 -0.018718513 0.07132884
0003c0 15 47 35 bd 47 dd e8 3d e9 a5 f5 bd c9 ae fa bd
       -0.044257242 0.1137033 -0.119945355 -0.12240369
0003d0 c4 17 24 3d cb 1f 88 3d 7f 00 0d 3d 68 7d ce 3c
       0.040061727 0.06646689 0.0344243 0.025206283
0003e0 95 da d1 bc 29 8a 84 bb ce dc f9 bd d2 bc 3b 3d
       -0.025616923 -0.0040447903 -0.12200318 0.04583437
0003f0 c4 58 75 bd 94 b0 cd bc 90 11 e3 bd c2 5f f4 3d
       -0.059899107 -0.025108613 -0.11087334 0.11932327

rnn.bias_ih_l0 f4 [183]
000000 45 47 fd bd 42 27 f2 bd e7 dc cd 3d 47 b0 67 3d
       -0.12367109 -0.11823894 0.100518994 0.056564596
000010 50 30 ca bd f6 e0 d3 3d bb c1 08 3e ed 21 b3 bd
       -0.09872496 0.10345642 0.13355152 -0.08746705
000020 5b 00 f2 bc 6d 65 d5 3d f9 48 bf 3d fd 9f c3 bd
       -0.029541185 0.10419736 0.0934009 -0.09552
000030 d3 99 ea 3d 9c 12 6f 3c 36 db a7 3c cb a0 0c 3d
       0.11455121 0.014591839 0.02049027 0.03433303
000040 86 cd 92 3d f1 dd d0 3d 4f 99 f5 3d 02 b4 d0 3d
       0.07168107 0.10198582 0.11992132 0.10190584
000050 1b ff f8 bd 31 8f 8a 3d 8b a8 e3 3d 77 bf 86 3d
       -0.121580325 0.06765593 0.111161314 0.06579488
000060 69 f5 de bb c4 61 d3 3c cd 46 53 bd db a1 20 3d
       -0.0068041575 0.025803454 -0.051581193 0.039216857
000070 0c 76 c6 3d fa 41 74 bd 15 85 1c 3d 76 9a a3 bd
       0.096904844 -0.059633233 0.038212854 -0.079884455
000080 91 cd 8b bd ae cf da 3d 28 60 e7 3d 19 e1 a2 3b
       -0.06826318 0.10684143 0.11297637 0.0049706814
000090 21 7d 61 bd 98 7f 09 bc e9 52 ad 3d 2a 90 ec bd
       -0.055050973 -0.008392237 0.084630795 -0.115509346
0000a0 3c 3a ce bd 52 86 35 bd cf 3b 35 3d 35 8d 78 bc
       -0.10069701 -0.04431755 0.04424649 -0.015170385
0000b0 63 6e 08 bd 84 cd d8 bd 9e d8 10 bc 12 31 dc bb
       -0.033308398 -0.10586074 -0.008840708 -0.006719717
0000c0 fa 50 91 3c f1 47 f2 3c e0 2f 84 3c 87 ed 2a bd
       0.017738808 0.02957532 0.01613611 -0.04173043
0000d0 8c f8 a0 3d ea 5b 9f bd 6c 87 23 bd 1b fd 14 bd
       0.078599066 -0.07781203 -0.03992407 -0.036374193
0000e0 bb 53 b8 bd 7a 9a 37 bd 74 cd ea bd e6 49 c7 bd
       -0.09000345 -0.044825055 -0.11464968 -0.09730892
0000f0 d2 55 c6 3d 80 e5 8b bd 00 d3 df b7 ac c5 b9 bc
       0.09684338 -0.06830883 -2.6681926e-05 -0.022677265
000100 6f 70 b8 bc 0c 4a 9b bc 50 70 9e bd 7d d4 84 bd
       -0.02251455 -0.018956207 -0.07736266 -0.064858414
000110 e7 46 23 bd c3 9f 98 bd 2a ac 85 bd 0a 2c 44 bd
       -0.03986254 -0.07452347 -0.06526978 -0.04789356
000120 cb 24 63 3d 0e 9a d7 bd a9 9b 1d 3d af ab 0a be
       0.05545501 -0.105274305 0.038478527 -0.13542055
000130 3e 11 00 3e d8 ac f4 bc 96 06 8d b9 30 62 8c bd
       0.12506577 -0.029867575 -0.00026898523 -0.06854665
000140 4d c6 a1 3d 32 7a 05 3d 1d 49 0a bd 06 28 dc bd
       0.07899151 0.032587238 -0.033761133 -0.10749821
000150 bf 40 c8 bd aa 0c ef bd 12 4d fd bb 1e 86 76 bd
       -0.09777974 -0.11672337 -0.0077301348 -0.060186498
000160 0c 39 88 bd 30 25 cb 3c 40 7d ce bd 7e fd 2b 3d
       -0.06651506 0.024798006 -0.10082483 0.041989796
000170 82 36 ea bd a1 68 cb 3d e9 1b d8 3d c5 79 0f 3d
       -0.11436178 0.09932066 0.105521984 0.035028238
000180 a6 d0 f9 bd dd 4b 0c 3d 61 dc ba bd ae 15 d0 3d
       -0.12198 0.034252036 -0.09124065 0.10160385
000190 c1 68 0a 3e 20 de 15 3a 8d 32 09 bd 6b 78 64 bd
       0.13516523 0.0005716998 -0.033495475 -0.055778902
0001a0 94 0b 7b 3d 2d 68 f2 bd 33 72 0d bd 02 3a 8b bd
       0.06129034 -0.11836276 -0.034532737 -0.067981735
0001b0 b6 01 6b 3d 38 2b 18 bd 5c 97 11 bd 71 57 59 3d
       0.05737468 -0.03715059 -0.03554474 0.053061906
0001c0 86 a3 88 bd 42 cf 4a bd b6 a4 84 3b 23 c3 13 bb
       -0.066718146 -0.049514063 0.0040479554 -0.002254673
0001d0 eb ad 84 bd fb 85 2a bd c9 df 99 bc e2 37 a2 bc
       -0.06478485 -0.04163168 -0.018783467 -0.019802038
0001e0 44 1a 93 3c 07 83 c3 bd ad 89 60 3d 38 9f 02 bd
       0.01795686 -0.09546476 0.054818798 -0.031890124
0001f0 2e 94 5e 3d d6 78 ec bc 45 71 26 bd 9d e8 05 3d
       0.054340534 -0.028866213 -0.040635366 0.03269254
000200 f0 6b fa bc a9 9b b9 bc b8 5f 3c bc 5b 97 05 3e
       -0.030569047 -0.022657232 -0.0114974305 0.13046019
000210 f8 74 49 bd 05 d6 5f bd 10 fa f4 bd a8 0b 5c bd
       -0.049183816 -0.054647464 -0.11961758 -0.053722054
000220 72 4f e4 bd 6a 0a 9a bc 6c 4c 15 bd 0b d3 8d 3d
       -0.111479655 -0.018803794 -0.036449835 0.06925019
000230 dc 8c fc bc 85 9a a1 bd fa cc 65 bd 66 8d d6 3d
       -0.030828886 -0.078908004 -0.056103684 0.10476188
000240 a4 63 40 3b 8a 92 63 3d 44 77 33 3d 34 7c 04 3c
       0.0029356265 0.055559672 0.043814912 0.008086253
000250 b6 c5 1d bb b6 a2 08 bd 8e 87 19 3d e7 a8 fd 3d
       -0.0024074144 -0.0333583 0.03748279 0.12385731
000260 d5 64 eb 3d d6 0e 96 bd ee 5d 80 3d 24 da dd bb
       0.114938416 -0.073270485 0.06267916 -0.006770389
000270 51 94 b6 3d 9e 45 b6 bd 89 79 8d 3d 9f ad 96 bc
       0.08915008 -0.08899997 0.069079466 -0.018393336
000280 cb 7e 07 bb 26 38 69 bc 53 04 3a bc 12 ed 10 3d
       -0.002067494 -0.014234578 -0.01135357 0.035382338
000290 7c d2 03 bd 94 34 9e 3b a7 c2 4c bd 17 95 d8 3d
       -0.032183155 0.004828045 -0.049990322 0.10575312
0002a0 e3 6b e2 bd 84 7e 42 bc 1e f1 ed bc 38 69 c0 bc
       -0.11055734 -0.011870984 -0.029045638 -0.023487672
0002b0 46 a7 96 bd fc a5 65 bd 64 59 aa 3b 00 35 c7 bd
       -0.073561236 -0.0560665 0.0051986445 -0.09726906
0002c0 aa d0 3d bd 52 1b 07 3c e4 3a f8 bd d4 65 4b bc
       -0.046341576 0.00824626 -0.121206075 -0.012414414
0002d0 b4 d0 04 3e cc 75 ca bb 0b a8 22 bb
       0.12970239 -0.0061785933 -0.00248194

rnn.bias_hh_l0 f4 [183]
000000 b8 22 d0 bd 18 4a e3 3a 8e 33 b4 3d 03 ea aa 3d
       -0.10162872 0.0017340807 0.08798896 0.083454154
000010 4c 50 4e bc d2 8d 89 3c d8 d0 f3 bd 31 4c 36 3c
       -0.012592386 0.016791258 -0.11905068 0.011126564
000020 cb 4e 62 bd 6f 2b 88 bd ba 93 45 bc 9e 96 b9 3d
       -0.055250924 -0.06648909 -0.012059147 0.09061931
000030 df 0a 1d bd a3 87 0a bc f1 65 8e 3c e8 f3 98 3d
       -0.038340446 -0.00845519 0.017382594 0.074683964
000040 6a 4f ba bd 20 4b f2 bd 98 2b 10 bd 82 16 e8 3d
       -0.09097178 -0.11830735 -0.035197824 0.11332418
000050 c9 e6 59 3d 63 85 e1 3c 04 06 c2 3d 9a fc d3 ba
       0.05319861 0.027529424 0.09473804 -0.0016173304
000060 25 8f be bd 13 2b e4 bd ae 77 6e 3d ff 45 1c bd
       -0.093046464 -0.11141028 0.058219604 -0.03815269
000070 e3 9e 74 3d b1 25 0c 3d 3f 78 f5 bd 16 2a f1 3d
       0.05972184 0.034215633 -0.11985826 0.117756054
000080 82 f9 4b 3d cd 33 7b 3d 2d 00 12 bd 02 ef 33 3d
       0.049798496 0.061328698 -0.0356447 0.043929107
000090 45 ff b7 3d 93 f5 2e 3d 00 56 92 3d d0 88 ce 3d
       0.08984236 0.042714667 0.071453094 0.10084689
0000a0 d2 c9 da bd 94 01 7d 3d f7 c0 3d 3d 48 4c e3 bc
       -0.106830254 0.061769083 0.046326604 -0.027746335
0000b0 5b 0c a6 3d 3c 16 0d 3d 1b ec e9 bd 2d 70 8b 3d
       0.08107825 0.034445032 -0.11421987 0.06808505
0000c0 af f4 ed 3d d5 ed 70 bc 27 9f 46 bd cd dd 64 3d
       0.11618935 -0.014705141 -0.048491623 0.05587559
0000d0 d4 5d f5 3d df b5 a6 3d b3 48 fa bc b8 67 c8 bd
       0.11980787 0.08140158 -0.030552244 -0.09785408
0000e0 4d ee 0e 3d 78 bb 9d bd 18 4c e4 3d 6c e1 d5 3d
       0.03489523 -0.077017725 0.11147326 0.104433864
0000f0 da b3 7d bd b2 fa b0 3d df 1d 08 3c 37 68 98 3d
       -0.061939098 0.08641566 0.008307903 0.074417524
000100 c4 65 6d bc ac e8 58 3d 80 71 f1 3b ec 68 5c 3d
       -0.014489595 0.05295627 0.0073682666 0.053811
000110 eb 02 43 3d 5b ab c1 3d 5f c8 00 be 6a 9a 56 ba
       0.047610205 0.094565116 -0.12576436 -0.00081864616
000120 ac 64 5f bd 6a ba 2c 3d d4 78 56 3d 8e da 6e 3d
       -0.054539368 0.042169966 0.052361324 0.0583139
000130 a6 4d 90 3d 90 89 a8 bc 28 77 90 3d 4e 82 33 bd
       0.0704606 -0.020573407 0.07053977 -0.04382544
000140 e4 d0 9c bb ba 4f fa 3d 02 42 07 3e dd 7d bf bd
       -0.004785644 0.12222238 0.13208774 -0.093501784
000150 93 01 f4 bc ad e8 94 3d 62 8c 6b bd e2 72 e9 3d
       -0.029785907 0.07270942 -0.057506926 0.11398865
000160 f7 e2 d0 3d 0d 41 4f bd 4c 84 d2 bd 86 6e 66 3d
       0.1019954 -0.050599147 -0.1027914 0.056257747
000170 b6 f6 a0 bd c9 2d 42 bd 00 bd d5 bd 1e 33 15 bc
       -0.078595564 -0.047406945 -0.104364395 -0.009106426
000180 bc b6 01 3c b8 98 9a 3d fc f3 ae 3c f5 aa 33 3d
       0.007917102 0.0754866 0.021356575 0.04386421
000190 7a 11 c7 3d e8 c1 2d 3d 87 e0 e6 3d a5 2a b4 bd
       0.0972013 0.04242125 0.11273294 -0.08797196
0001a0 d8 67 b6 3d e0 7b be bd 0f 4d 74 3c ec 29 cd bc
       0.089065254 -0.09300971 0.01491095 -0.025044404
0001b0 7c 4b 22 3d dd 7e cc 3c 77 0b 02 be be 3a 8e 3d
       0.03962277 0.024962837 -0.12699686 0.06944798
0001c0 58 f1 07 bd 80 cc fd bd c6 c9 6f 3c f2 f8 52 bd
       -0.033189148 -0.12392521 0.014635509 -0.051506944
0001d0 08 69 cb 3d 92 fa e4 bc 46 b3 6c 3c c8 37 94 3c
       0.099321425 -0.027951512 0.014447039 0.018093005
0001e0 cc 14 47 bd de a1 e2 bd 57 ef d0 3d 75 38 00 3d
       -0.048603818 -0.1106603 0.102019005 0.03130384
0001f0 b2 b4 7a 3d b6 5e 81 3d 05 83 cc 3d b0 76 d6 bb
       0.06120748 0.06316893 0.099859275 -0.0065449104
000200 c8 41 ec 3d 8e ac 68 3c 0c 09 59 3d 24 f8 8b bd
       0.11535984 0.0142012965 0.052987143 -0.068344384
000210 61 64 e2 bc b9 c5 be 3d 5c d3 94 3d 25 38 d9 3d
       -0.027635755 0.09315056 0.07266876 0.10606412
000220 a7 c5 87 3b a3 10 ed 3d 8c e4 65 bd 0a 6b 16 3d
       0.004143435 0.11575439 -0.056126162 0.036723174
000230 88 09 02 3e 09 98 0a 3d 34 bb da 3a ae 34 bf 3b
       0.12698948 0.0338364 0.0016687871 0.0058351373
000240 d4 94 d8 bd af e1 7a bc 17 ff 01 3e 58 80 a1 3c
       -0.10575262 -0.015312596 0.12694965 0.01971452
000250 59 f1 cb bd f5 a5 ec bc 2d 6f 83 3d bb 41 75 3c
       -0.09958143 -0.028887728 0.064176895 0.014969285
000260 7a ee 88 bd a9 0b 40 bd 24 3b 45 bd 00 ab fb bd
       -0.06686111 -0.04688612 -0.048152104 -0.12288475
000270 a5 95 0a be 37 ab 3b 3d 5c e0 81 bd cb 6b de bd
       -0.13533647 0.04581758 -0.06341621 -0.108604036
000280 a4 5a 2c bd a6 6b 36 3d 0f ba d7 bd e2 30 08 be
       -0.04207863 0.044536255 -0.10533535 -0.13299897
000290 ad 3a 31 bd 3b d9 d5 3d 62 df 14 3d a5 c4 30 bd
       -0.04326885 0.10441824 0.036345847 -0.043156285
0002a0 dc 05 1c bc 12 88 05 3d 9c a4 b9 3c c5 77 04 3e
       -0.009522881 0.03260047 0.0226615 0.12936313
0002b0 e6 8c 5d bd b4 bb 53 3d fe 1d a6 bc 78 c9 06 3d
       -0.05408945 0.05169268 -0.020277973 0.03290698
0002c0 8d 31 b2 bd 1e 0e 50 3d 7e d1 6d 3d a7 ba a6 bd
       -0.08700857 0.050794713 0.058061115 -0.0814107
0002d0 b6 28 9a 3d ab d7 eb bd 18 12 05 3e
       0.07527296 -0.11515745 0.12995183

cnn.weight f4 [128, 61, 5]
000000 f3 8a e0 bc e7 33 a8 3c 58 58 dd 3c 8f 40 be bc
       -0.027410006 0.020532561 0.027019665 -0.023224143
000010 76 d8 04 3d 6c 20 4b 3d aa 83 f4 3a 14 48 30 bc
       0.032432996 0.049591467 0.0018654962 -0.010759372
000020 51 53 c7 3b 5e 84 9e 3c 98 60 12 3d e5 dd 61 3d
       0.00608293 0.019350227 0.03573665 0.055143256
000030 08 a7 74 3b 27 59 08 3d cd c9 45 bd 43 81 c6 3c
       0.0037331004 0.033288147 -0.048288155 0.024231559
000040 21 28 58 bd e8 ae b9 bc fe 49 67 bd 43 1b 61 3d
       -0.052772645 -0.02266641 -0.05646705 0.05495764
000050 c4 00 9c 3c de 6c ce 3a 8c 46 4a bb b0 bf 40 bd
       0.019043334 0.0015748998 -0.0030864803 -0.047057807
000060 e3 7f bc bc 23 ad e4 3b 79 f0 ee 3c c9 c6 c3 bc
       -0.0230102 0.0069786473 0.0291674 -0.0238985
000070 8c f1 ca 3a 1f 3e 58 bb e0 8b 27 3d 23 2b 77 bc
       0.0015483364 -0.0032996011 0.04090488 -0.015085968
000080 65 6b 2c 3c 16 d3 66 3d 73 2a 22 bd 18 ba 88 ba
       0.010523652 0.05635365 -0.039591264 -0.0010431437
000090 5a 90 fc bc aa 69 21 bd cb 0c 8c bb 9c 82 10 bd
       -0.030830551 -0.03940741 -0.004273986 -0.03528081
0000a0 01 d2 36 bc 5b b8 e1 3c cf d7 55 bd 04 7c 45 bd
       -0.011158467 0.027553728 -0.052207764 -0.048213974
0000b0 7f b1 14 bd 1a ce 06 3b 8a f0 a7 3c 69 47 8f bc
       -0.036302086 0.0020569623 0.02050044 -0.017490106
0000c0 a9 f9 b7 3b 2c 1e 86 bc c8 28 a6 ba ec 60 26 bd
       0.0056144786 -0.016371809 -0.0012676949 -0.040619776
0000d0 cb 9b 44 bc 7b 77 82 3c ff 80 48 bd 7c d2 07 3d
       -0.012000035 0.015926113 -0.048951145 0.033159718
0000e0 81 97 52 3d ea c6 c1 bb 9d f1 74 3c c4 58 2c bd
       0.051414017 -0.005913605 0.014950183 -0.04207684
0000f0 80 91 fe 3c 14 83 39 ba 24 1b bb 3b 4e 3c ef bc
       0.03107524 -0.0007076722 0.0057100225 -0.02920356
000100 8b 3c 0d bd 56 9d 0e bd ec a2 2f 3c 04 cf 5a bd
       -0.034481566 -0.034818016 0.010719996 -0.05342008
000110 48 1d 8a bc 6a d6 c9 bc aa 1d 4c bd 07 97 a8 3c
       -0.016859666 -0.024638373 -0.049832977 0.020579828
000120 33 38 cc 3c 43 88 88 3c 0a ac 84 bc 1a 7a a5 3b
       0.024929142 0.016666537 -0.016195316 0.005049956
000130 60 8a 9e 3c e4 71 97 3b 40 eb 45 3d 5a 5a 92 bb
       0.019353092 0.004621731 0.048320055 -0.004466337
000140 e3 f9 2e 3d 8c 51 3d bd 42 82 1b bd a1 72 57 3d
       0.04271878 -0.046220347 -0.03796602 0.052599553
000150 dc 28 f5 bc 22 48 0f bc 4c 70 26 3d 9d de 61 3d
       -0.02992671 -0.008745225 0.04063444 0.05514394
000160 ef 54 56 3d b8 68 5b 3d 4a 10 52 bd bc 69 3e bd
       0.052327093 0.053566664 -0.051285066 -0.046487555
000170 ff 04 1e bb 39 fc 5f 3d c0 40 d6 bb 74 a1 87 bb
       -0.0024111865 0.054683898 -0.0065384805 -0.0041391198
000180 c8 9c 63 bc f2 7c 3a bb 12 01 06 3d 44 ad 74 bb
       -0.01389236 -0.002845582 0.032715864 -0.003733472
000190 16 5a 65 3d d5 ad 41 3c bb ae 70 3d 0b 6f cc bc
       0.055994116 0.01182123 0.058760386 -0.024955293
0001a0 1b cc a5 3c 01 8e 28 bd 09 f4 af bc e9 0b 19 bd
       0.020238927 -0.04115105 -0.02147867 -0.037364874
0001b0 ba 5b 3a 3d 66 33 d9 bc c1 19 02 bd 0d 61 56 bd
       0.045497634 -0.026513766 -0.031762842 -0.05233865
0001c0 9c 38 22 bd 22 3e 1e bd 13 3a 88 3d 5b 94 77 3c
       -0.03960477 -0.038633473 0.06651702 0.015111054
0001d0 31 9c 6a bd c5 d7 48 bc 88 66 cb bb 4e 92 b9 3c
       -0.057277862 -0.012258475 -0.006207291 0.022652771
0001e0 e1 45 27 3d 17 05 64 bc 79 40 b3 3c 64 08 3f bd
       0.040838126 -0.013917229 0.021881329 -0.04663886
0001f0 6b 1f 63 bd d3 00 6a 3d 86 ff c3 bc 22 a8 f9 3b
       -0.055449884 0.057129692 -0.023925554 0.00761892
000200 76 f9 ab 3c a8 b0 9e 3c 29 33 22 3d 34 e7 e4 bc
       0.020992976 0.019371346 0.03959957 -0.027942277
000210 59 b0 9f bc ce 25 91 bc 3f 17 01 bd 9e b8 04 3d
       -0.019493269 -0.017718222 -0.03151631 0.032402627
000220 9f 32 4c bd f8 a1 a1 3b a0 59 48 3d 71 ac f4 3c
       -0.049852964 0.0049326383 0.048913598 0.029867383
000230 88 ec 1b 3c 85 12 58 bd 0f 09 83 bc 1a 63 3f bd
       0.009516843 -0.052752037 -0.01599553 -0.04672537
000240 cd da b2 3c fe 6a 6a 3b c1 b4 7c 3c 05 89 33 bd
       0.021832848 0.0035769339 0.015423954 -0.043831844
000250 df 1d ee bc de ab 4a 3d f7 6c b3 bc bc 7a 67 bc
       -0.029066978 0.04948031 -0.021902544 -0.014128383
000260 1e 57 1c 3c ad 43 18 bd 6e 49 51 3c 46 2b e9 bc
       0.009542255 -0.037173916 0.012773855 -0.028463017
000270 a8 22 6b bd cb 77 54 3d fd 79 bc 3b c5 95 b2 3c
       -0.057406098 0.051872056 0.005751847 0.021799931
000280 92 9b f4 3b e3 22 0d bd 3e 3e 5d 3d d3 be 5c 3d
       0.0074648345 -0.0344571 0.054014437 0.05389292
000290 e6 be 41 bb f2 6d d9 bc b8 5f 17 bd a7 87 be 3c
       -0.0029563247 -0.026541684 -0.03695652 0.023258043
0002a0 0c fe 6e bd cb e9 83 3c 49 86 0b 3d fe ed ce 3c
       -0.058347747 0.016102692 0.03406361 0.025259968
0002b0 40 0e 59 3d 09 30 7f 3d 4a 48 4b 3b 4c ca b2 bc
       0.052992105 0.06230167 0.003101843 -0.021824978
0002c0 9c d9 a5 3a 93 f1 bf 3b 4f 27 b3 bc ca 4a 38 3d
       0.0012653354 0.0058576553 -0.02186933 0.0449932
0002d0 dd 5b bb bc 93 1e 24 bd 8d 70 89 bc 1c 3b 96 bc
       -0.022870952 -0.04006822 -0.016777301 -0.018338732
0002e0 6f 5e 3e bc 76 42 1d bd 72 1e 29 3d 2c a5 46 bd
       -0.011619194 -0.03839346 0.0412888 -0.048497364
0002f0 3f 03 82 3c 35 b1 20 3d 46 08 41 3d 94 c1 23 ba
       0.015870688 0.039231498 0.04712703 -0.0006246802
000300 36 03 a0 3c 1a 89 a8 3c bc 8e 82 3b 90 d5 19 3c
       0.019532781 0.020573188 0.0039843004 0.009389296
000310 78 32 0f bc 0c 31 cf 3b 0a 0d 10 bd 97 10 1b bd
       -0.00874006 0.0063229855 -0.035168685 -0.03785762
000320 6a 10 01 3d c3 f1 dc bc a0 ea 5e 3d ab d0 04 bd
       0.031509794 -0.02697075 0.054422975 -0.032425564
000330 42 92 ce 3c 9c e2 01 3d b8 aa 12 3d 37 9f 8d bc
       0.025216226 0.031710252 0.03580734 -0.017287834
000340 18 7d b3 3c c8 5c 7e 3d 9c 11 88 3b 66 36 34 3d
       0.021910235 0.0621002 0.00415249 0.04399719
000350 02 0f 53 3d 6f 3e 3f 3d aa 5c 6f bd 5a 1a 13 bb
       0.051527984 0.0466904 -0.05843798 -0.0022446127
000360 31 ff cc 3c 5d 47 78 3d 9f 2e c2 3c bd a2 38 bd
       0.025024028 0.060614932 0.023703871 -0.045077074
000370 1b dc c9 bc 2f 20 42 bd a1 dc 45 bd db 59 81 3c
       -0.024641087 -0.047393974 -0.04830611 0.015789917
000380 fd b2 87 3c f4 eb 0e bc 1d bf 52 3d 1f c3 3b bd
       0.01656484 -0.008723248 0.05145179 -0.04584038
000390 76 e1 2c 3d 16 44 67 bc c2 95 66 3c 8f 53 a4 bc
       0.042207204 -0.014115354 0.014073791 -0.020059375
0003a0 01 b2 ea bc 71 25 2d 3d 79 76 53 bd f8 db d6 bc
       -0.028649332 0.042272035 -0.051626656 -0.026227936
0003b0 2d 4f 46 3d 9a d6 66 3d ed 4c d7 bc 8d 6a 31 bd
       0.04841535 0.056357004 -0.026281798 -0.043314505
0003c0 92 af 8f 3c af 1a 28 3d 9f d1 c7 3c 46 c9 82 bc
       0.017539773 0.041041072 0.024391947 -0.015965115
0003d0 39 0f 36 3d c1 31 55 3d 12 2c 65 bc bf f4 2f 3d
       0.04444811 0.052049402 -0.013987558 0.042958017
0003e0 19 8b 1e 3d d2 4a 17 bb f2 ba 9c bc cc a1 3c bb
       0.038706873 -0.0023085368 -0.019132111 -0.0028782962
0003f0 a4 2c 5d bd 40 05 a0 3c 7b c1 a8 3c 56 a3 8b bc
       -0.05399765 0.019533753 0.020600071 -0.017045658

cnn.bias f4 [128]
000000 4c ab 17 3c 87 32 65 3b ca 7b 59 bd f6 38 36 3d
       0.009257149 0.0034972744 -0.05309657 0.044487916
000010 6c ec 63 3b f0 1d bf bc 8b d5 49 3d e2 d4 28 3d
       0.003477837 -0.023329705 0.049275916 0.041218646
000020 4b 57 18 3d fe b0 da bb 3b 71 0e 3d c7 22 11 3d
       0.037192624 -0.006673931 0.034775954 0.035433557
000030 74 73 c4 3c 4e 89 7e bd 88 9d ce bc fc f9 31 bd
       0.023980834 -0.062142663 -0.025221601 -0.043451294
000040 09 27 bd 3c 50 72 e4 bc 0e eb 0a 3d 23 eb 41 3d
       0.023089902 -0.02788654 0.033915572 0.047343384
000050 75 31 34 3d e7 5d 94 3c ee c8 53 3d db bb c2 bc
       0.04399248 0.018111182 0.051705293 -0.023771217
000060 28 d1 30 3d 5d 50 c7 3c 15 ab 6a 3d ac db 10 3d
       0.043168217 0.024330312 0.057292063 0.035365745
000070 09 2e 87 bb 68 ad 1d bd 6c 90 0e 3d 4a 26 b7 bc
       -0.004125361 -0.03849545 0.0348057 -0.022357125
000080 3f f0 6f bd 00 fb af bb af 3f 81 bc e0 c0 96 bc
       -0.058578726 -0.0053704977 -0.015777437 -0.018402517
000090 d4 07 83 bb c2 a7 02 bb b3 89 51 bd 93 5b c0 bc
       -0.003998736 -0.0019936417 -0.05115671 -0.023481166
0000a0 56 fe 3f bb 47 fa 60 bd ac 4a d3 bc 44 a0 ce bb
       -0.0029295883 -0.054926183 -0.025792442 -0.0063057262
0000b0 70 d7 cb bb fe 90 2f 3d e2 b4 12 bd 6a 8c 6f bc
       -0.0062207505 0.042862885 -0.035817035 -0.01462088
0000c0 53 8f 53 bd de 8b 67 bc 10 52 0b bd 5d 1e 3e bd
       -0.051650357 -0.014132468 -0.034013808 -0.046415675
0000d0 9c df 33 3c ce cd d5 3c 20 f1 6d 3d d4 91 b2 bc
       0.010978606 0.026099112 0.058091283 -0.021798052
0000e0 b7 a3 3e 3d b0 41 ad 3c 0f c5 26 bc 3e 51 c3 3c
       0.04654285 0.021149486 -0.010178818 0.02384245
0000f0 c0 b9 07 3d a6 98 52 3d c1 1e 5f 3d 0e d9 51 3c
       0.03313613 0.05141511 0.05447269 0.0128080975
000100 82 9e ef 3c f2 ce 84 bd 38 23 1b bd cc 79 3b 3c
       0.029250387 -0.06484784 -0.037875384 0.011442613
000110 b2 08 c8 3c 60 27 36 bd 2b 20 cc 3c 68 42 9b 3c
       0.024418209 -0.044471145 0.024917683 0.018952563
000120 8e e7 96 bc 3b d9 3d bd 23 02 4d 3d ba 27 b0 3b
       -0.01842096 -0.046349745 0.050050866 0.0053758295
000130 dc 69 dc bc 86 29 99 bc 0b 94 fa 3c bb 33 4c bd
       -0.026905946 -0.018696558 0.03058817 -0.04985402
000140 9f f9 18 3d 35 2d 04 bc 3b c8 67 3d 0b f9 94 3c
       0.037347432 -0.008067419 0.05658744 0.01818516
000150 b2 51 70 3d 08 7e 50 3d 70 27 c6 3c 55 3a d5 3c
       0.05867166 0.050901443 0.024188727 0.026028791
000160 b3 63 cc bc c0 a7 74 3c ee 4c 84 bc c8 c5 27 bd
       -0.024949884 0.014932573 -0.016149964 -0.040960103
000170 6a e5 20 bd 61 c3 e6 3c 9a 95 17 3d cf 06 0c 3d
       -0.039281286 0.028169336 0.037007906 0.03418618
000180 7c c5 10 bc 8d bd 7c bd ac 8c 59 bd 5f 71 9a bc
       -0.008836146 -0.061704207 -0.05311267 -0.018852888
000190 f4 2b 73 3d 7a ab da bb 4b a1 2d bd de 81 0c 3d
       0.05936809 -0.0066732736 -0.04239015 0.03430354
0001a0 c6 71 d9 bc 5a 2f ee 3b fa 93 42 3d 92 90 42 3d
       -0.02654351 0.0072688283 0.047504403 0.047501154
0001b0 fb ef df bb 94 78 c4 3c 30 f3 03 ba 02 c7 f6 3c
       -0.006834028 0.023983277 -0.0005033491 0.030124191
0001c0 a3 11 27 3d 60 c0 52 ba bf a9 66 3d 37 cc d4 bc
       0.040788304 -0.00080395304 0.056314226 -0.025976283
0001d0 26 94 32 3d 16 3c 00 bd 14 b6 3a 3d e4 c0 e5 3c
       0.043598317 -0.031307302 0.0455838 0.028046079
0001e0 74 79 f1 ba 9f 02 0e 3d 83 6d a2 bc e4 87 3d bd
       -0.0018423037 0.03467047 -0.01982761 -0.046272174
0001f0 67 c2 ef 3c 18 41 a3 bc 50 6e 0b bd a4 22 fe 3c
       0.029267503 -0.0199285 -0.03404075 0.031022377

linear.weight f4 [64, 128]
000000 f0 6a 92 bd 72 d7 34 3c 68 95 b5 39 de 72 13 bc
       -0.07149303 0.011037694 0.00034634327 -0.008999554
000010 37 28 8d bd 87 15 b9 3c 4e 0a 23 3c 23 b6 6f bd
       -0.06892436 0.022593273 0.009951187 -0.05852331
000020 87 1c 1a 3d e9 b7 20 3d 5e 88 f6 bc 60 fb 0f 3d
       0.037624862 0.03923789 -0.030094322 0.03515184
000030 c3 9c 13 3d 4a 36 6b bd 3b bf b3 bd a0 94 04 bd
       0.03603817 -0.05742482 -0.08776709 -0.032368302
000040 21 22 68 bd d7 82 81 bd 45 71 44 bd 59 1d a1 3d
       -0.056673173 -0.06323784 -0.047959585 0.07866926
000050 e1 d7 04 3c c6 2d a8 3d 3c 44 85 bd 6c 5f 47 bc
       0.00810811 0.082118556 -0.06507155 -0.012168746
000060 c8 94 85 3d 1c f4 c5 3c 55 59 98 bd 19 30 fd bc
       0.065225184 0.024164252 -0.07438914 -0.030906724
000070 fb 9a 03 3c 39 9c 9a bc d0 13 3f 3d 56 14 8a bd
       0.008032556 -0.01887332 0.046649754 -0.0674216
000080 33 af 68 bc 86 e5 b1 bc 56 d6 fd bc ec 01 4a 3d
       -0.014201927 -0.02171589 -0.030985992 0.04931824
000090 1b 7d 24 3c e4 5f 74 3c 31 54 8c bc b2 eb 36 bd
       0.010039593 0.01491544 -0.01712999 -0.04465837
0000a0 21 aa 2e 3d 1e 04 09 bd 9c 15 77 3d f8 6c 9f 3c
       0.042642716 -0.033451192 0.060323343 0.01946114
0000b0 74 03 35 3d de cb 7b 3d e5 fd 27 bd 2b e9 c2 bc
       0.044192746 0.06147372 -0.041013617 -0.023792824
0000c0 d3 db 3f bd 51 2f 99 bd 24 91 4b 3d 42 0f aa bd
       -0.0468405 -0.07479728 0.049698964 -0.083036914
0000d0 69 03 97 3d 9f eb 77 bd 40 b9 5f bd 15 ad 18 3d
       0.07373697 -0.06052744 -0.054620028 0.03727444
0000e0 85 4c a5 3c 67 1b 8c bd 24 18 32 3d 64 c9 f6 3c
       0.020178089 -0.06841164 0.043480054 0.030125327
0000f0 48 76 99 bc 78 c6 ec b9 62 9c b1 bd 10 4d d9 3b
       -0.018733159 -0.00045161298 -0.08672406 0.006631501
000100 06 51 e0 bb b4 64 b3 bd 17 2f 78 3d 08 56 90 bd
       -0.0068455962 -0.08759442 0.060591783 -0.07047659
000110 d6 bc 1f bd 5b 02 a3 3d d6 50 98 bd 2e 7f c5 bc
       -0.038998447 0.07959434 -0.07437293 -0.024108496
000120 84 f3 a1 3d a7 dc 93 3c 7e ef 17 3d 4f 27 46 3c
       0.07907775 0.018049551 0.037093632 0.012094333
000130 52 9b 68 bd e1 cc 83 3d 72 81 8c 3d 2b ed 0a 3d
       -0.05678875 0.06435562 0.06860627 0.033917587
000140 03 74 ab bd dc 39 cb bc 02 7f e2 3a 0b 70 57 3d
       -0.08371737 -0.024807863 0.0017280283 0.052597087
000150 25 63 07 3d 20 5c 6b bd b8 c4 06 bb 33 b6 0f 3d
       0.033053536 -0.057460904 -0.002056403 0.035085868
000160 7b ea 9b bb 34 22 70 3d 28 35 9b 3c 05 49 21 3d
       -0.004758177 0.05862637 0.018946245 0.039376277
000170 a9 19 e7 bc 50 45 87 bc 26 80 47 3d e3 ee 69 3d
       -0.028210478 -0.016512543 0.048706196 0.057112586
000180 38 da 32 3d 2d ae f6 ba 82 34 9c bc c2 e4 fe 3c
       0.04366514 -0.0018820219 -0.019068006 0.03111494
000190 3d 46 8d bd 96 75 a6 3d a0 4a 8d bd 58 86 5f bd
       -0.068981625 0.081278965 -0.06898999 -0.05457148
0001a0 24 e9 d5 ba 7f de 28 3c 33 40 50 bc c6 0b 9b bd
       -0.0016320092 0.010306953 -0.012710619 -0.07570605
0001b0 6e 60 ab 3c 20 21 ad bd f3 2b 94 3d 0d 94 29 3d
       0.020920005 -0.08453584 0.07234945 0.041400958
0001c0 70 23 f7 3b f6 84 34 bb dd 93 bc 3c de a8 0f bd
       0.0075420663 -0.0027545071 0.023019725 -0.035073154
0001d0 33 da 10 bd c5 15 0d bb d0 94 30 bd 7b 05 7c bd
       -0.03536434 -0.0021527868 -0.04311067 -0.061528664
0001e0 fa 02 9e bd 05 03 8a 3b 4f 43 66 bd 88 05 9a 3d
       -0.077154115 0.0042117857 -0.056216534 0.07520586
0001f0 ab 7e 9e 3d 9f 27 41 3d 12 ab 8f 3d a2 ee 42 3d
       0.07739004 0.047156926 0.07015051 0.04759086
000200 32 b6 90 bd de 38 02 bd 53 76 d2 bb 85 66 8a 3b
       -0.07066001 -0.031792514 -0.0064227968 0.004223647
000210 2f bb 8c bd 02 46 84 3d 45 7f 68 bd f6 05 5f 3d
       -0.0687164 0.064586654 -0.056762 0.054449044
000220 95 38 44 bd ac e1 40 bd 7e 09 81 bd d3 dd 81 3d
       -0.047905523 -0.047090217 -0.063006386 0.06341138
000230 78 ea 97 bc 2e 01 0b 3d bc 2a 34 bd 56 90 d7 bc
       -0.01854442 0.033936672 -0.043986067 -0.026313942
000240 ce 2d 99 3d 35 b3 83 bd 96 02 bc bc 3e a9 80 bd
       0.0747944 -0.064306654 -0.022950452 -0.062822804
000250 c2 77 e2 3c 82 3e 60 bd 5e c9 7d 3d 47 f8 04 3d
       0.027644996 -0.054747112 0.061959617 0.03246334
000260 2e f8 b1 bb 84 09 93 3b 5a f1 69 bc 95 99 4a 3d
       -0.0054311967 0.0044872183 -0.014278734 0.049462873
000270 f2 4c 9c 3b 5e a5 63 bb 10 54 a0 3d 5d 11 0b bd
       0.004769915 -0.0034736018 0.07828534 -0.033952106
000280 06 6a 3a bd ea fc 94 bb 48 7c ee bb 71 b3 a6 3d
       -0.045511268 -0.0045467513 -0.007277999 0.081396945
000290 61 bb 46 3d fb 31 8a bd 65 96 a2 3b ec 35 49 bd
       0.048518542 -0.06747814 0.004961776 -0.04912369
0002a0 dd e6 97 bd 28 07 75 3d a4 21 8d bd 86 5a fe 3a
       -0.074170806 0.059821278 -0.06891182 0.001940564
0002b0 b1 6f 64 bc 44 75 bb bb a9 ff 38 bd b8 44 68 bd
       -0.013942645 -0.0057207663 -0.04516569 -0.05670616
0002c0 4e b1 7b bd 37 05 8e 3d ee 3b 83 bd 88 b1 bd bb
       -0.061448388 0.069345884 -0.06407915 -0.0057889856
0002d0 1a 7d d6 bc a2 f1 8b 3d ce f3 cc 3c c6 8a 8d 3d
       -0.0261827 0.06833197 0.025018599 0.069112346
0002e0 7e 96 dc 3a 0e 8f 2d 3d a3 23 c4 3d 68 ca ae b9
       0.0016829518 0.042372756 0.0957711 -0.0003333867
0002f0 97 53 47 3c 34 05 97 3c ae be 39 3d d5 d6 5b 3c
       0.012165925 0.018435098 0.045347862 0.013417919
000300 79 e4 94 3c 4c 5c 8d bd 3f 11 8b bc 4a 3f 9f 3c
       0.01817535 -0.0690237 -0.016975997 0.019439358
000310 d2 87 1b 3d 9a 69 60 bd 40 bf 5c b9 10 ac a0 bd
       0.037971325 -0.05478821 -0.00021052081 -0.07845318
000320 1d ed 58 bd b0 c3 81 bd 45 35 44 bd 88 50 1a 3d
       -0.052960504 -0.063361526 -0.047902364 0.037674457
000330 be 04 9b bc c3 49 9f bd 90 49 42 3d c8 98 2e bd
       -0.01892316 -0.07777741 0.047433436 -0.042626172
000340 56 33 92 bd 5f 96 a5 3d de 35 dd 3c 57 7a 26 bd
       -0.07138698 0.08085322 0.027003225 -0.040644016
000350 e1 08 b4 bd 25 c1 b7 bd 45 cb 48 bd 5a fd b8 bc
       -0.08790756 -0.08972386 -0.049021978 -0.022581745
000360 a2 2b ee 3b b0 cf b9 3d 6d 20 a3 bc 55 ea 70 bd
       0.007268385 0.09072816 -0.019912923 -0.058817226
000370 06 2e 6d 3d 04 8c 6c bd 8e 37 21 bd 50 5f a3 3d
       0.05790522 -0.057750717 -0.03935962 0.07977164
000380 8f 96 01 3d 56 2e fc bb 0e cc f6 3c 02 57 87 bd
       0.031637724 -0.0076959534 0.030126598 -0.06608392
000390 48 09 e3 3b b3 9c a4 3c 0f b8 15 bc fe 40 9b bc
       0.0069285966 0.020094251 -0.009138121 -0.01895189
0003a0 43 8a b5 3d 27 52 9c bd 27 e0 0d bd 7e fd 21 bb
       0.08864262 -0.07632857 -0.034637596 -0.0024717744
0003b0 a2 29 56 3d 2d 50 c2 bd 75 74 8b bd bb 1f 97 3d
       0.052285798 -0.094879486 -0.06809322 0.07379099
0003c0 b1 9c 51 3d 3d a7 8a 3d b4 d1 53 3d 00 d9 de bb
       0.051174823 0.067701794 0.05171366 -0.0068007708
0003d0 6b 88 a2 bc 00 3f c2 bd da 1b a6 bd e3 d2 7d 3d
       -0.01984044 -0.094846725 -0.08110781 0.061968695
0003e0 5e 91 8b 3d 50 8d 8d b9 c3 39 9b 3d 80 bf aa 3d
       0.06814836 -0.00026998902 0.075793765 0.08337307
0003f0 a7 04 41 3d f5 73 3f bd 26 ac 59 3d 18 60 4c 3d
       0.047123577 -0.046741445 0.05314269 0.04989633

linear.bias f4 [64]
000000 53 8a 3c bd 9b 61 9c bd 4e 21 9c 3d 50 1a 9f bd
       -0.046030354 -0.07635804 0.0762354 -0.077686906
000010 78 81 e5 bc dd f4 06 3c c8 24 46 3a ca f5 13 3d
       -0.028015837 0.008237091 0.00075585814 0.036123075
000020 26 02 20 bd 29 3e 0c 3d e4 4b 10 3d 0b 6f ac bc
       -0.03906455 0.034238968 0.035228625 -0.021049043
000030 76 2d af 3d bd ee 1b bd c6 71 87 3c b3 7a 8a bd
       0.08553593 -0.038069475 0.016533744 -0.06761684
000040 63 c5 ed 3c ff 4d a6 3b 39 d5 00 bc af 83 06 3d
       0.029024785 0.005075216 -0.007863336 0.032840427
000050 27 ac c0 3d 0e 8f d7 bb fc d7 9c bd 27 69 17 3d
       0.094078355 -0.0065783327 -0.07658383 0.036965515
000060 ec 76 96 bb aa 4b 36 bd af 3b f1 bc de 73 af 3d
       -0.0045918133 -0.044505753 -0.029447405 0.08567022
000070 93 2e 0b bd 41 fa b7 bd 61 76 1b 3c 6b 65 39 3d
       -0.033979964 -0.08983279 0.009488673 0.045262735
000080 70 85 83 bd 40 3f 36 3d 9e 38 e8 bc 02 67 9d 3d
       -0.064219356 0.044493914 -0.02834731 0.07685663
000090 07 79 4e 3d 14 3f 96 ba d2 a7 73 bd 1f fa a0 3c
       0.05040839 -0.001146289 -0.059486218 0.019650517
0000a0 ba bb a2 bc a2 ff 9a 3c 36 e1 03 bc 34 97 0c bd
       -0.019864906 0.018920723 -0.0080493 -0.034323886
0000b0 de 01 ac bc 6f 2f 20 3c 3d 3a 46 3d 6a 09 da 3b
       -0.020996984 0.009776934 0.048395384 0.0066539543
0000c0 03 f4 47 bd d6 69 93 3c fd 3f 05 3d ea 13 22 bd
       -0.048816692 0.017994802 0.032531727 -0.039569773
0000d0 cc c0 ec bc 41 92 b8 bb a5 53 9b bd 79 d3 87 3d
       -0.028900526 -0.005632669 -0.07584313 0.06632132
0000e0 d1 31 81 3d dc 88 74 3d 1d 5d b5 bb 9e 67 62 3d
       0.0630833 0.05970083 -0.0055347816 0.0552746
0000f0 28 ce 95 3c 01 31 6d bd bd c5 2d 3d c7 4e 93 bd
       0.01828678 -0.057908062 0.042424906 -0.0719276

linear2.weight f4 [1, 64]
000000 da b9 72 bc 96 5a 67 bd b5 b0 d0 3c 30 a9 44 3d
       -0.014814818 -0.056482874 0.025474885 0.048012912
000010 79 00 ad bd e5 13 ae 3d c3 41 ce 3b 4c c2 16 bc
       -0.08447356 0.08499888 0.0062944605 -0.009201597
000020 db 05 8f 3d 18 23 c1 bc 6e 53 c1 3c d5 42 7b 3d
       0.06983539 -0.023576304 0.023599353 0.061343033
000030 14 a2 25 3d e2 6d b2 3d 9c c0 f0 3d 18 fc 23 bd
       0.040437773 0.08712365 0.11755487 -0.040035337
000040 f1 75 2b bc c1 6b c0 3d 56 0d 3f 3b 9d a7 fa 3d
       -0.010465131 0.093955524 0.0029152236 0.12239001
000050 23 1e b3 3c bc 52 e1 bd 98 6e 6f bd a8 59 2b bd
       0.021864956 -0.110021085 -0.05845508 -0.04183355
000060 f5 83 0e 3d b0 a1 9f bc e9 14 31 3d fb 1d 69 3d
       0.034793813 -0.019486278 0.043232832 0.056913357
000070 45 82 e0 bd 28 f3 53 bb 64 cb 0c 3c 3c a5 03 3d
       -0.10962347 -0.0032340977 0.008593414 0.03214
000080 c0 00 46 bc d6 5d 25 bd 5f 27 98 bd a6 cd d2 bc
       -0.01208514 -0.040372692 -0.074293844 -0.025732826
000090 77 99 b9 bd 62 7f ce 3d 5c b3 db bd 52 cc c8 bd
       -0.09062474 0.1008289 -0.107275695 -0.09804596
0000a0 9b dc 01 be df 56 a0 bd 00 e1 63 3b 64 1c 2a 3c
       -0.1268181 -0.07829069 0.0034771562 0.010382745
0000b0 d4 72 0d 3d a5 7d e6 3d 51 7f 9c bc 48 10 c7 bd
       0.034533337 0.112544335 -0.019103678 -0.09719902
0000c0 8e 42 b2 bd e7 49 1d 3d 6b 6c 2c bd 00 33 e0 3d
       -0.087041005 0.038400557 -0.042095583 0.109472275
0000d0 b0 e4 46 bc 48 a9 c8 bd f3 4a ee bd 55 a5 a8 3c
       -0.012139484 -0.09797913 -0.11635389 0.020586649
0000e0 e0 7b 9f 3d ab 6d ba bd fc 42 6c 3d 61 f1 48 bd
       0.07787299 -0.09102949 0.05768107 -0.049058322
0000f0 95 de f5 3d 76 8f c8 3d 53 fa ab bd 60 06 9a 3c
       0.12005345 0.09792988 -0.08397355 0.018801868
