checkpoint/decoder.pt (torch, 313863 bytes, 9 tensors)

rnn.weight_ih_l0 f4 [244, 61]
00000000: 841c 55bd a121 0d3d abe1 1e3c 93b3 8ebd
00000010: 31eb be3d 88e6 93bc 5cb0 d1bc ac7b 9c3c
00000020: decc 6abd 7076 0abe b3a8 183d 9ffa 8f3d
00000030: 1aa2 a33d 5cf3 e7bd 8755 523d 96a1 19bd
00000040: 8461 d73d 10be 4e3d f6e0 68bd 490d 033e
00000050: b5be 863c 65cd 28bd 089a 593b acbb 563c
00000060: 5dab d5bd 4bd2 663d 0ec4 b6bd 5665 dc3d
00000070: d635 4a3d 3427 9fbd 8738 173d ce5f c5ba
00000080: ac84 9c3d aabe 21bd f0cf febd 2be7 ea3c
00000090: 1704 07be 5dc3 9cbb 02fa 06be dcb8 16bd
000000a0: 8ec6 8a3d e027 9b3c 308f f8bd d924 a93d
000000b0: c247 febd ca9e e5bc 6665 45bc ffc1 923d
000000c0: af21 d3bd 4238 a03c 9885 fabd 5055 9bbc
000000d0: 9aaa f2bd c6b9 e5bb d84c 0cbd e9f6 c1bd
000000e0: 931a 2a3d 0a4b 8ebc eda3 83bc c18f c7bd
000000f0: d438 27bd b54d 7dbd 2a60 063e 98e7 0ebd
00000100: 4d22 9cbd 1345 713d c9d1 d1bd 85e9 71bd
00000110: 10ef 90bc 14cf 3cbd 5a1e 2ebd 1fa3 45bc
00000120: 1606 33bd 1d1f 653d cc43 aebd 0fe4 9bbd
00000130: 3577 3f3d 0bac 60bd bdd7 a63d d5b5 40bd
00000140: e36b 313d c5f3 873d 9588 4d3d 39c0 cdbd
00000150: a2cb f93d 50bc 323d 5396 ad3c 8603 b13d
00000160: 82f5 d63d b18a 953c 1380 bf3c 2543 1e3d
00000170: 93fe eebd b172 e7bd cd7c acbc 474b 8f3b
00000180: 0e7b 52bd e71a 35bd a33d 023d 5b79 debd
00000190: db9c b93d 0e8e c33d dc25 be3c bd0b a33d
000001a0: 9dfa 89bd 13f4 26bd 4e65 aa3c 7c13 d93d
000001b0: 536c 7b3d a462 8bbd 89d6 c03d 1d4a 99bd
000001c0: 159d 79bd 9dbf 31bd e7c8 39bd 0978 f3bc
000001d0: dcd0 b6bd 9198 e03d ccea 003e 2d67 f43c
000001e0: 00e7 683d 9071 a53d 2fde 773d 4a32 da3d
000001f0: 67f5 cf3d 0d54 65bd baf9 ffbd 324c 083e
00000200: 38c2 8fbd b4ec aa3d 21e8 64bd 72da 07bd
00000210: f4e3 f1bd e308 913d 17ba e0bd b9f7 89bd
00000220: 4bb2 4f3d 0e19 bdbd 550e aabc 3ae2 803d
00000230: 4e02 fabb c21e ebbd 90a1 15bd 609a c63d
00000240: 0e94 673d dead 8abd 80d3 8e3d c0c9 c5bd
00000250: 2f62 6abd 93c7 d53a 6ad9 0a3b 5849 f83d
00000260: 5f40 e9bc b662 61bc ff2c 13be 74e1 e1bd
00000270: d9c4 a43d 86c5 c53d c2c1 eabd 64f6 9a3b
00000280: 8329 cb3d f0ed ac39 36fb 053d a1c2 6dbd
00000290: 641c 643d e46a 3abc e071 3bbc c01d f1bd
000002a0: 689b 143d 4584 253d 806d 9abd 9054 6cbd
000002b0: 1550 583d 0114 b5bd 62cf b53d dd4f 123d
000002c0: 6aba eebd 0831 053d 8949 d9bd e231 cfbd
000002d0: 83cb 7cbd 5910 00be a17c af3d dc66 ae3d
000002e0: 7e96 c53d fae1 093b f0cc fbbd daba 083c
000002f0: d844 8ebd cdb1 b6bd 9949 3d3d b830 a03d
00000300: c8cb da3c 35fa 0c3d 2934 b13d e4ee 81bd
00000310: 580a 19be fc6b dc3d 0124 a1bd eb9f 933d
00000320: 7a20 b03d f898 f9bb caf1 2dbd ebb4 8e3d
00000330: c7b3 5a3c 6bc3 d4bd cc22 8e3d 01c0 7e3c
00000340: 12cd 1abe ca87 debc e72c 933d 1fb9 29bd
00000350: 694e 86bd 5135 a33c 1b45 a9bd 3d40 413d
00000360: 9ab8 6cbd 689a 2e3d 3bd3 07be f7b4 f8bd
00000370: e54b 95bd 26f0 013d 3605 6bbd d1b6 013d
00000380: b814 12be d314 66bd adac f0bd e88e 1e3d
00000390: 6eb6 9c3d b54b 3bbd f764 843c 5d94 29bd
000003a0: c4d5 7f3d b2c2 d4bd 40e3 eabd 78cc b63d
000003b0: 18f7 433d ea75 d6bd e71c 10bd faf9 e2bc
000003c0: 6baf fa3d 7a60 66bc e743 9dbd a77f 97bb
000003d0: e58c 5bbd 66e5 a4bd a91e 15bd 693e 603d
000003e0: 3268 4c3d 7a57 43bd d359 913c 0c6d edbd
000003f0: 947a a3bd d176 8c3d 6881 20bd d790 aebd
-0.052029148 0.0344559 0.009697358 -0.06967845 0.09322203 -0.018054262 -0.02559679 0.01910194
-0.057324283 -0.13521743 0.03727026 0.07030224 0.07989903 -0.11325714 0.051351096 -0.037507616
0.105166465 0.050474226 -0.056855164 0.12798037 0.016448358 -0.041211504 0.0033203382 0.013106268
-0.104330756 0.056352895 -0.08924113 0.10761516 0.04936775 -0.07771149 0.036919143 -0.0015058459
0.07642493 -0.039488472 -0.12442005 0.028674683 -0.13185154 -0.0047840313 -0.13181308 -0.03679739
0.067761526 0.018939912 -0.12136686 0.08258981 -0.124160305 -0.028029818 -0.012048101 0.07165908
-0.10309159 0.019558076 -0.12232512 -0.018961579 -0.11848946 -0.0070106713 -0.03425297 -0.094709225
0.04152925 -0.017369766 -0.016069377 -0.09744216 -0.04082568 -0.061841685 0.13122621 -0.034888834
-0.0762373 0.058903765 -0.102450915 -0.059060592 -0.017692119 -0.046095923 -0.042509414 -0.012062817
-0.043706976 0.055937875 -0.08509025 -0.07611858 0.046744544 -0.054851573 0.081466176 -0.04704841
0.04331578 0.06638292 0.050179083 -0.10046429 0.12197043 0.04363662 0.021189844 0.0864325
0.10496046 0.01825461 0.0233765 0.038638253 -0.1166965 -0.113011725 -0.021055603 0.0043729874
-0.051386885 -0.04421511 0.031797063 -0.108629905 0.09063121 0.09548579 0.023211412 0.07961223
-0.06737254 -0.04076011 0.020800259 0.105994195 0.061382603 -0.068059236 0.09415919 -0.07484839
-0.06094082 -0.043395627 -0.04535761 -0.029720323 -0.089265555 0.109666 0.12589568 0.029834354
0.056860924 0.08078301 0.060514625 0.10654123 0.10154229 -0.05598836 -0.124988034 0.13310316
-0.07019466 0.08345929 -0.055885438 -0.03316731 -0.11811057 0.07081773 -0.10972994 -0.067367025
0.050707143 -0.092332944 -0.020758787 0.06293149 -0.0076296693 -0.11480476 -0.03653103 0.096974134
0.05653768 -0.06771444 0.06973934 -0.096576214 -0.05722254 0.0016310088 0.0021186718 0.12123364
-0.028473077 -0.013756445 -0.14372633 -0.1102933 0.08045358 0.09656815 -0.114627376 0.004729079
0.09920027 0.00032983674 0.032710277 -0.05804694 0.055691138 -0.011378024 -0.011440724 -0.117732525
0.03628102 0.040409345 -0.07540417 -0.057697833 0.052810747 -0.08841706 0.08877446 0.035720695
-0.116566494 0.032517463 -0.10609729 -0.10116936 -0.06171752 -0.12506236 0.08568693 0.085157126
0.09647845 0.0021039234 -0.12294948 0.00834533 -0.06946725 -0.089206316 0.046212766 0.07821792
0.026708499 0.034418304 0.08652527 -0.06344393 -0.14945352 0.10762784 -0.07868195 0.07208236
0.085999444 -0.0076171122 -0.042466916 0.06968101 0.013348526 -0.103888355 0.06940231 0.015548707
-0.1511729 -0.027164359 0.07186299 -0.04143631 -0.06557924 0.019922884 -0.08265134 0.047180403
-0.057793237 0.042627722 -0.13264172 -0.12143891 -0.07289866 0.031723164 -0.057378016 0.031668488
-0.14265716 -0.056172203 -0.11751685 0.038710505 0.07651983 -0.045726497 0.016161425 -0.041401256
0.062459722 -0.10388698 -0.11469126 0.08925718 0.04784307 -0.10471709 -0.035183813 -0.027707089
0.122404896 -0.014061088 -0.07678967 -0.0046233716 -0.053601164 -0.08051567 -0.036406193 0.05474702
0.049904056 -0.047690846 0.017743027 -0.11593065 -0.07982364 0.068586 -0.03918591 -0.0852372

rnn.weight_hh_l0 f4 [244, 61]
00000000: 668f 11be 019b 06bc 91ab d03d 10cc 7dbd
00000010: e42c 40bc 9954 e5bd 5fac e9bd d209 8dbd
00000020: 3ff5 113d 1784 ae3d 9302 97bd c955 22be
00000030: e125 8fbd 082d 833c 8e0c 12bd 2c8e a2bd
00000040: 43dd d4bb d156 17be 309d 0c3e 980f 3fbd
00000050: 4cf1 2f3d 6fda b73c 7144 2dbd 6cb8 883d
00000060: 34c0 773d 00fd 7dbd c033 2e3d c191 1ebe
00000070: ba5a aabc dc79 b63d 7ec9 9c3d b852 143c
00000080: 3c89 c0bd 95fc a43d 6c48 f2bd 4d20 1a3d
00000090: 3f05 1abd bad8 663d 872c 07bd 0852 46bd
000000a0: 3ada 2b3c 130e 133e d9da 65bd 31c9 483c
000000b0: 52f4 9ebd ada9 093e eaee cabc ce44 d33b
000000c0: 796e a63d 7568 c0bd 30c2 093d 0188 dcbb
000000d0: 1124 c33d 349f 413b 2ebb e43c 9b7f 39bd
000000e0: 1a66 6d3d 709c aabd b0ff df3a f34e cebd
000000f0: ec01 76bd 286c de3d 485c 4e3d fea5 a4bc
00000100: 9789 063c 17a8 cfbd bed5 7d3d 4f28 da3d
00000110: 2141 f7bb 4093 003d f1eb 11bd d28b 1a3d
00000120: c3eb febc 5f0e 44bd 027d 023e 8180 55bd
00000130: 266c 0ebd 82ee 8abd 2e90 3d3d 0c2d 613b
00000140: 53f8 38bd f924 a3bd d0c8 da3d ad58 753c
00000150: cec5 19bc 52b1 dd3d f79f 1dbd 6eb5 a1bd
00000160: 0fac f93d 53a9 f2bd ee04 e43c 445a e1bd
00000170: 36f4 e13d 637c e93d 0018 c2bd 7408 543d
00000180: 30e1 2e3d 701d 4dbd 5db3 f3bd b14c f73b
00000190: 1fc4 2cbd 0eb7 0ebe 2830 823d ea1e acbd
000001a0: 32da 4ebd cb23 b43d e291 043e 8886 c3bd
000001b0: 70e3 67bc 74ce 80bd 4bce be3d a6d4 61bc
000001c0: 45ad 80bc d323 5dbd 48b5 b83d d4b6 8cbd
000001d0: b237 5bbd b9b5 8b3d dd9c eabd 104f 993d
000001e0: 6e64 80bd 923e 15be 47e4 4d3d e4d7 89ba
000001f0: e4f0 6f3d 3fde 843d 1e65 723d 8454 febc
00000200: e71c aa3b daa6 02be 96d9 d93c 481e fe3d
00000210: 4e79 d1bd 65c5 b33d d88d 8cbb f27c 21bd
00000220: 9080 bf3d e43f 0a3e 84c0 3bbd e24f 0b3c
00000230: 7570 23bd ba63 02bc 86f4 19bd 9a31 a1bd
00000240: e75e 9f3a 26a1 953c 4644 9e3c 1444 d2bc
00000250: 2ef5 133d b5af bfbd e275 b7bd 10c5 35bc
00000260: 90e5 a5bb fcff 1abd 8748 8c3c ad53 a7bc
00000270: 4aa9 1e3d 8a67 013c 70ff 6f3d 17ff 5c3d
00000280: e2fb 823d 1aa7 3d3d 671b aebd 7795 7ebd
00000290: 9ac1 f83c 0251 3d3d 2593 d53d 26a3 893d
000002a0: 3cc4 463d 6a2f 09be c03b aebd c7ad 87bd
000002b0: 4f6c 0a3e 5c52 8ebd 5a86 8a3c fe85 7d3d
000002c0: 9805 ac3d bbd3 963b 1006 e03d f594 e5bd
000002d0: 3538 54bc ca0d 5bbd c5ff c3bc 0211 7abc
000002e0: 12d6 07bb 5cc4 e83c c30f dcbd df68 09bc
000002f0: d398 8dbd 0713 89bd 112f b4bd 5dbc 92bd
00000300: 90af a73c 7465 9a3d 4b9e c53d 1719 943d
00000310: 994f ccbd 1001 a03d 96c2 cf3c a7b4 903d
00000320: 2392 86bd 42ba ff3c ee9f aabd 1d85 61bd
00000330: a99b d0bc 8f7c e23d 2a7e 683d 3f0d da3d
00000340: 2d58 2fbc 772d 12bd 98a9 a13d 5b49 4bbd
00000350: b71d acbc c2f9 5cbd ba2e 263d ca37 be3b
00000360: 80b4 153d a2a3 27bd 5558 0bbb 4513 273d
00000370: ea80 9ebd 870a 0fbd 109d db3c fb6e b63d
00000380: 5995 3e3c 77c3 083e 0e4e bcbc 31ac b23d
00000390: 7174 cc3d 92cc f93d 5cf6 fabd 74bf c13c
000003a0: e5c0 953d 193b 203d 3ce3 bcbd 1480 11ba
000003b0: 9181 453d e6b3 c9bd e624 f8bb c645 33bd
000003c0: 67d8 2fbb d8a5 5cbd c9ef ccbd 6956 a6bd
000003d0: ad90 72bd 5c66 97bd ce96 adbd f980 95bd
000003e0: 0256 41bc 3214 0d3d cc69 a23d 4809 523c
000003f0: 205e f4bd d471 083d 27e3 1e3c 43eb 093d
-0.14214858 -0.008215667 0.10188974 -0.061962187 -0.011729453 -0.11197776 -0.1140983 -0.06886639
0.035634276 0.08521288 -0.07373538 -0.15853037 -0.06989647 0.016012684 -0.035656504 -0.079372734
-0.006496103 -0.14779212 0.13731837 -0.04664573 0.042954728 0.022443024 -0.0423016 0.06675801
0.060486034 -0.062008858 0.04252982 -0.15485288 -0.020795215 0.089099616 0.07655619 0.009052925
-0.094011754 0.08055989 -0.118302196 0.03762846 -0.03760266 0.05635903 -0.03300145 -0.048418075
0.010489041 0.14360838 -0.056116913 0.012254999 -0.07761444 0.13443632 -0.024772126 0.006447411
0.0812654 -0.093949236 0.033632457 -0.00673008 0.095283635 0.0029544355 0.027921285 -0.04528771
0.0579587 -0.08330619 0.0017089751 -0.10073652 -0.060060427 0.10860473 0.050380975 -0.020098682
0.008211515 -0.101394825 0.06197142 0.106522195 -0.007545606 0.03139043 -0.035625402 0.037731
-0.03111828 -0.047865268 0.12742999 -0.052124504 -0.034771107 -0.06783773 0.04628008 0.0034359125
-0.045158695 -0.07966036 0.10682833 0.014974755 -0.009385539 0.10824837 -0.038482632 -0.07895933
0.12191021 -0.11848702 0.027834382 -0.11003545 0.11032908 0.11400678 -0.09477234 0.051765874
0.042695224 -0.050076902 -0.11899445 0.007546984 -0.042179223 -0.13937017 0.06356841 -0.08404334
-0.050501056 0.087958895 0.12946275 -0.09547144 -0.014153346 -0.06289378 0.09316691 -0.0137836095
-0.015707621 -0.053989243 0.09018952 -0.06870809 -0.053519912 0.0682177 -0.114557005 0.07485783
-0.062691554 -0.1457465 0.05026653 -0.0010516611 0.05857934 0.064877026 0.059178464 -0.03104616
0.0051914337 -0.12758961 0.02659301 0.124081194 -0.10228215 0.087778844 -0.00428937 -0.039425798
0.09350693 0.13500935 -0.045837894 0.008502932 -0.03990217 -0.007958347 -0.03758671 -0.07870789
0.001215902 0.018265318 0.019319665 -0.025667228 0.036122493 -0.09359685 -0.08958031 -0.011094347
-0.0050627664 -0.037841782 0.017124427 -0.020425642 0.038735665 0.007898221 0.058593214 0.05395421
0.06395699 0.04630194 -0.0850132 -0.06215426 0.030365754 0.046219833 0.10428456 0.06720571
0.048526987 -0.13396993 -0.0850749 -0.06624942 0.13517879 -0.069493026 0.016909767 0.061895363
0.083995044 0.004602877 0.10938656 -0.11210052 -0.012952854 -0.053479947 -0.023925671 -0.015262844
-0.002072696 0.028413944 -0.10745194 -0.00838682 -0.069139145 -0.06693082 -0.0879804 -0.07164834
0.020469457 0.07538882 0.096493326 0.07231348 -0.099761195 0.07812703 0.02536134 0.07065707
-0.06570842 0.031216744 -0.083312854 -0.055058587 -0.02546485 0.11058914 0.056760944 0.10647058
-0.010702175 -0.03568789 0.078936756 -0.049630504 -0.021010263 -0.053949125 0.040571906 0.0058049904
0.03654909 -0.040927537 -0.0021262367 0.04078986 -0.07739432 -0.03492215 0.026808292 0.089078866
0.011632287 0.13355814 -0.022986438 0.08724249 0.09983147 0.12197222 -0.122540206 0.023650862
0.07312182 0.03911886 -0.09223029 -0.0005550396 0.048219267 -0.09848766 -0.007572758 -0.043767713
-0.0026831867 -0.0538691 -0.10006673 -0.0812195 -0.059220005 -0.073925704 -0.08476029 -0.0729999
-0.011800291 0.034443088 0.079303354 0.012819596 -0.119320154 0.03331168 0.009697712 0.03367163

rnn.bias_ih_l0 f4 [244]
00000000: f17f 0ebe 2e26 0c3d 4a7a c33d a25b 01be
00000010: 7181 0bbe 20a1 d7bc c031 463d 1707 993d
00000020: 6a45 0bbd 5eda 6a3c 5350 ae3d c2e3 49bd
00000030: 4509 0a3d aacf b73d 0db3 35bd 1a42 50bc
00000040: af01 853d dd7b d4bd 4504 f8bd de43 54bd
00000050: c2d4 573a 445e 9bbd 1407 f13c 5b49 1d3c
00000060: 9eec 3f3d fc9d e7bd 5343 75bd 9e9e c33c
00000070: f77f c83d d711 f83b 6ab9 cb3d d03a 93bd
00000080: 5891 4e3c 8f17 29bd c7d5 3e3d 22b6 f03d
00000090: 121d 8bbd 7845 b3bc 9926 be3d a9c3 1c3d
000000a0: 544f 13be 4474 ecbd 10c5 c33d 6925 68bc
000000b0: d912 a53d b84f c43d 0aeb 823d ae5c e63d
000000c0: 6317 8fbd 1274 afbd c055 94bc 88f7 b7bd
000000d0: e165 d73c 5010 f3bd 647e 2bbd 37c5 1cbd
000000e0: 392b d9bd 1be0 8fbd bbca 973d 4bc0 2dbd
000000f0: 93a3 18bd 1f2b dfbd e68d e63d db72 b1bd
00000100: 12c1 ddbd fb5a d43b 1bf5 88bd 40a9 ed3c
00000110: d84b 0e3c f17a b6bc 206d e53c 18d4 f93b
00000120: 770b c6bd 5d28 2fbd aaf9 903d b3f1 06be
00000130: dd68 173d 05e1 b23d 8278 cd3c eed5 9abd
00000140: 0d53 bf3d e9d4 6fbd 52f4 b93d 2806 cebd
00000150: 87b6 0cbe 5850 fabb 9e2c 5fbd 9cf2 d3bd
00000160: e7c5 a43d 2786 223c 5c2e 44bc c4ea a0bc
00000170: 45b5 f6bd 2889 3dbd 509b a8bd 7499 61bd
00000180: 6df7 cabc 9b23 de3d b098 673c 513f 4ebb
00000190: bfd0 7a3c 602d 2bbd 300e b6bd 3663 b33d
000001a0: 6acb c13d ec7f 9e3d 7cf7 c4bd 8413 093d
000001b0: 3ebc cdbc 0ec4 a4bc 34f4 a1bd 180a 11bc
000001c0: b00b e5bb 14f2 d93d 0902 05be c497 d03d
000001d0: cc41 1b3d dd02 053e e980 0dbe cb29 313d
000001e0: c8f8 eabd c482 dbbc 2686 9a3d 39a6 cf3c
000001f0: 80f4 f9bb 4e2c cabd e48b ddbd e2f4 01be
00000200: 5627 aebc 46cf 853d c0df 8d3d 9a85 733d
00000210: d8c5 073e d970 af3d 2777 eabc 8639 aabd
00000220: f293 7ebd c6d3 aebd 685b 8ebd 864c a33c
00000230: c488 603d aee5 2a3d 2730 fdbd 15c9 453d
00000240: c2e0 1bbd f3c7 833d 8644 43bd b1ce 71bd
00000250: 2e91 063e e629 f03d 20c2 003b 6bce 77bd
00000260: df7b d0bd 2405 223d b183 fc3d 9585 eabd
00000270: 62e3 cc3d c606 943d 286a 803d 1c79 673d
00000280: 9cd6 2a3d eb62 fabc 6208 b03d 817d 1abc
00000290: 23e5 4cbd a7b0 523d 3046 de3d 2223 c93d
000002a0: 78ee 043c 2616 9ebd 3409 06bd 1f1b e03d
000002b0: c9eb 62bd 602e 0fbd 907a f8bc aeb5 ca3b
000002c0: dfc8 87bd 3f42 c2bc 1127 81bd 5f35 273d
000002d0: b0bf 12bd 31ab eabc 5812 0ebc 33e8 15be
000002e0: 9c90 913d 8bb1 913d b18e c9bd 08b9 53bc
000002f0: 15cd f7bd de6f 353c ec95 fa3c 6a09 a5bd
00000300: cc28 e9bc 8466 98bd db0e 6bbd 36b5 99bd
00000310: b9b9 97bc fad2 b4bd c3e5 d4bd 5959 a03d
00000320: bc04 f53c 0dac 633d 5de7 a73d 2714 a6bd
00000330: 711f 8bbc 96b7 97bd e8a6 f6bd f88f 113d
00000340: f900 3cbc 0adb 49bd 9257 943d d17d 5fbc
00000350: 7981 eabb 59a6 b7bd 23d3 ea3d 39ca 083d
00000360: dc23 f73d 96c2 b1bc 8e70 e7bd 5196 c2bc
00000370: db4f 9f3c 46f6 83bd 374c 14be a340 703d
00000380: b2c9 d33b 2b58 463b d77a 133d b175 7cbd
00000390: 240c 9abd 0b76 e73d 88e4 2e3c 15ec 85bd
000003a0: a244 f8bb 665b 483d e206 01be 6da6 eebc
000003b0: 8f3f 89bd 381d dbbd 5463 c5bd 54ff ec3d
000003c0: f7f3 0cbe 6192 e0bd bef9 c0bd 1d61 08be
-0.13915993 0.0342161 0.09544809 -0.12632611 -0.13623597 -0.026321948 0.04838729 0.074720554
-0.034001745 0.014334289 0.085114144 -0.049289472 0.033700246 0.08975156 -0.04436021 -0.012711072
0.06494462 -0.103751875 -0.12110189 -0.051822536 0.00082333025 -0.07586339 0.02942232 0.009600009
0.046856515 -0.1130943 -0.05987866 0.023879346 0.09790032 0.007570486 0.09947474 -0.07188952
0.012607895 -0.041282233 0.046590593 0.11753489 -0.06792654 -0.021883711 0.09284706 0.038272534
-0.1438573 -0.115456134 0.09559071 -0.0141690755 0.080602355 0.09585518 0.063924864 0.11248146
-0.069868825 -0.085670605 -0.018107295 -0.0898276 0.026293697 -0.11868346 -0.041868582 -0.038274016
-0.10603947 -0.070251666 0.07411715 -0.042419713 -0.03726537 -0.108968966 0.11257534 -0.08664485
-0.10827841 0.0064805723 -0.06687375 0.029011369 0.008685075 -0.02227542 0.028006136 0.0076241605
-0.096701555 -0.042763103 0.0707887 -0.13178138 0.03696524 0.08734325 0.025081877 -0.07560335
0.093420126 -0.058552656 0.090798035 -0.10059768 -0.13741504 -0.0076389723 -0.05448591 -0.103490084
0.080455594 0.00991968 -0.011973944 -0.019643195 -0.12046293 -0.04627338 -0.082327485 -0.055077985
-0.024776185 0.10846635 0.014135525 -0.0031470845 0.015308558 -0.04179132 -0.08889425 0.08759157
0.09462626 0.07739243 -0.096175164 0.033465877 -0.025114175 -0.020113017 -0.07907906 -0.008852504
-0.0069899186 0.10641876 -0.12989058 0.10185197 0.037904546 0.12989374 -0.13818707 0.043252748
-0.114732325 -0.026795752 0.07545118 0.025347816 -0.0076280236 -0.09871732 -0.10817698 -0.12691072
-0.021258991 0.06533675 0.069274426 0.059453584 0.13259065 0.08566446 -0.02862127 -0.08311753
-0.06215281 -0.08536486 -0.06951028 0.01993395 0.05481793 0.041722946 -0.123627 0.04828747
-0.038056143 0.06434622 -0.04767277 -0.059035007 0.13141319 0.117267415 0.0019646958 -0.06049959
-0.101798765 0.039555684 0.12329806 -0.1145126 0.10004307 0.072278544 0.06270248 0.056511983
0.041708574 -0.030564746 0.08595349 -0.0094293365 -0.05002321 0.051438 0.10853231 0.09821154
0.008113496 -0.07719068 -0.03272362 0.10942673 -0.055400643 -0.034956336 -0.03033188 0.0061862087
-0.0663011 -0.02371323 -0.063062795 0.040822383 -0.03582734 -0.028646084 -0.008671366 -0.14639358
0.0710766 0.07113942 -0.09841669 -0.012922533 -0.12099663 0.0110740345 0.030589066 -0.08058436
-0.028461836 -0.07441428 -0.057387214 -0.07505266 -0.018521177 -0.08829303 -0.10395386 0.07829542
0.029909484 0.055584002 0.08198426 -0.081093125 -0.016982766 -0.07408063 -0.120435536 0.03553769
-0.011474841 -0.049281158 0.07243265 -0.013640837 -0.0071565476 -0.08967275 0.114660524 0.03339598
0.120673865 -0.021699231 -0.11300765 -0.023753317 0.019447258 -0.06443457 -0.14482199 0.058655392
0.006463253 0.0030264955 0.03600582 -0.061635677 -0.07521847 0.11301812 0.010674603 -0.0653917
-0.007576541 0.04891529 -0.12600282 -0.029132092 -0.06701576 -0.106989324 -0.09638086 0.115721375
-0.1376494 -0.109654196 -0.094226345 -0.13318296

rnn.bias_hh_l0 f4 [244]
00000000: a902 1dbe 920f 9f3d 03c2 18bd 0835 e6bd
00000010: 87e1 993d 0a49 2fbc 1b9e c83c 80b8 a5bc
00000020: a3dc 9f3d 15e8 66bd dc6c 6bbd 38bc e6bc
00000030: 39ed c33d f887 9c3a e628 0ebc 1dc7 10be
00000040: 908a bf3c 9c8f c73d 2ca4 93bd e81a 943c
00000050: e611 b4bc 2f65 2c3d 9887 253d 1ace 683d
00000060: 6d7b d8bd 9bfe cd3d 06d8 833d 6e63 763d
00000070: 48ed e7bd d539 02be c542 883d ed81 9d3d
00000080: 1773 bebd 99f6 f8bd 09ec 51bd bb72 bf3d
00000090: 1f10 3d3d 1aff a03d b9b1 f9bd 88c9 5b3d
000000a0: 99ee 8cbc f7fe b2bd 153f f5bc e57e afbc
000000b0: dffb 6d3d e2a5 883d 086b 583d b2f0 fa3c
000000c0: 20e0 aebd f7f2 43bd 57d0 29bd dea1 84bd
000000d0: b552 0fbe 860c 7ebd 1e97 c5bc 77fd c63d
000000e0: b7ef 6dbd a836 c7bb 23cf 5e3d f870 19bd
000000f0: 7ed1 613d b496 82bd 8966 b03d eeba ba3d
00000100: af79 ba3d 9d05 c83d da84 88bd 1a6d adbb
00000110: e0f6 eb3b 66c4 973c da8e 883d a5d7 16be
00000120: 6f1e d03d 7366 8b3d 162f f7bc 4f07 da3d
00000130: ec16 ecbc e6f9 923d a7ed 8b3d dc51 3a3d
00000140: 4e55 08be ee85 5f3c cff9 12bd c355 f53d
00000150: f0a3 17be 1f6b 8f3d 2edf cdbd 33e6 813c
00000160: 4223 37bd b206 09be 958d 19bd 4e09 d3bd
00000170: 8bb8 1ebd ce59 9f3d 7d86 b63c b025 b03c
00000180: e32d bdbd 03ac 05be 10eb 2e3d b453 acbd
00000190: 6736 8cbd b89e 9b3d c97a d2bd d14f b6bd
000001a0: 3064 00be 981c b33d 00b3 58bd 20a0 74bd
000001b0: 444a e13d 339e 58bd acc2 f43d 0a58 3b3d
000001c0: 7c9a 553a 7d10 123d 9f2d ca3d af08 63bd
000001d0: 0d48 a83c d980 6b3d e365 9bbd 12e9 413d
000001e0: 09bf ac3d 7d32 06be a557 2a3d a769 803d
000001f0: 4e2d d2bd d578 bebc dfa6 c3bd d4e4 553d
00000200: d88b a6bc 4cdc 763d 2853 4a3c 212f 5e3d
00000210: abc8 d13d 7053 033d b78f 5b3d c012 c63c
00000220: 485f 64bd 5518 d53d f147 e33c 0060 e3bd
00000230: 039a 58bd a3d1 e5bd cada 863d 9f07 a53d
00000240: 4093 aabd bb99 b73d 0b73 f63d e690 b93d
00000250: bf9c 60bc 89c9 6d3c a493 1bbc 1d25 563d
00000260: 33ad c3bd adfd 073d d879 c5bd e257 d1bd
00000270: c48f 36bd 8350 d7bd a0d5 a1bd 53da cd3c
00000280: 8e54 8b3d 8a72 1cbd 99d0 09bc 41b0 fb3c
00000290: 9ffb cebd 7c7e 893d 56c8 d4bc 30c7 e03d
000002a0: a5aa debd 5cac 6a3d b246 e63d df63 5bbd
000002b0: da87 d03d 4035 b9bd c5a1 f53a aefc f93d
000002c0: 12d1 d0bd ca44 16bd 19bc 05be 0258 09be
000002d0: 5dbc adbd e96b ccbd 718b d8bd d22a 463d
000002e0: 382a b5bd ba18 a53d 7602 363d 1ca5 a5bd
000002f0: 26e6 dfbd 9957 153c 36fc b63c 25c2 693d
00000300: ca81 12be b01f c7bd 4750 803d 8367 cdbd
00000310: dade 8d3b 47df 6b3d 9b38 a0bc 2fb1 3d3d
00000320: 6e83 4cbd 696f 7c3d 68d3 e3bd a395 03be
00000330: e853 72bd 5837 cfbd 6823 123d 6f67 ad3d
00000340: 52d2 1c3d fe40 7b3b 82d9 babb 3824 a1bd
00000350: 8f11 ec3c 80fe 81bc 8d76 80bd aaba d53d
00000360: 4ca8 c73d 3469 d5bd ff2d eb3d 9ede 963c
00000370: 4473 0dbd 0879 38bd ea82 95bd 9f3a a13d
00000380: 1de2 8e3d 018d b43c 8f1a abbd 8677 0eba
00000390: 7444 853d c92d 1f3d dfbf 893d 5bf2 043d
000003a0: 50b7 41bd 964b 9a3d f5f3 66bc 5c08 083d
000003b0: 79cc 7f3d 98bb f7bd 52da cebd 60cb bcbd
000003c0: 4efa dabd 46f0 c63d 1cbf c2bd cac3 0fbe
-0.15333046 0.07766642 -0.0372944 -0.11240584 0.07513719 -0.010698566 0.024489453 -0.020229578
0.07805755 -0.056373674 -0.057476863 -0.028165922 0.09566731 0.0011942377 -0.008676743 -0.14138456
0.023381501 0.09744188 -0.07209048 0.018079236 -0.02198119 0.042088684 0.040412515 0.05683718
-0.105704166 0.10058328 0.064376876 0.060153417 -0.11324555 -0.12717374 0.0665336 0.07690797
-0.092992954 -0.1215641 -0.05125049 0.09348055 0.046157952 0.07861157 -0.12192101 0.053658992
-0.017203616 -0.08740037 -0.029937306 -0.021422813 0.05810153 0.06672265 0.052836448 0.03063235
-0.08538842 -0.04783913 -0.041458454 -0.06476186 -0.13996394 -0.062023662 -0.02411991 0.09716313
-0.058089938 -0.0060795136 0.05439676 -0.03746125 0.055131428 -0.063764006 0.08613307 0.09117685
0.091052406 0.09766696 -0.066659644 -0.005292547 0.0072010607 0.018526267 0.06667872 -0.147307
0.10162055 0.0680665 -0.03017382 0.10645925 -0.028819524 0.071765706 0.06832438 0.045488223
-0.13313791 0.013642771 -0.035882767 0.119792484 -0.14808631 0.070028536 -0.10052334 0.015856838
-0.04471136 -0.1338146 -0.03748854 -0.10304509 -0.038750213 0.07780801 0.022280926 0.021502346
-0.09237268 -0.13053899 0.04270464 -0.084144026 -0.06846314 0.075986326 -0.10277326 -0.089019425
-0.12538218 0.08745688 -0.052905083 -0.05972302 0.11000493 -0.052885246 0.11951193 0.045738257
0.0008148325 0.035660256 0.09871983 -0.055428203 0.020542169 0.057495926 -0.07587793 0.047341414
0.084348746 -0.13105197 0.04158749 0.062701516 -0.102625474 -0.023250977 -0.095533125 0.05222018
-0.020330355 0.060268685 0.012348928 0.054244164 0.102433525 0.032061994 0.053603854 0.024178863
-0.05575493 0.104050316 0.027744265 -0.11102295 -0.052881252 -0.11221626 0.065846995 0.08058094
-0.08328867 0.08964869 0.120336615 0.0906084 -0.013709246 0.014513382 -0.0094956495 0.052281488
-0.095545195 0.03320091 -0.096423805 -0.102218404 -0.0445707 -0.10513403 -0.07902074 0.02512852
0.06803237 -0.03819517 -0.00841155 0.030723693 -0.10106587 0.06713578 -0.025974434 0.10975492
-0.108723916 0.05729328 0.11243953 -0.05356204 0.10182162 -0.0904336 0.0018740228 0.12206398
-0.10196127 -0.036686696 -0.13060035 -0.13412479 -0.08483193 -0.0998152 -0.10573471 0.04838068
-0.08845943 0.08061357 0.04443594 -0.08088133 -0.10932569 0.009115123 0.02233706 0.057069916
-0.14307323 -0.09722841 0.06265312 -0.10029509 0.0043295445 0.05758598 -0.019558242 0.046311554
-0.04993003 0.061629687 -0.11124307 -0.1285005 -0.05916205 -0.10117978 0.035678297 0.08466994
0.038286515 0.00383383 -0.0057021985 -0.07868236 0.028816966 -0.015868425 -0.06272612 0.10435994
0.09748897 -0.104204565 0.114833824 0.018416699 -0.034533754 -0.0450373 -0.073003605 0.07872509
0.069767214 0.022039892 -0.08354675 -0.00054346805 0.06507197 0.038862024 0.0672605 0.03245769
-0.04729396 0.07533948 -0.01409625 0.033211097 0.06245086 -0.120963275 -0.10100235 -0.09218478
-0.10692273 0.09713797 -0.095091075 -0.14039531

cnn.weight f4 [128, 61, 5]
00000000: f513 183d 238c 0cbd 3c48 1c3d 035b 7d3d
00000010: 55ef 493c 9453 253d 9eb4 663c 787f 063d
00000020: 43c2 013b c6cf a83b a393 0b3d 95f5 73bd
00000030: c2c1 353d f108 c8bc a87d 89bb 6a67 3cbd
00000040: d7b4 1dbd bc22 57bd ca5d e0bc 6cad 8dbd
00000050: 44c5 3abd b10a b33c 8496 b93c 094c 2e3d
00000060: 72e3 4c3b a1ef 54bc f777 92bd 20e5 29b8
00000070: 1254 74bd 253b 98bd e3b6 3fbd 7bf0 81bc
00000080: 56d5 1d3b 7efc 36bd 8a2e a6bb 2ca9 2fbc
00000090: 0e7f e33c 95fd 9dbc b5d2 f3bc 5a8f 21bd
000000a0: 867a 17bd 931a 803c 8f3a c4bb 76e7 4bbd
000000b0: 1837 90bd 0189 00bd a20c 80bc 7620 533d
000000c0: 5113 bdbc cc99 863d 29ec 723c de64 c53b
000000d0: 0524 00bd f3d4 aebc b682 3fbc 8d49 9abb
000000e0: 147d ca3b 131b e03c 3478 293d 63bf 4f3c
000000f0: 4f73 b1bc 7df6 4fbd 1012 88bc 713a d3bc
00000100: 4a81 2dbc 9a70 07bd 7d23 523c a2f0 1a3d
00000110: 26d5 303d d31c ccbc 4320 6d3c 9ac8 2abb
00000120: bd91 95bd 460b 00bd f118 dfbc 85c4 783c
00000130: 7d1c 62bd bbab b3bc 6332 d13c fde5 10bd
00000140: e2fb 053d 0f6d 8c3c fd97 01bd ed91 7ebc
00000150: d20a 00bb cd05 d93c 21ec be3c 0bf7 b7bc
00000160: fd3a 08bd 2e15 ccbc 8c9a 02bd 05b0 a6bb
00000170: efa0 293b e70f 273d b0ef 9c3c 7f52 77bd
00000180: 3cf6 2fbd 6e7e 5f3c 3f00 9f3c 48c9 183c
00000190: 3f6f 233d 859e 2e3c 511f ab3c 8ecd 063d
000001a0: 78a1 1d3d d8d2 76bd 7c2a a53c 6fb2 e3bb
000001b0: c01a b83c ca82 073b 7a71 c8bc fe13 f8bc
000001c0: 1bbd cbbb b9d0 a3bc ac8f 573c 3f5c 48bd
000001d0: 9c7e e9ba 9d8f 1abd c27b 95bd 38b0 9fbc
000001e0: 1d0b eb3b c11c 643c adbd 16bc b43f 66bd
000001f0: b55e 0abd 72a4 0ebd fccb e03c 6fd9 713c
00000200: 0f5b a93c bb66 053d 7422 74bd 676c 9dbd
00000210: ea63 e13c 42e2 f5bb 4b5b 033c 6e1c 15bd
00000220: d9e1 293d e0e4 383d e6d5 cdbc e108 cb3c
00000230: 5105 16bd 07e2 fb3c 2ff6 62bc 1fc3 4ebd
00000240: 953c 25bc 76ff 1d3a 7c54 873d 20c2 8abb
00000250: e175 34bd e36a 7dbd cf84 7bbc c453 e33b
00000260: 618b f73c f476 62bd 602a 48bd fc06 85bd
00000270: c05f 82bd b606 84bd ac39 d6bc 7b99 60bd
00000280: 79cc 8bbd ff99 92bd 93bb 24bd 7a40 8f3c
00000290: 3d66 853c b7fd 83bd f2b6 71bd ada6 0d3d
000002a0: fa59 03bd 3329 59bc ee6a 9b3c cdd0 93bc
000002b0: 6ee8 053c fe0b 1b3d 8aac d3bc c7de 0bbc
000002c0: 399e c23c 2050 c8bc de2f a1bd 33d1 1abc
000002d0: c22c b83b 7e0b 73bc 89cb 05bd e28f 463d
000002e0: 7f8f 123d 1db8 3dbd 4d1a 4a3c 4917 91bc
000002f0: b15c d03c ad4a 6cbd 57d7 4a3b b76a 133d
00000300: f0ae 8d3b bac1 d0bb a5b6 e03c 0b0e 0b3c
00000310: bc8c 13bd 4424 87bc a8cd 0bbd 4dc7 03bd
00000320: 1b0a 003d 90bb ce3c 3208 8f3c fd4c 71bd
00000330: 67ca 343d b5bc 173c 3c22 abbc c15d 8ebd
00000340: 4e8b 06bd 182e b63c d826 c13c f5b0 7e3c
00000350: cd1a 2fbb b188 5abd b563 92bd e30d 023c
00000360: 0bed 8e3d 7a1d fd3c 6bde c23c a83d 453c
00000370: 8f0d fbbc a39a cd3c 5c06 3bbd 9b93 69bd
00000380: f234 18bc 515d 12bd 2950 013b f0bd 3cbd
00000390: 77d9 4f3c 4530 2a3d 0b62 633c 19b7 8fbd
000003a0: dc2e 0b3d b9cf 3dbd 0d49 42bd 0462 bb3c
000003b0: 7313 683d 2ad9 783c e735 c9bc 5879 1d3d
000003c0: 92df 36bd 2e8d 92bc af27 8bbd fdd1 403c
000003d0: ae77 f6bc c89f 92bd 5089 ec3c 7bff a5bb
000003e0: ab9a c33b ed93 903c 71e1 f03c 2e99 efbc
000003f0: cbe5 8cbc 9f14 f4bc acea c53c 17cc 37bc
0.037128408 -0.034313332 0.038154826 0.061854374 0.012325128 0.04036291 0.014081148 0.032836407
0.0019799627 0.0051517216 0.034076344 -0.059560377 0.044374235 -0.024418326 -0.0041958876 -0.04599706
-0.03850254 -0.05252336 -0.027388472 -0.06917843 -0.045598283 0.021855684 0.02265478 0.04255298
0.0031263498 -0.012996585 -0.07151788 -4.050613e-05 -0.05965049 -0.07433156 -0.046805274 -0.01586174
0.0024083457 -0.04467439 -0.005071466 -0.010721486 0.027770545 -0.019285956 -0.029763559 -0.03944335
-0.03698208 0.015637672 -0.005988426 -0.049781285 -0.07041758 -0.031380657 -0.015631024 0.05154463
-0.0230805 0.06572303 0.014826813 0.006023987 -0.03128435 -0.021341776 -0.011688879 -0.004708475
0.0061794613 0.02735666 0.0413744 0.0126799075 -0.021661429 -0.05077218 -0.016610175 -0.025784703
-0.010589907 -0.03306637 0.012825844 0.03782714 0.043172024 -0.024916088 0.014473024 -0.002605951
-0.07303188 -0.03126075 -0.027233573 0.015183573 -0.05520295 -0.021932473 0.025536722 -0.035375584
0.032710917 0.017141847 -0.031639088 -0.015537721 -0.00195377 0.026492024 0.023305954 -0.022456666
-0.03325938 -0.024912443 -0.03188567 -0.005086901 0.0025883277 0.04078665 0.01915726 -0.06038141
-0.042959437 0.013640983 0.019409297 0.009325333 0.039901014 0.010657911 0.020888956 0.032910876
0.038484067 -0.06025967 0.02016186 -0.006948761 0.022473693 0.0020677322 -0.024468172 -0.03028297
-0.0062176115 -0.019996988 0.013156813 -0.048916098 -0.0017814222 -0.037734617 -0.072989956 -0.019493207
0.0071729557 0.013922871 -0.009200496 -0.056213096 -0.033781726 -0.034824796 0.027441017 0.014761313
0.020673303 0.032568675 -0.05960317 -0.07686692 0.027513463 -0.0075037787 0.008017371 -0.036404066
0.04147515 0.045140147 -0.025126409 0.024784507 -0.036626164 0.030747427 -0.01385264 -0.05047905
-0.010085245 0.00060271414 0.06607911 -0.0042345673 -0.04405773 -0.061869513 -0.015351488 0.006937476
0.030217828 -0.055289224 -0.048868537 -0.06495473 -0.06365919 -0.064465925 -0.026150547 -0.05483387
-0.068261094 -0.07158279 -0.040217947 0.0174868 0.016284103 -0.06444877 -0.05901236 0.034582783
-0.03206823 -0.013254452 0.018971886 -0.0180439 0.008173091 0.037853234 -0.025839109 -0.008537001
0.023757087 -0.02445227 -0.07870458 -0.009449291 0.00562057 -0.014834283 -0.03266481 0.04847706
0.03578138 -0.046318162 0.012335372 -0.017711299 0.025434824 -0.057688404 0.0030951106 0.035990443
0.0043238327 -0.0063707503 0.027430842 0.008487235 -0.036022887 -0.016496785 -0.034131676 -0.03217249
0.031259637 0.025235921 0.017459963 -0.058911312 0.04413834 0.0092613 -0.020890348 -0.06951476
-0.032847695 0.022238776 0.023578092 0.0155451195 -0.0026718855 -0.053353015 -0.07147924 0.007937881
0.06978806 0.030897845 0.023787698 0.012038626 -0.030646114 0.02509815 -0.04566036 -0.057025533
-0.009289967 -0.035733525 0.0019731617 -0.046079576 0.012686125 0.04154994 0.013878356 -0.07017345
0.033980235 -0.046340678 -0.047432948 0.022873886 0.056659173 0.015188495 -0.024561835 0.0384458
-0.044646807 -0.017889585 -0.067946784 0.011768815 -0.030086365 -0.07159382 0.02887407 -0.005065856
0.0059693656 0.017648662 0.029404374 -0.029247846 -0.017199418 -0.02979499 0.024159752 -0.011218092

cnn.bias f4 [128]
00000000: d560 83bb 0587 40bc 3a51 843d d55b 633d
00000010: 7992 5ebd 2b6d ad3c 087c a2bb 5c8f e03c
00000020: e1a6 01bd d483 4dbd df14 18bd d91e 313c
00000030: afe5 203d a815 a6bc 42cb 92bc 0e2c df3c
00000040: 08a4 27bc dd0f 8abc 4321 8f3d e50e ba3c
00000050: c9e7 04bd 6816 8c3d 8025 253d d273 1d3d
00000060: 4cdd be3c ce41 0b3d 67ab 543d 420b 9e3d
00000070: 707a 8dbd b3c5 eabc be80 84bd 0ca1 a43d
00000080: 96c1 98bd 09ee 37bd 2744 a83c 155e d23c
00000090: 1561 80bd 4920 ab3c c011 6fbd 0974 19bd
000000a0: b16a 85bc ba57 933d 2c48 83bd d276 fabc
000000b0: cc15 61bd a305 dcbc 71fd 803c bad7 ad3b
000000c0: 99fd 053d e657 81bb 7716 32bd 602a c4bc
000000d0: 9b62 583d 746f 90bd 92ae f73c a582 603c
000000e0: 9843 c63c 1c52 95bc 2720 78bd ba3e df3c
000000f0: 25fd 723d a44a 923c 53c1 b33b eaa9 083d
00000100: a874 92bd b80f 6d3a fb2e 00bd a3c8 9cbd
00000110: ea66 1abd e972 6c3d 3d56 9abd 4be8 febc
00000120: 98dd 223d dff3 56bc 3df2 33bd a575 bb3c
00000130: a1a4 1ebc 8f06 f4bb 4bf8 703d b5ce f6bb
00000140: 9b29 6d3d 4721 1e3d 6aa7 74bd 829c 85bd
00000150: b389 803d 5a18 0e3d f87a 953d d1fa b6bc
00000160: 843e 943c 677d 4dbd 309d a6bd 28a4 ffbb
00000170: 347b db3c 62fe 243d f42d 473d 35ee a33c
00000180: d02a fdbb 94ea 893d f56a 29bd f564 9cbc
00000190: d31c eabb 2c84 5a3d 1287 09bc 9ff2 e03c
000001a0: 3e6a 1a3d 1ad8 a53b a76a 1bbd ebe2 39bd
000001b0: 2f51 67bd 8e87 7fbd 5be5 a13d de5a 3b3d
000001c0: bb71 4c3d c2e5 9e3c c975 c8bc aa03 4a3d
000001d0: 93a2 823c 7a0e 99bd e711 063c 62b2 ae3c
000001e0: 4f71 d93c 9b49 27bd 65fd 2f3d 6b8e 9abd
000001f0: a2ab 523d 70f2 9a3b 1e89 ff3b cf95 25bd
-0.004009346 -0.011750941 0.06460805 0.0555075 -0.054338906 0.02117022 -0.0049586333 0.02741211
-0.03165329 -0.05017455 -0.03712928 0.010810577 0.039281543 -0.020273998 -0.017919187 0.027242687
-0.010231979 -0.016853267 0.06988766 0.02271218 -0.03244761 0.06840211 0.040318966 0.038440533
0.023298882 0.033998303 0.051921275 0.07716991 -0.06908119 -0.028658723 -0.06469868 0.0803853
-0.074587986 -0.044904742 0.02054031 0.025679627 -0.06268517 0.020889418 -0.058366537 -0.037464175
-0.016286226 0.07194467 -0.0641025 -0.030574236 -0.054952428 -0.026858157 0.01574585 0.0053052576
0.032712553 -0.003947246 -0.043478455 -0.023945987 0.052828413 -0.07052508 0.030234609 0.013703023
0.024202153 -0.01822763 -0.060577538 0.02725159 0.05932345 0.017857857 0.0054856925 0.033365168
-0.07151157 0.0009043175 -0.031294804 -0.07655456 -0.037695803 0.057726774 -0.0753598 -0.031116625
0.03976211 -0.013119667 -0.04393219 0.022883246 -0.009682805 -0.007447071 0.05883054 -0.0075319656
0.057901006 0.038605954 -0.05972997 -0.06523992 0.06276264 0.034691192 0.07298845 -0.022336395
0.018096216 -0.05016842 -0.0813545 -0.0078015514 0.026792146 0.04028166 0.04862781 0.020011047
-0.007726051 0.06734195 -0.041361768 -0.019091109 -0.0071445494 0.053348705 -0.00839402 0.02745944
0.037698977 0.0050611617 -0.03794351 -0.04538242 -0.056473907 -0.062385134 0.07905074 0.045740955
0.04991315 0.019396666 -0.024470227 0.0493199 0.015946662 -0.07473464 0.008182979 0.021325294
0.026543288 -0.04084168 0.042966265 -0.07546695 0.051433213 0.004728608 0.007798328 -0.04042607

linear.weight f4 [64, 128]
00000000: 2165 c83c 63a2 613d 4692 3abd 08d1 253d
00000010: 65b0 7a3d 97c7 fabb 08c6 46bc c69e 853d
00000020: 7755 cabd 6b58 ddbb 790a 7d3d 93ae db3c
00000030: 32c5 4a3d a795 bc3c 3c9f 41bd 090a bf3d
00000040: 9afa d53d 0ed0 963d 566e 31bd b8b8 13bd
00000050: 3f68 8f3c df00 423d 6056 50bc b066 863d
00000060: 43e7 58bd 19c1 00bd 9ca7 573d adea 983d
00000070: d162 d23c 79ec 21bc 043b fc3c e78b 83bd
00000080: b4d6 553d 7f5e 6abd 9bbe a0ba 7340 453d
00000090: 487e 86ba cc09 113d 25a4 a8ba 2322 733d
000000a0: 74d0 753d 123f d23c 7e7d 0ebc eca7 45bc
000000b0: dd7f 2bbd f11a 74bd 4cb3 d43c 3538 133d
000000c0: 7996 173d 964c 6bbd d0b2 95bd 7306 cebd
000000d0: 9da8 fdbc 9f4c 5fbd a413 213d 0dee 143c
000000e0: 7342 d4bd 2b9a 3c3d ab2a 3f3d d983 bcbc
000000f0: 704f 7dbd 7b6f ab3d f33d 953c af34 69bc
00000100: 2d16 173d e4a4 b33d d4b1 8d3d af7c 33ba
00000110: c3c1 8bbd 3c3d 183d 469d 203d 30b3 24bc
00000120: 6b56 bd3d c69a d53c dcbf 27bd 8f34 d8bb
00000130: 75fe 42bd 3db8 c5bd cc8e a93c a4a3 903c
00000140: 0fb6 8e3d 78ad eeb7 8f58 f1bc 148b 8abd
00000150: 5b57 763b 616a bd3d ea19 9a3d 8ce4 8fbc
00000160: 980d 12bd 1245 223d 9625 563c ea23 58bd
00000170: bfc8 ee3c c688 37bd 7306 13bd 36ad f53c
00000180: 547f 7ebc 4033 c63c 0dff 74bb 5678 9f3d
00000190: fb4a 323d 635d 30bd f61f 91bc ca3d 9c3d
000001a0: 6597 15bd 8c9a 913c d73e 0a3d 6d45 74bd
000001b0: 9d34 cabd c2d4 16bd e362 683d cb78 4ebd
000001c0: 1b0e a03d 366e 123d c907 9b3c e811 923b
000001d0: 1e25 fbbc 79e2 523d d3c0 b33d 5792 aa3c
000001e0: d8ba 9f3d 2ec0 103c d750 a63d 990d 37bd
000001f0: b4d1 2b3d 96d2 7c3d 0aef 523d 22dc b93c
00000200: e988 bebc 44d6 b53d 0673 60bd a877 d63b
00000210: 0bfd b73d 96c7 75bd ae13 573c 0f08 a9bd
00000220: 18e0 a43d e7ef 54bc a445 643d 068a 59bd
00000230: bd45 b9bd afbb 39bc 13ed d73c 4c9d 173d
00000240: 63ef f4bc 01d0 93bd 6c88 68ba b3eb 6c3d
00000250: 2e76 e5bc 46d0 d2bd b31a d5ba 103b 29bd
00000260: ccab af3d a37f 59bd 3abf 74bd 9de1 14bd
00000270: 3ae4 a63d 5da6 6fbd 7fa2 3fbd 02e2 8cbd
00000280: ac6a 83bc 0ff3 7b3d 6203 84bc 98e6 65bc
00000290: 0aa0 35bc 3b6e 753d b861 54bd a80e 8c3b
000002a0: 20b8 343d 510c e9bd 9c94 a13d 97c5 d13a
000002b0: 7e29 ba3d fa9c 1dbd 2a9e 5f3d b0df e43c
000002c0: d602 ffbc cb06 c93c 4ba0 473d 33e1 8cbc
000002d0: 87a2 9ebc 940e 423d b696 273d 50eb 9ebd
000002e0: 1eab 9e3d e4c9 373d cc9e 80bc a8f0 49bd
000002f0: 4e0e 573d 4208 8abd 7f18 103d fc64 d7bd
00000300: 368c 803d c62d 9cbd fe61 1abc 9344 b13d
00000310: 909a 063d 1a81 4ebd 3fe0 c23d fcb6 34bd
00000320: fe53 59bc 1df7 bd3c 6bed 5abd e148 5f3d
00000330: 493d d63c 66e5 e03d 91a7 b5bd bdda 2f3d
00000340: 93e3 8ebd dcea b7bd add0 2a3d 0493 e03a
00000350: 518a 4d3d ca00 55bd 35c3 78bd eb3e 7e3d
00000360: 7d0a b8bc 07fe f23d eeec c23d 46f3 123b
00000370: 4d47 8ebd 0af0 c0bd f68b 80bc aeec 7ebd
00000380: cc12 1f3d 81be 71bc 293f c73d 30b4 99bd
00000390: 9da7 163d 3a51 f93c 8099 683c 4e58 85bd
000003a0: 1599 1ebc 6d71 c3bd 34a6 a73d 9614 103d
000003b0: b42d f23d 5dcc f0ba b014 4ebd f5b6 1abd
000003c0: 98ed 83bc ce64 92bc fae1 efb9 dd66 cdbd
000003d0: fb40 813a 0214 933d 9702 1cbc 36d6 153c
000003e0: 6bbb 91bd 9128 21bc 999d 76bd 6e67 c33d
000003f0: da98 b5bc 263c c5bd 8f65 3a3d 1308 a73d
0.024462285 0.055086505 -0.045549653 0.04048255 0.06120338 -0.0076531875 -0.012132175 0.06524424
-0.098795824 -0.006754925 0.061777566 0.026816642 0.049504466 0.023020579 -0.047271 0.09328086
0.10448189 0.07363902 -0.043318115 -0.036064833 0.017505763 0.047364112 -0.012715906 0.06562555
-0.052954923 -0.031434152 0.05265008 0.07466636 0.025681885 -0.00988304 0.03078986 -0.06423169
0.05220671 -0.057219025 -0.0012263836 0.048157167 -0.0010261023 0.035409734 -0.0012866302 0.059358727
0.06001325 0.02566484 -0.008696912 -0.0120639615 -0.041869987 -0.059596006 0.025964402 0.035942275
0.037008736 -0.057446085 -0.073094964 -0.10059824 -0.03096419 -0.05451643 0.03932537 0.009089959
-0.10364237 0.046045464 0.04667155 -0.023012089 -0.061843336 0.083708726 0.018218016 -0.014233752
0.036886383 0.08771685 0.06918684 -0.00068468874 -0.068240665 0.037167773 0.039212488 -0.010052487
0.092449985 0.026074778 -0.040954456 -0.0065980623 -0.04760595 -0.09654281 0.020697974 0.017656155
0.06968319 -2.8452589e-05 -0.029461173 -0.06764808 0.003758869 0.09248806 0.07524474 -0.017565034
-0.035657495 0.03961665 0.013070485 -0.052768625 0.029148458 -0.04480817 -0.035894822 0.02998982
-0.015533287 0.02419436 -0.0037383467 0.07786624 0.04352854 -0.04305781 -0.017715435 0.07628973
-0.036521334 0.017773889 0.033751335 -0.059636522 -0.098733164 -0.036823995 0.05673493 -0.050408166
0.078151904 0.035749637 0.01892461 0.004457701 -0.030657347 0.051485512 0.08777013 0.020821733
0.077993095 0.008834882 0.08120888 -0.044690702 0.041948035 0.061724268 0.051497497 0.022687975
-0.023258643 0.088787585 -0.054797195 0.006545026 0.08983811 -0.060004793 0.013127251 -0.0825349
0.08050555 -0.01299665 0.055730477 -0.053110145 -0.09046505 -0.011336251 0.026358163 0.037015244
-0.029899305 -0.07217408 -0.0008870426 0.057841968 -0.028010454 -0.10293631 -0.0016258567 -0.041316092
0.085776895 -0.05310024 -0.05975268 -0.036347974 0.081489995 -0.058508266 -0.046785828 -0.06879045
-0.016042076 0.061511096 -0.016114894 -0.014032029 -0.01108552 0.059919577 -0.051851004 0.004274208
0.044120908 -0.11379302 0.07889673 0.0016004321 0.09089945 -0.038479783 0.054594196 0.027938694
-0.031129282 0.024539372 0.04873685 -0.017197227 -0.019364608 0.047377184 0.040915214 -0.07759726
0.07747482 0.044870272 -0.01570072 -0.049301773 0.052503876 -0.06739856 0.03517961 -0.10517308
0.06276743 -0.07625918 -0.009422777 0.086556576 0.032862246 -0.05041609 0.09515428 -0.04411982
-0.013264654 0.023189122 -0.053449076 0.054512862 0.02615227 0.10981254 -0.088698514 0.042933214
-0.06977 -0.08980343 0.041702915 0.0017133658 0.050180737 -0.052002706 -0.06073304 0.062071722
-0.022465939 0.11864858 0.09517847 0.0022422834 -0.06947193 -0.09420784 -0.015691739 -0.062237434
0.038836285 -0.014754892 0.09728844 -0.07505071 0.036780942 0.03043424 0.0141967535 -0.065109834
-0.009680052 -0.095431186 0.081859976 0.035175882 0.118251234 -0.0018371452 -0.050312698 -0.037772138
-0.016104504 -0.017870333 -0.00045753998 -0.10029385 0.0009861285 0.071815506 -0.009522102 0.00914531
-0.07115825 -0.009836332 -0.06020889 0.09541212 -0.022167612 -0.09630613 0.04550701 0.08155837

linear.bias f4 [64]
00000000: f7df af3d fea0 063d 0e76 ab3b c7ad b2bd
00000010: b23d 82bd 40d4 83bd 4a58 333d 6e93 753d
00000020: a457 58bd 6ce5 a0bd f213 1e3d f4da 6f3b
00000030: 00b5 52bd 7d79 843d 6ad6 1d3d d399 a3bd
00000040: 5623 69bd 3582 94bd 4cb7 e3bc 7385 30bc
00000050: 8cb3 a33d 4031 82bd 2a4a 03bd dd6a ebbc
00000060: 73c1 893b 8651 cebc 662c 9bbc 24a7 16bd
00000070: c858 12bd c8bc eeb8 8278 1ebd 6dab 363d
00000080: 64cb ff3c c785 5b3d 47f0 a23c b977 2e3d
00000090: dd04 0e3d 1b66 dfbb 2f37 68bd aa81 64bd
000000a0: 1904 37bd ddb9 a2bd eaca abbd 7524 4c3d
000000b0: 42b0 72bc 3b25 66bc 3976 59bc 6877 ecbc
000000c0: 05f5 6dbb a3ed 98bc 1a1d 763d dc53 10bc
000000d0: 15b8 243d aef7 fc3c 08a3 31bd 40e7 2cbc
000000e0: 3042 97bd e3aa 1cbc bc22 5bbd bafe a8bc
000000f0: 4d61 d8bc 12c9 f43c 6597 83bd 412c 62bd
0.0858764 0.032868378 0.005232579 -0.08724552 -0.06359424 -0.06436968 0.04378537 0.059955053
-0.052817956 -0.07856259 0.03859324 0.0036599012 -0.051442146 0.064684846 0.03853456 -0.07988324
-0.056918465 -0.072513975 -0.027797364 -0.010774004 0.0799323 -0.0635705 -0.03205315 -0.02873748
0.004203969 -0.025185358 -0.01894207 -0.03678049 -0.0357292 -0.000113838876 -0.038689144 0.044597078
0.031224914 0.053594377 0.019889964 0.042594645 0.034672607 -0.006817592 -0.056693252 -0.05578772
-0.044681642 -0.07945607 -0.08388312 0.049839456 -0.014812531 -0.014046962 -0.013272815 -0.028865531
-0.0036309373 -0.018668002 0.060086347 -0.008809056 0.040214617 0.030879822 -0.04336837 -0.010553181
-0.07385671 -0.009562227 -0.053499922 -0.020629276 -0.026413584 0.029881034 -0.064253606 -0.055217985

linear2.weight f4 [1, 64]
00000000: 0eec 383d cab0 a1bc ac24 9dbd 08ea d3bd
00000010: 60df fe3c 20d4 4fbc 01b7 533d d540 8b3d
00000020: 3caa a03c 2620 fb3d b977 d7bc 3717 7dbd
00000030: 5f2b d5bd 6691 533d bd72 11bd 7818 583c
00000040: 4a0f 40bc 388a 463d 519b 76bc 7fa7 1f3c
00000050: 00e0 8c3d d49b bb3d b88a e2bd ee43 98bd
00000060: 1475 a13d 7033 adbc ecab 753d 6226 aa3d
00000070: 8862 f13d 3df9 2ebd 9eca 75ba d3ca 993d
00000080: f2cf 90bc 082b 393d a6b8 883d b7b9 c6bd
00000090: 0abb b23d c498 e8bc 5810 b2bd d0e3 1abd
000000a0: 0d03 5fbd 6822 963d 58d4 043d c2b3 643b
000000b0: f865 52bd 56b6 0cbb fe86 97bb f2cf aabd
000000c0: cedf a43d e4a6 9bbd ec50 033d 4def 893c
000000d0: 8f77 7cbd 2f86 d13d 61bf 0dbd b4d2 32bd
000000e0: 3ace 9dbd 7af1 85bd 9046 b63d 9f08 c2bd
000000f0: acaa 8cbd 3f91 f83d 2ce8 8b3d ccb6 c63d
0.045146994 -0.01973762 -0.0767301 -0.10347372 0.031112373 -0.012684852 0.051688198 0.06799475
0.019612424 0.12261991 -0.026302205 -0.061789718 -0.10408663 0.051652335 -0.035509814 0.013189428
-0.011722395 0.04847166 -0.015051679 0.009744524 0.06878662 0.09160581 -0.11061615 -0.074348316
0.07883659 -0.021142691 0.05997841 0.08308102 0.117863715 -0.04271816 -0.00093762006 0.07509389
-0.017677281 0.045207053 0.06675844 -0.09703391 0.08727081 -0.028393157 -0.086945236 -0.037814915
-0.05444627 0.07330781 0.03242907 0.0034897183 -0.051366776 -0.0021470985 -0.0046242466 -0.08340444
0.080505 -0.07600191 0.032059595 0.01683774 -0.061637457 0.102306716 -0.03460634 -0.043657973
-0.0770535 -0.065401986 0.089001775 -0.094743006 -0.068684906 0.121370785 0.06831393 0.097028345
